roof_segmentation_dgcnn_best.pth (torch, 377692 bytes, 42 tensors)

encoder.conv1.nn.0.weight f4 [64, 12]
0	0xbe139d1e	-0.14415404
1	0x3e92aadd	0.28645983
2	0x3eac646f	0.33670375
3	0x3dc6ff63	0.0971668
4	0xbe80de82	-0.2516976
5	0x3eb41676	0.35173386
6	0xbe54c6ab	-0.20778911
7	0x3e8841f9	0.26612833
8	0xbe8d3892	-0.27582222
9	0x3e9efe94	0.31053603
10	0xbe7f4a3e	-0.24930665
11	0x3e54611b	0.20740168
12	0x3e54638b	0.20741098
13	0x3e277034	0.16351396
14	0x3dd920a0	0.10601926
15	0x3dcab5fe	0.098979935
16	0x3ded9bf7	0.116020136
17	0xbeb1c2d0	-0.34718943
18	0xbc95e19f	-0.018296061
19	0x3ea0367a	0.31291562
20	0xbe93a89b	-0.28839573
21	0x3ddb1916	0.10698144
22	0x3ddca7a6	0.10774164
23	0xbb8b2f08	-0.00424755
24	0x3d6bb964	0.05754985
25	0x3eab75c8	0.33488297
26	0xbd9ab336	-0.07553713
27	0xbe2ccce4	-0.16875035
28	0xbc81e57c	-0.015856497
29	0xbe85c3e7	-0.26126024
30	0xbd9b4dc6	-0.075831935
31	0x3ea0e7d4	0.3142687
32	0x3da0d113	0.07852378
33	0xbdd5af03	-0.104337715
34	0xbe12a2e9	-0.14319958
35	0xbdac4306	-0.08411221
36	0xbe903b4f	-0.2817025
37	0x3e19d0d5	0.1502107
38	0xbe9664ee	-0.29373878
39	0xbe6a71bc	-0.22894949
40	0x3da5bbfc	0.08092496
41	0x3e98661b	0.297654
42	0x3daee257	0.08539265
43	0xbdd67a6a	-0.104725674
44	0xbe53b64d	-0.20675011
45	0x3e05a04d	0.13049431
46	0x3e7a09df	0.24417828
47	0x3e69d690	0.22835755
48	0x3e069d8f	0.13146041
49	0x3d38a6fd	0.045081127
50	0xbd2840be	-0.041077368
51	0x3d585e76	0.05282446
52	0xbe10da9c	-0.14145893
53	0x3e721fda	0.23644963
54	0x3e46c17a	0.19409743
55	0x3e926d2c	0.28598917
56	0x3e89422c	0.26808298
57	0x3e86a9cf	0.2630143
58	0xbdd518f3	-0.10405149
59	0xbe384c0a	-0.17997757
60	0x3dda2673	0.10651865
61	0xbd70e7e1	-0.058814887
62	0x3daa9f4b	0.08331164
63	0x3e1102ef	0.14161275
64	0xbe935c78	-0.28781486
65	0x3e0e9c09	0.1392671
66	0x3e42dd6d	0.1902978
67	0x3db40b5a	0.08791228
68	0xbae6773d	-0.0017583143
69	0xbe52e25d	-0.20594163
70	0x3c549d6f	0.012976988
71	0x3dbce090	0.092225194
72	0xbdb45bf7	-0.088066034
73	0x3cb70c7a	0.022344816
74	0x3e5df84a	0.21676746
75	0x3ce0a79a	0.027423669
76	0x3e8ed992	0.27900368
77	0xbe694aae	-0.22782394
78	0xbe3fe014	-0.18737823
79	0xbe37fe48	-0.17968094
80	0xbe67ff9e	-0.22656104
81	0xbeac7eed	-0.33690587
82	0x3e4a26cc	0.19741362
83	0xbdaa7119	-0.08322353
84	0xbea6a618	-0.32548594
85	0x3dc2c67f	0.095105164
86	0x3e05cbfb	0.13066094
87	0xbe45312b	-0.19257037
88	0xbcb0ddf9	-0.02159022
89	0x3dce5679	0.10075087
90	0xbd278a68	-0.04090348
91	0x3de7983b	0.113083325
92	0x3c15327b	0.009106274
93	0xbdd051f4	-0.10171881
94	0xbdcd21ea	-0.10016234
95	0x3d8e7665	0.06956176
96	0xbc95749f	-0.018244086
97	0xbe468b3c	-0.19389051
98	0xbe3cbb8c	-0.18430918
99	0x3e5d8e8e	0.21636412
100	0x3e36aaf4	0.17838651
101	0x3c3b9f87	0.0114516085
102	0xbd270d11	-0.040783945
103	0xbd3e3b34	-0.04644318
104	0x3e668cde	0.22514674
105	0xbdfa8e15	-0.12234131
106	0xbe7712bd	-0.24128242
107	0x3e751daa	0.23937097
108	0x3e14b980	0.14523888
109	0x3e789fdf	0.24279736
110	0xbdc6fba7	-0.097159676
111	0xbe306e73	-0.17229633
112	0x3e4cd583	0.20003323
113	0x3e5bc49c	0.2146172
114	0x3dfe1c40	0.12407732
115	0x3da2bf8f	0.07946693
116	0x3e88ca3e	0.267168
117	0xbe0adec2	-0.13561538
118	0x3d3378f6	0.04381653
119	0x3e901859	0.28143576
120	0xbe5c9b1e	-0.21543548
121	0x3dc9cacf	0.09853136
122	0xbe3091be	-0.17243096
123	0x3dfdd7eb	0.12394699
124	0x3e82553a	0.25455648
125	0x3c2e9e06	0.010657793
126	0x3c89f1af	0.016838877
127	0xbe646887	-0.22305499
128	0x3dfdc1da	0.1239049
129	0x3d68462c	0.056707546
130	0xbcaa3156	-0.020775478
131	0x3e974957	0.2954814
132	0xbe616b53	-0.22013597
133	0x3e2fccca	0.17167965
134	0x3e05ec5b	0.13078444
135	0xbd54bb9b	-0.051936727
136	0xbe8c85ea	-0.27445918
137	0x3d861641	0.06547213
138	0x3e973d28	0.29538846
139	0x3e40c4f0	0.18825126
140	0xbe531f30	-0.20617366
141	0x3d1516d9	0.036398742
142	0xbc9bed14	-0.019033946
143	0xbe85af34	-0.26110232
144	0xbe0c196e	-0.13681576
145	0x3e0f49e6	0.13993034
146	0x3e4bc4d5	0.19899304
147	0x3e73eea8	0.23821509
148	0x3e36b348	0.17841828
149	0x3e82d77e	0.25555032
150	0x3df67f1e	0.120359644
151	0xbdf969cf	-0.121783845
152	0xbc772fe6	-0.0150871035
153	0xbe7b12be	-0.24518868
154	0xbd3e30b1	-0.046433154
155	0x3da05e5f	0.078305
156	0x3e09bd09	0.13451017
157	0x3dcd2fd8	0.10018891
158	0xbe590c52	-0.21196106
159	0xbe6c3e22	-0.23070577
160	0x3e48e546	0.19618711
161	0xbc88a0a7	-0.016678168
162	0xbe8da2cf	-0.27663276
163	0x3e263f5e	0.1623511
164	0xbe7f6a78	-0.24942958
165	0x3e567c9d	0.20945974
166	0x3e551503	0.20808797
167	0xbe90aca4	-0.28256714
168	0x3db5bce0	0.08873916
169	0x3e171093	0.14752416
170	0xbd361794	-0.04445608
171	0x3dab3062	0.08358838
172	0xbe9458a2	-0.2897387
173	0xbd0ba74a	-0.034095086
174	0x3ed6d17c	0.419567
175	0x3e825088	0.25452065
176	0x3e242c68	0.16032565
177	0x3e1cb8ed	0.15304919
178	0xbd94e176	-0.07269566
179	0x3e2ea0d6	0.17053542
180	0xbe804e77	-0.25059864
181	0xbca5d78b	-0.02024438
182	0xbe8d4777	-0.27593586
183	0x3d98b0b2	0.07455577
184	0xbd2eeae0	-0.042704463
185	0xbd42d609	-0.0475674
186	0x3e4c5ed0	0.19958043
187	0x3d157a57	0.036493625
188	0x3dbb6495	0.09150044
189	0xbe4e3c38	-0.20140159
190	0xbe7e0e39	-0.24810113
191	0xbdc42cbf	-0.09578847
192	0x3d4ad026	0.049514912
193	0xbe100cdc	-0.14067405
194	0x3d94d09a	0.0726635
195	0xbe54915f	-0.2075858
196	0x3decfa08	0.11571127
197	0xbd915847	-0.07096916
198	0x3b48f737	0.003066493
199	0xbd4ad5eb	-0.049520414
200	0x3dbca68c	0.09211454
201	0x3da41b99	0.08013076
202	0xbe11a6c9	-0.1422378
203	0x3ce9ab52	0.028524075
204	0xbceabada	-0.02865355
205	0x3e12d92c	0.14340657
206	0x3e64e38c	0.22352427
207	0xbe2d7f09	-0.16942991
208	0x3e9bc4ba	0.30423528
209	0x3e7c2ea0	0.24627161
210	0xbd0b02bd	-0.03393816
211	0x3e35abb1	0.17741276
212	0x3d706a3d	0.058695067
213	0xbcfbf164	-0.030754752
214	0x3e3540d5	0.17700513
215	0x3e0a31b6	0.13495526
216	0xbe43c1dd	-0.19116922
217	0x3e3de17d	0.18543048
218	0xbe455c9d	-0.1927361
219	0xbd8e2441	-0.06940509
220	0x3e573523	0.21016364
221	0x3e31ea88	0.17374623
222	0xbe0a4171	-0.13501526
223	0xbdce0ce4	-0.100610524
224	0x3ac9986d	0.001538051
225	0x3d6df7f9	0.058097813
226	0x3dc75e6e	0.09734808
227	0x3d9f6c9f	0.0778439
228	0xbe8716ed	-0.26384678
229	0xbe097492	-0.13423374
230	0x3e560380	0.20899773
231	0xbe6d539b	-0.23176424
232	0x3e82ae8e	0.255238
233	0x3c9f027f	0.01941037
234	0x3e26c9a3	0.16287856
235	0x3df8af41	0.12142802
236	0xbcad797e	-0.021176096
237	0xbe138101	-0.1440468
238	0x3e3a8975	0.18216498
239	0x3e756164	0.23962933
240	0xbe1bc5b6	-0.1521214
241	0x3e22c148	0.15894043
242	0xbdafc911	-0.08583272
243	0xbc1feb62	-0.0097607095
244	0xbdf40c65	-0.119164266
245	0xbe3b0af3	-0.18265896
246	0x3c4d6a95	0.012537618
247	0x3e314e60	0.17315054
248	0xbdc74057	-0.09729069
249	0x3e85e8ae	0.26154083
250	0x3cebef1e	0.028800543
251	0xbe48b6ab	-0.19600932
252	0x3e7d38c4	0.24728686
253	0x39cb3404	0.00038757932
254	0xbe2853ea	-0.1643826
255	0x3e956ca6	0.29184455

encoder.conv1.nn.0.bias f4 [64]
0	0x3db6c545	0.08924345
1	0xbe260f11	-0.16216685
2	0x3d21dff4	0.03952022
3	0xbe86bc2a	-0.26315433
4	0xbcabcace	-0.020970728
5	0x3dd47364	0.103735715
6	0xbe354555	-0.1770223
7	0xbe33d882	-0.1756306
8	0x3e266738	0.16250312
9	0xbe40952c	-0.18806905
10	0x3e3f803f	0.18701266
11	0x3e9118b7	0.28339168
12	0xbe2d25d8	-0.16908967
13	0x3cf8ff9d	0.030395323
14	0x3e66733e	0.22504899
15	0xbe396b49	-0.18107332
16	0x3e3279ed	0.17429323
17	0x3e004a38	0.12528312
18	0xbdf72519	-0.12067623
19	0xbe83dc61	-0.25754073
20	0x3e4cabed	0.1998746
21	0xbe0f35e2	-0.13985398
22	0x3d9a8de2	0.07546593
23	0x3e688ec0	0.22710705
24	0xbe9228d6	-0.2854678
25	0x3e3bcecf	0.1834061
26	0xbe45818f	-0.19287704
27	0x3e803d1d	0.25046626
28	0x3dce04d4	0.10059515
29	0xbe050525	-0.12990244
30	0xbd6612bb	-0.056170207
31	0x3d9dbfab	0.077025734
32	0xbc97c725	-0.018527577
33	0xbc11b191	-0.008892433
34	0xbc7d5e32	-0.015464352
35	0x3e3e186d	0.18564005
36	0x3d12cfa9	0.03584257
37	0x383c4d88	4.48949e-05
38	0x3e0527b4	0.13003427
39	0xbc97c5f5	-0.01852701
40	0x3e4594a1	0.19294979
41	0xbe43de1e	-0.191277
42	0xbe787099	-0.24261703
43	0xbe1f0fb6	-0.15533337
44	0x3bc340a4	0.0059586335
45	0x3e77eada	0.24210683
46	0x3d612742	0.05496908
47	0x3e8212af	0.2540488
48	0x3e7afd18	0.2451061
49	0xbd333cd1	-0.04375917
50	0x3da4d11b	0.08047696
51	0xbe94be58	-0.2905147
52	0xbb82ec3c	-0.0039954465
53	0x3e28f6d9	0.16500415
54	0x3e8deb0b	0.27718386
55	0xbe2e3c1f	-0.17015122
56	0xbdf95406	-0.12174229
57	0x3e8ccf29	0.275018
58	0x3df0b07b	0.11752411
59	0xbd1a34a3	-0.037647855
60	0xbdee1f22	-0.11627032
61	0x3e36edf6	0.17864212
62	0x3e922bcb	0.28549036
63	0x3e3cc5b9	0.184348

encoder.conv1.nn.1.weight f4 [64]
0	0x3f896087	1.0732583
1	0x3f71ca97	0.9444975
2	0x3f7ac738	0.97960234
3	0x3f770e51	0.9650622
4	0x3f75e203	0.9604799
5	0x3f886598	1.0656004
6	0x3f6e6dc8	0.9313626
7	0x3f784ef4	0.9699547
8	0x3f840975	1.0315386
9	0x3f7ea8e0	0.9947643
10	0x3f80f9cd	1.0076233
11	0x3f84a5cb	1.0363096
12	0x3f6dceea	0.9289385
13	0x3f751cf5	0.9574731
14	0x3f7ad6b9	0.9798389
15	0x3f81913a	1.0122445
16	0x3f80efbe	1.0073164
17	0x3f75f0e8	0.9607072
18	0x3f73b5ea	0.95199454
19	0x3f744ad9	0.9542671
20	0x3f762302	0.9614717
21	0x3f7fd042	0.9992715
22	0x3f830a1d	1.0237461
23	0x3f87d1b3	1.061087
24	0x3f84f102	1.038605
25	0x3f714c59	0.9425712
26	0x3f84d1b7	1.03765
27	0x3f7253c7	0.94659084
28	0x3f8261fb	1.0186151
29	0x3f80b7ca	1.0056088
30	0x3f868f11	1.051241
31	0x3f748389	0.95513207
32	0x3f89f751	1.07786
33	0x3f6ba219	0.92044216
34	0x3f74db6f	0.9564733
35	0x3f7c9d58	0.9867759
36	0x3f7fc67d	0.99912244
37	0x3f755757	0.95836395
38	0x3f83f16f	1.0308055
39	0x3f802748	1.0011988
40	0x3f70e6c1	0.941021
41	0x3f892dc9	1.0717098
42	0x3f846511	1.0343343
43	0x3f818c0c	1.0120864
44	0x3f878fd4	1.0590768
45	0x3f80120a	1.0005505
46	0x3f721b03	0.94572467
47	0x3f77fa18	0.9686599
48	0x3f802bf9	1.0013419
49	0x3f7e97f1	0.99450594
50	0x3f894fbc	1.0727458
51	0x3f8a26df	1.0793113
52	0x3f88a850	1.0676365
53	0x3f87826e	1.0586679
54	0x3f8c8801	1.0979005
55	0x3f7806d6	0.9688543
56	0x3f7dc174	0.9912331
57	0x3f74e46b	0.9566104
58	0x3f877928	1.0583849
59	0x3f8120f1	1.0088178
60	0x3f80b752	1.0055945
61	0x3f857194	1.0425286
62	0x3f8181db	1.0117754
63	0x3f81c243	1.0137409

encoder.conv1.nn.1.bias f4 [64]
0	0x3ddfbde1	0.109248884
1	0x3d460455	0.048343975
2	0x3d240240	0.04004121
3	0x3cdaf370	0.026727408
4	0xbd3c8fa3	-0.04603542
5	0x3d49f249	0.049303327
6	0xbaa3978e	-0.001248108
7	0x3cfbd746	0.030742299
8	0xbd3047f5	-0.043037374
9	0x3b1367e8	0.0022492353
10	0xbd363154	-0.044480637
11	0x3d559d71	0.0521521
12	0x3d3381b8	0.04382488
13	0xbd33432d	-0.043765236
14	0x3d2264ae	0.039646797
15	0x3caa9928	0.020824984
16	0xbbebce00	-0.007196188
17	0x3c1a3318	0.009411596
18	0xbc0782c1	-0.00827092
19	0xbc9860f4	-0.018600918
20	0x363dd6f7	2.828832e-06
21	0x3cb7e549	0.022448199
22	0xbcb3ad93	-0.021933353
23	0x3c204e8d	0.009784353
24	0x3ddd5828	0.1080783
25	0xbdb3af04	-0.08773616
26	0x3dd7cbeb	0.10536941
27	0xbd8610dc	-0.065461844
28	0x3d2d03bb	0.042239886
29	0xbc431231	-0.011906193
30	0x3b4ac8a3	0.0030942343
31	0x3ccebacc	0.025235556
32	0xbbcbd5e3	-0.0062205656
33	0xbd462f55	-0.048384983
34	0xbd3dc453	-0.046329807
35	0xbcdb8b28	-0.026799753
36	0x3da4ab74	0.080405146
37	0xbcbd553d	-0.023111934
38	0xbc90133d	-0.017587299
39	0xbdcaec49	-0.09908349
40	0x3cf48b91	0.029851707
41	0x3cad990a	0.021191139
42	0xbcf9507a	-0.030433882
43	0x3b7275ec	0.0036996556
44	0x3ce3c140	0.02780211
45	0xbdb16f6d	-0.08663831
46	0xbcbdaeaa	-0.023154575
47	0x3c87d700	0.016582012
48	0xbc74595a	-0.014913881
49	0xbbe5731f	-0.007002249
50	0x3d9ae9a1	0.075640924
51	0x3dd85c1d	0.10564444
52	0x3c415c6e	0.011801822
53	0x3d84a5cb	0.06476935
54	0x3e07a8ed	0.13248034
55	0x3daf8e4b	0.08572062
56	0xbc34a2bd	-0.011025128
57	0x3cbdcfd3	0.023170387
58	0x3dec7c19	0.11547107
59	0x3d880a25	0.0664256
60	0x3d195c89	0.037441764
61	0x3c0cd17d	0.008594868
62	0xbd4148f7	-0.047188725
63	0x3d7971fe	0.060899727

encoder.conv1.nn.1.running_mean f4 [64]
0	0x3ed2aaa3	0.4114581
1	0xbef5aadf	-0.47981927
2	0xbe4d3788	-0.20040715
3	0x3c154e02	0.009112837
4	0x3e4897d1	0.19589163
5	0x3e6cd370	0.23127532
6	0xbec555a0	-0.3854189
7	0xbdabe506	-0.08393292
8	0x3e31a885	0.17349441
9	0x3bfbfeec	0.007690301
10	0x3e49f198	0.19721067
11	0x3eafc6f1	0.34331468
12	0x3d872ce0	0.06600356
13	0x3c7a10f2	0.015262829
14	0x3e4643b8	0.1936177
15	0xbe65e3ae	-0.22450134
16	0x3ddebec5	0.1087623
17	0x3eb36a19	0.35041884
18	0x3d1da4e7	0.03848734
19	0xbe7638ad	-0.24045058
20	0x3d04a5fa	0.03238485
21	0xbe3e3942	-0.1857653
22	0xbdc554e3	-0.096353315
23	0x3ea588f5	0.32331052
24	0xbe35298c	-0.1769163
25	0xbc54e833	-0.012994814
26	0xbec4a7ee	-0.3840937
27	0x3c600530	0.013673112
28	0x3d592c0e	0.05302053
29	0xbc9f6052	-0.019455109
30	0xbd99cb98	-0.075095356
31	0x3df147a9	0.11781246
32	0xbdb240f1	-0.08703793
33	0xbde93e98	-0.11388892
34	0xbb43488d	-0.0029797882
35	0xbd1a8e61	-0.03773344
36	0xbd1752d8	-0.03694424
37	0xbe5b9d4b	-0.21446721
38	0x3dc7e7e9	0.0976103
39	0x3e5c8710	0.21535897
40	0x3ea731a3	0.32655057
41	0x3d3ffaee	0.046870165
42	0xbeca4ea1	-0.39513114
43	0xbedb2843	-0.42804155
44	0x3decb56c	0.11558041
45	0x3ef28076	0.47363633
46	0x3db9640a	0.09052284
47	0x3eaeaa2a	0.341142
48	0x3e42a0ce	0.19006655
49	0xbdedf5ad	-0.116191246
50	0x3ead2369	0.33816078
51	0xbd9bc713	-0.0760633
52	0xbe41ce9a	-0.18926468
53	0x3e6e0143	0.23242669
54	0x3ecad0e3	0.39612493
55	0xbe863afe	-0.26216882
56	0xbe3ad00a	-0.18243423
57	0x3ee667e1	0.45001128
58	0x3d4956f6	0.049155198
59	0x3e5e1289	0.21686758
60	0xbd8a2e8c	-0.06747159
61	0xbd8fd2ac	-0.07022604
62	0x3ea3cb88	0.3199122
63	0x3d26d515	0.040730555

encoder.conv1.nn.1.running_var f4 [64]
0	0x3c540cc3	0.012942496
1	0x3c73b0fa	0.0148737375
2	0x3c61b0c5	0.013775055
3	0x3cc10654	0.023562588
4	0x3b9aecca	0.0047279345
5	0x3c544723	0.012956413
6	0x3c1878c2	0.009306135
7	0x3cb358a3	0.021892851
8	0x3be73f75	0.007057125
9	0x3c8d3558	0.01723735
10	0x3c7290fe	0.014805077
11	0x3c671b7c	0.014105674
12	0x3c4f3ba0	0.012648493
13	0x3c210d85	0.009829883
14	0x3c0003d0	0.007813409
15	0x3c061383	0.008183363
16	0x3b8a037c	0.004211841
17	0x3c8e07b5	0.01733766
18	0x3c91456f	0.017733304
19	0x3cacd00f	0.021095304
20	0x3bc467d8	0.0059938245
21	0x3caf1636	0.021372896
22	0x3bee634a	0.00727502
23	0x3cbe27ee	0.0232124
24	0x3c60ceee	0.013721211
25	0x3c6bb2b6	0.01438587
26	0x3bc1afc3	0.005910845
27	0x3c56c567	0.013108588
28	0x3c2ee00e	0.010673536
29	0x3c5bda8b	0.013418804
30	0x3bcb7c7e	0.006209909
31	0x3bc50fbb	0.006013838
32	0x3b968b13	0.0045942157
33	0x3c3ddd42	0.0115883965
34	0x3c41601a	0.011802698
35	0x3ae1a73a	0.0017215975
36	0x3c020d9c	0.007937815
37	0x3c0f906f	0.008762463
38	0x3bb6a8cd	0.005574322
39	0x3c345c54	0.011008341
40	0x3c4ffd2d	0.012694639
41	0x3c02c1e4	0.007980797
42	0x3ccb55bb	0.024821153
43	0x3c74e829	0.014947929
44	0x3c3ca921	0.011514933
45	0x3cbacaff	0.022801874
46	0x3c5cd400	0.013478279
47	0x3cc03083	0.023460632
48	0x3bf6584c	0.00751785
49	0x3c7e2791	0.015512363
50	0x3bf7d115	0.0075627663
51	0x3c84dea1	0.016219439
52	0x3ba3fba1	0.0050043617
53	0x3c8a215c	0.01686161
54	0x3c243c98	0.010024212
55	0x3c2e84a0	0.010651737
56	0x3bad1f71	0.005283289
57	0x3c8d8469	0.017275052
58	0x3cabaed2	0.020957384
59	0x3c3c1fae	0.011482162
60	0x3c0da4a9	0.008645215
61	0x3c0209fc	0.007936951
62	0x3be5ccd2	0.007012942
63	0x3c0afa14	0.008482475

encoder.conv2.nn.0.weight f4 [64, 128]
0	0x3c875254	0.01651875
1	0xbd861f20	-0.065489054
2	0xbc1b7679	-0.009488695
3	0xbc6959ad	-0.014242572
4	0xbdca5f44	-0.09881452
5	0xbbc987df	-0.0061502303
6	0x3d159a30	0.036523998
7	0x3d8e7b02	0.06957056
8	0xbdb96bbd	-0.090537526
9	0xbd947627	-0.07249098
10	0xbdd49e36	-0.10381739
11	0x3d869409	0.06571204
12	0xbd6298e7	-0.0553216
13	0x3cd216d1	0.025645645
14	0xbdb9e58b	-0.09076985
15	0x3cb6ee6f	0.02233049
16	0xbd18ad39	-0.037274573
17	0x3cbd016a	0.023071963
18	0xbdb7a5b9	-0.08967156
19	0xbd45b5f2	-0.04826922
20	0x3d7c917e	0.06166219
21	0xbda06638	-0.07831997
22	0xbce8fb72	-0.028440211
23	0x3d8e7f10	0.06957829
24	0xbc995e8f	-0.018721847
25	0x3d819b86	0.06328492
26	0xbc728fc7	-0.014804787
27	0x3d7dd5a1	0.06197131
28	0xbcde393f	-0.027126906
29	0x3d4ef233	0.050523948
30	0xbbba259b	-0.0056807525
31	0x3d7798eb	0.06044857
32	0xbc97f6fb	-0.018550387
33	0xbcd70d06	-0.026251327
34	0xbda13fb7	-0.07873481
35	0x3bcc3401	0.0062317853
36	0xbc931194	-0.017952718
37	0x3daffdfd	0.08593366
38	0x3cf4eb80	0.029897451
39	0x3c9e49f1	0.019322367
40	0xbb8e30bc	-0.0043393057
41	0x3d8177c2	0.0632167
42	0x3ddb7346	0.10715346
43	0x3d07185f	0.032982226
44	0xbd2e903c	-0.04261802
45	0x3d88ebde	0.06685613
46	0xbd434746	-0.047675394
47	0x3d1ed085	0.03877308
48	0x3d624eb6	0.055250846
49	0xbd98d4c0	-0.07462454
50	0x3c642837	0.013925604
51	0xbd8ba815	-0.068191685
52	0x3dcd593f	0.10026788
53	0xbc6594e6	-0.014012551
54	0x3d8d1365	0.06888465
55	0x3d97168e	0.07377349
56	0xbcfe5d9f	-0.031050501
57	0x3c9abdd2	0.018889342
58	0x3d92e249	0.07172067
59	0xbc51a9f3	-0.012796867
60	0x3dc2640b	0.09491738
61	0x3d9eda03	0.07756426
62	0xbd0796cc	-0.033102795
63	0xbc1ce7c9	-0.009576746
64	0x3bea02b4	0.0071414355
65	0xbce93472	-0.02846739
66	0xbdae2362	-0.085028425
67	0xbae170a4	-0.0017199707
68	0x3dabe4eb	0.08393272
69	0x3d47a5a5	0.048741955
70	0xbd8a0176	-0.0673856
71	0xbbc94c02	-0.006143094
72	0xbd24a1e6	-0.04019346
73	0xbd8e8315	-0.06958596
74	0x3d87b719	0.0662672
75	0x3de68332	0.11255492
76	0xbc37f305	-0.011227374
77	0xbdce6c20	-0.10079217
78	0xbd25dea5	-0.040495533
79	0x3c9112c2	0.01770914
80	0x3d67d417	0.05659875
81	0xbdc982b7	-0.09839385
82	0xbd830a3c	-0.063984364
83	0x3ce36d54	0.027762093
84	0xbd795ce7	-0.060879614
85	0xbda6a398	-0.08136672
86	0x3d9cebe1	0.07662178
87	0x3cfc5113	0.030800378
88	0x3d9d8a05	0.07692341
89	0x3d9f34e0	0.07773757
90	0x3db91b2d	0.090383865
91	0xbd66d09e	-0.056351297
92	0xbd2d68ba	-0.042336203
93	0xbc853b05	-0.016263494
94	0x3dac2173	0.084048174
95	0xbcbbd4df	-0.022928653
96	0xbd05515c	-0.032548293
97	0x3dfd6c1e	0.12374137
98	0xbcccbfc4	-0.024993785
99	0xbdc02650	-0.093823075
100	0x361aa118	2.3041557e-06
101	0xbdc79657	-0.09745472
102	0xbd71ccac	-0.05903308
103	0x3d89d021	0.067291506
104	0xbca39224	-0.019967146
105	0x3dc8d3fd	0.098060586
106	0xbdd3781f	-0.10325646
107	0xbdb276b1	-0.08714045
108	0xbe001dbb	-0.12511341
109	0xbd657454	-0.056019142
110	0x3ceead1c	0.02913528
111	0xbda35df3	-0.07976904
112	0x3c213880	0.009840131
113	0x3d886241	0.066593654
114	0x3b5b10f5	0.0033426855
115	0xbd550260	-0.052004218
116	0xbcd8a82c	-0.026447378
117	0x3ddecb89	0.10878665
118	0xbbd7ec69	-0.0065894616
119	0xbd82db0a	-0.06389435
120	0x3d99572f	0.07487332
121	0xbd1b0b9b	-0.037852865
122	0x3d8c0e5a	0.06838675
123	0x3d2224d5	0.039585907
124	0xbd9540f6	-0.07287781
125	0xbd5f16f6	-0.054465257
126	0xbbeea5c2	-0.0072829435
127	0xbd1e9ebe	-0.038725607
128	0xbd220ee7	-0.039564993
129	0xbc77710d	-0.015102637
130	0x3d87161a	0.065960124
131	0x3ddb90c8	0.10720974
132	0x3c26eee8	0.010188796
133	0xbd31fa9e	-0.043451898
134	0xbd9da589	-0.07697589
135	0xbba93830	-0.005164169
136	0xbca8642b	-0.020555576
137	0xbd976d74	-0.073939234
138	0x3c26d9ee	0.010183794
139	0x3d99219f	0.07477116
140	0xbd880dd3	-0.06643262
141	0x3dc4786d	0.09593282
142	0xbd3e1478	-0.04640624
143	0x3dabf090	0.08395493
144	0xbd2be534	-0.041966632
145	0xbd807ad9	-0.06273431
146	0x3daf27a2	0.08552481
147	0x3d70a7bb	0.05875371
148	0x3dac0750	0.08399832
149	0x3dd3a9e9	0.10335142
150	0xbcc9a408	-0.024614349
151	0xbce26524	-0.027636118
152	0x3d2b2c1c	0.041790113
153	0x3d48879f	0.048957463
154	0x3d849809	0.06474311
155	0x3d9f8b5d	0.07790253
156	0x3d99dcad	0.07512794
157	0xbcda1b99	-0.026624488
158	0x3d483a64	0.04888381
159	0x3d3d210d	0.046174098
160	0x3c680e86	0.014163619
161	0x3c069144	0.008213345
162	0x3d3a57b7	0.045493808
163	0x3d6e3a28	0.05816093
164	0x3c817ed4	0.015807547
165	0x3dbdf2ff	0.092748635
166	0xbc6a7e7e	-0.014312385
167	0xbd009024	-0.031387463
168	0xbd71afb8	-0.05900547
169	0xbd875f12	-0.0660993
170	0x3deb86d2	0.11500324
171	0xbaa61025	-0.0012669606
172	0xbc3309e0	-0.010927647
173	0x3decf5be	0.11570309
174	0xbc4ac7b7	-0.012376717
175	0x3ba47a20	0.0050194412
176	0x3d6f30ba	0.05839608
177	0x3e07794d	0.13229866
178	0x3d875c12	0.06609358
179	0xbd2fdb4f	-0.04293376
180	0x3df34c91	0.11879838
181	0x3d840f08	0.064481795
182	0x3dc927df	0.09822058
183	0xbbc2c1f9	-0.0059435335
184	0x3e083696	0.13302073
185	0xbce28ada	-0.0276541
186	0x3dbc9904	0.09208873
187	0xbd795ea7	-0.060881283
188	0x3d9ff9bd	0.07811306
189	0x3e00cf78	0.12579143
190	0x3cb55e19	0.022139596
191	0xbd88e147	-0.06683593
192	0xbe33463e	-0.17507264
193	0xbc77fde6	-0.015136218
194	0x3c410a75	0.011782278
195	0xbd399dc5	-0.045316476
196	0xbd947f25	-0.072508134
197	0xbd630949	-0.055428777
198	0xbc91653e	-0.017748471
199	0x3da208cb	0.079118334
200	0xbc911c68	-0.01771374
201	0xbd0e8ea0	-0.034803987
202	0xbbf4810d	-0.007461673
203	0xbd5da2cc	-0.054110333
204	0x3d1e85aa	0.03870169
205	0xbce896ff	-0.028392313
206	0xbe0ae977	-0.13565622
207	0x3da25f45	0.079283275
208	0x3e033e73	0.12816791
209	0x3c31da29	0.010855236
210	0xbd3141a1	-0.04327548
211	0xbbde0778	-0.0067757927
212	0xbdc3282d	-0.09529147
213	0xbd993776	-0.074812815
214	0xbd1245da	-0.035711147
215	0x3d1bba15	0.03801926
216	0x3d3500f1	0.04419035
217	0x3d4e690d	0.050393153
218	0x3d23d409	0.039997134
219	0x3cc6bf76	0.024261218
220	0x3c966f71	0.018363686
221	0x3d1783cd	0.03699093
222	0xbc3f14a7	-0.011662639
223	0xbd127670	-0.035757482
224	0xbdda07db	-0.106460296
225	0xbd9c2724	-0.07624653
226	0x3de3121c	0.110874385
227	0x3c0e60b4	0.008690048
228	0x3bb603e3	0.0055546626
229	0xbdfa444e	-0.12220059
230	0x3db6eb00	0.089315414
231	0xbe01c90c	-0.1267435
232	0x3bdb202a	0.006687184
233	0xbcaf1e99	-0.021376895
234	0xbded5e5f	-0.115902655
235	0xbd88d2d3	-0.066808365
236	0xbdd8d0e6	-0.10586719
237	0xbd0617c6	-0.032737516
238	0x3ceabd67	0.028654767
239	0x3d0ee8b2	0.034889884
240	0x3dfc734e	0.1232668
241	0xbe00a241	-0.12561895
242	0x3d30b1f6	0.043138467
243	0xbde2e52c	-0.11078867
244	0xbd265b15	-0.040614206
245	0x3b01f218	0.0019828137
246	0xbd11673c	-0.035498843
247	0xbd9809a0	-0.07423711
248	0xbca834a2	-0.02053291
249	0x3d4cad71	0.049970094
250	0xbd943152	-0.072359696
251	0xbd4ee803	-0.050514232
252	0xbdb7adca	-0.089686945
253	0xbd37acae	-0.044842415
254	0xbc08bca1	-0.008345754
255	0x3dfdb18c	0.1238738

encoder.conv2.nn.0.bias f4 [64]
0	0xbb4e325c	-0.0031463122
1	0x3c433c4c	0.011916231
2	0xbdc5bf5d	-0.0965564
3	0x3d3482e8	0.044070154
4	0xbd969f4a	-0.07354601
5	0x3da041f6	0.07825081
6	0x3d9554f3	0.072915934
7	0xbd9c077a	-0.076186135
8	0xbdd19622	-0.10233714
9	0xbd34257c	-0.04398106
10	0xbd1b431e	-0.037905805
11	0xbd812605	-0.0630608
12	0x3d33db64	0.0439104
13	0x3ce1fee8	0.02758737
14	0xbc50c149	-0.012741395
15	0x3cde2abb	0.027119985
16	0x3d35d7da	0.044395305
17	0x3d348bba	0.044078566
18	0x3cf55d0a	0.029951591
19	0xbd613cd8	-0.054989666
20	0xbcd52fa6	-0.026023697
21	0x3d910357	0.07080715
22	0xbda30987	-0.079608016
23	0x3c13faf0	0.009031996
24	0x3c1fd735	0.009755899
25	0x3d626a00	0.05527687
26	0xbc4377f8	-0.011930458
27	0x3c995ce0	0.018721044
28	0xbd9faf13	-0.07797065
29	0xbbb2f503	-0.0054613366
30	0xbd78d819	-0.06075296
31	0x3d2744db	0.04083715
32	0x3d7dbf01	0.061949734
33	0x3ccbfa66	0.024899673
34	0x3c69fe31	0.014281795
35	0xbcb85c34	-0.022504903
36	0xbcb6af5e	-0.022300418
37	0xbdf32ffe	-0.11874388
38	0xbab3642d	-0.0013686471
39	0xbc9f287b	-0.019428482
40	0xbcd48ecb	-0.025946995
41	0xbd806a77	-0.062703066
42	0xbc0cddad	-0.0085977735
43	0x3d2f5caf	0.042813
44	0xbd913b97	-0.07091444
45	0xbbdb2a9e	-0.00668843
46	0xbceecf09	-0.029151456
47	0xbc65bb8e	-0.014021767
48	0x3dab4d15	0.083643116
49	0x3d753a01	0.05986977
50	0x3d143a31	0.03618831
51	0xbdcf8e8d	-0.10134611
52	0xbd73cb30	-0.059519947
53	0x3d61bb16	0.05511006
54	0xbdba2367	-0.09088784
55	0x3c423107	0.011852509
56	0x3d7dafb3	0.061935138
57	0x3a81015e	0.0009842326
58	0xbdb01359	-0.0859744
59	0xbd00e865	-0.03147163
60	0xbcec6b2a	-0.028859694
61	0x3d332643	0.04373766
62	0xbcff6287	-0.031174911
63	0xbb8b6f02	-0.0042551765

encoder.conv2.nn.1.weight f4 [64]
0	0x3f802a3d	1.001289
1	0x3f8543e2	1.0411341
2	0x3f814941	1.010048
3	0x3f706eb5	0.93918926
4	0x3f805e63	1.0028805
5	0x3f7fff67	0.9999909
6	0x3f81d02b	1.0141653
7	0x3f7f7f96	0.99804056
8	0x3f8ace02	1.0844119
9	0x3f8402c4	1.0313344
10	0x3f833c8f	1.0252856
11	0x3f6f86b3	0.9356491
12	0x3f798968	0.9747529
13	0x3f73db3f	0.9525642
14	0x3f7fcb6b	0.99919766
15	0x3f873b00	1.056488
16	0x3f7511ed	0.9573048
17	0x3f7eae2e	0.9948453
18	0x3f870f2e	1.0551507
19	0x3f7cab85	0.9869922
20	0x3f6733a6	0.90313184
21	0x3f77c2b0	0.96781445
22	0x3f93837d	1.1524502
23	0x3f6b372d	0.91881067
24	0x3f80247e	1.0011137
25	0x3f7e1c53	0.9926197
26	0x3f859606	1.0436409
27	0x3f808214	1.0039697
28	0x3f859c57	1.0438336
29	0x3f817a57	1.011546
30	0x3f8350c2	1.025902
31	0x3f8331ff	1.0249633
32	0x3f7b4f4d	0.9816788
33	0x3f80479c	1.0021853
34	0x3f842dd1	1.0326482
35	0x3f77d75a	0.96812975
36	0x3f8a883b	1.0822824
37	0x3f899b12	1.0750449
38	0x3f7bffcf	0.9843721
39	0x3f841a9a	1.0320618
40	0x3f7e6648	0.9937482
41	0x3f80469f	1.0021552
42	0x3f79dfae	0.97606933
43	0x3f8aadaa	1.0834248
44	0x3f79ba3e	0.9754981
45	0x3f76fcc6	0.9647945
46	0x3f88fe88	1.0702677
47	0x3f80ebc5	1.0071951
48	0x3f827498	1.0191832
49	0x3f7b86a8	0.98252344
50	0x3f85b9a0	1.0447273
51	0x3f808d6a	1.0043156
52	0x3f84e044	1.038094
53	0x3f796ff1	0.97436434
54	0x3f81d3ea	1.0142796
55	0x3f743159	0.953878
56	0x3f8307e0	1.0236778
57	0x3f7ef222	0.99588215
58	0x3f804159	1.0019943
59	0x3f81ccbe	1.0140607
60	0x3f850d5f	1.0394706
61	0x3f7fa2e4	0.99857926
62	0x3f8d674a	1.1047146
63	0x3f834762	1.0256159

encoder.conv2.nn.1.bias f4 [64]
0	0x3d1a53b8	0.037677497
1	0x3da72ddb	0.08163043
2	0x3de3f196	0.11130063
3	0xbce9630d	-0.028489614
4	0x3dc30231	0.09521902
5	0x3d8533a8	0.06503993
6	0x3df40f4c	0.1191698
7	0x3ca747b2	0.02041993
8	0x3d559b9c	0.052150354
9	0x3e1e068c	0.15432185
10	0x3db0906a	0.08621295
11	0xbc6aec74	-0.014338601
12	0xbca29acb	-0.019849202
13	0xbcd07ff9	-0.025451647
14	0xbd2784ea	-0.04089824
15	0xbcb3551b	-0.021891167
16	0xbc494dc5	-0.012286608
17	0x3d3e70b6	0.04649421
18	0x3e25a9d0	0.1617806
19	0x3da2825b	0.079350196
20	0x3c18b59c	0.009320643
21	0x3da6db44	0.0814729
22	0x3dcccce6	0.10000019
23	0x3c85e03b	0.016342273
24	0xb9c72bae	-0.00037988782
25	0x3e00d29e	0.12580344
26	0x3ddea7ba	0.10871835
27	0x3d43d90d	0.047814418
28	0x3daba315	0.08380715
29	0x3c8f35c8	0.0174817
30	0x3dfbc6a1	0.12293745
31	0x3cd676a5	0.026179621
32	0x3dcbc1ac	0.09949049
33	0x3bc4bee1	0.0060042
34	0x3df60779	0.12013144
35	0xbd66b993	-0.05632932
36	0x3cdc5c74	0.026899554
37	0x3d985263	0.07437589
38	0x3d9ff812	0.078109875
39	0x3b3f1116	0.002915447
40	0x3d3f3872	0.04668469
41	0xbce56b10	-0.028005153
42	0xbc51ba64	-0.012800787
43	0xbd7c4a9d	-0.061594594
44	0x3d241293	0.040056776
45	0x3d9f49bc	0.077777356
46	0x3d9841e2	0.07434441
47	0x3dd1a389	0.1023627
48	0xbd331057	-0.043716755
49	0x3d6a35fc	0.05718039
50	0x3dcf749e	0.10129665
51	0x3dc07179	0.09396643
52	0x3e223e63	0.15844111
53	0x3d86c489	0.06580455
54	0x3c7172da	0.014736855
55	0xbd82962f	-0.063763015
56	0x3d862a2f	0.06551015
57	0x3d0ca785	0.034339447
58	0x3dd7a24d	0.10529003
59	0xbc8abb2c	-0.016934954
60	0x3b249244	0.0025111595
61	0x3dac3967	0.08409386
62	0x3e03ae4e	0.1285946
63	0x3d83b7dd	0.064315535

encoder.conv2.nn.1.running_mean f4 [64]
0	0x3dc555f0	0.09635532
1	0x3f3927bb	0.7232625
2	0x3ec07f29	0.37597016
3	0x3f1e92b7	0.6194262
4	0x3f528278	0.8223033
5	0x3cef9f55	0.02925078
6	0x3f264030	0.6494169
7	0xbf07605c	-0.5288141
8	0xbf78e63b	-0.97226304
9	0xbf36926e	-0.71317184
10	0xbf37f8ea	-0.7186419
11	0xbe4c34ad	-0.19941969
12	0xbebd960a	-0.37028533
13	0x3d777edf	0.060423728
14	0xbecfba79	-0.40571955
15	0xbd5504fb	-0.052006703
16	0xbe57c863	-0.21072535
17	0x3f03a4ec	0.51423526
18	0x3eed43ea	0.46340877
19	0xbe52c01c	-0.20581096
20	0xbf2b9729	-0.6702753
21	0xbdb5d66d	-0.08878789
22	0x3be16a56	0.0068791313
23	0x3e105678	0.14095485
24	0xbe3f7bfa	-0.18699637
25	0x3e2d25b6	0.16908917
26	0xbd9c2d46	-0.07625823
27	0x3e255b89	0.16148199
28	0xbe34b3ae	-0.17646667
29	0xbd6a7c1b	-0.057247262
30	0xbe0b696a	-0.13614431
31	0xbdff7e3a	-0.12475248
32	0x3ec47bd9	0.38375738
33	0xbeb1b061	-0.3470488
34	0x3e62a923	0.22134833
35	0xbf2870cd	-0.6579712
36	0xbf2b19c8	-0.66836214
37	0xbeafb67f	-0.3431892
38	0x3f47f1bf	0.7810325
39	0xbf0a9a9c	-0.54142165
40	0x3cdf201d	0.027236992
41	0xbe8a93e6	-0.27065963
42	0x3f250e6e	0.6447514
43	0x3d9bab46	0.07601027
44	0xbf63ccbd	-0.8898428
45	0x3ef73746	0.48284358
46	0x3e6dcad5	0.23221906
47	0x3e567e93	0.20946722
48	0x3e4dc4f3	0.20094661
49	0x3e6869a0	0.22696543
50	0x3e07013c	0.13184065
51	0x3e97294a	0.2952369
52	0x3e8f5019	0.27990797
53	0xbdf13ff2	-0.11779775
54	0xbe48e4ba	-0.19618502
55	0xbf445f09	-0.7670751
56	0x3e2ff579	0.17183484
57	0x3f2fecf9	0.68720967
58	0x3ecabec4	0.39598668
59	0xbf1678a6	-0.58777845
60	0xbf131fdd	-0.57470495
61	0xbebd49a9	-0.3697026
62	0x3e3e425c	0.18580002
63	0xbebf6256	-0.37379712

encoder.conv2.nn.1.running_var f4 [64]
0	0x3e47a56c	0.19496697
1	0x3ead0e98	0.33800197
2	0x3f1bb7f3	0.6082756
3	0x3f05f2a7	0.52323383
4	0x3ef67e10	0.48143053
5	0x3f938164	1.1523862
6	0x3f693caf	0.9110822
7	0x3f19423c	0.5986669
8	0x3f1a4379	0.60259205
9	0x3ee821e3	0.45338354
10	0x3ffc650d	1.9718338
11	0x3e90d442	0.2828694
12	0x3f4af0f4	0.79273915
13	0x3efc2c8e	0.49252743
14	0x3f37ac86	0.71747625
15	0x3f227204	0.63455224
16	0x3ec9511e	0.393197
17	0x3ebfcf0b	0.3746265
18	0x3f4f94ae	0.8108624
19	0x3ee374ef	0.4442515
20	0x3f151bf9	0.5824581
21	0x3ec066bc	0.3757838
22	0x3e360f26	0.17779216
23	0x3f430c7f	0.7619094
24	0x3f43009d	0.7617281
25	0x3ea14c17	0.31503364
26	0x3f0d59dc	0.5521524
27	0x3ec0a506	0.37625903
28	0x3f83fde6	1.0311859
29	0x3f1232e9	0.5710893
30	0x3e5361a9	0.20642723
31	0x3f7188d9	0.9434944
32	0x3f12a3a5	0.5728095
33	0x3f2c5f80	0.6733322
34	0x3f2c19c4	0.67226815
35	0x3f251b01	0.6449433
36	0x3f121d20	0.5707569
37	0x3e0df19e	0.13861701
38	0x3fb1ba91	1.388506
39	0x3f0b443e	0.54401004
40	0x3f94e804	1.1633306
41	0x3e444453	0.19166689
42	0x3ea17b44	0.31539357
43	0x3e902a7f	0.28157422
44	0x3edafeec	0.42772615
45	0x3e8e406a	0.2778352
46	0x3f144e3e	0.5793189
47	0x3f6187e5	0.88097984
48	0x3f338672	0.7012702
49	0x3f27a4b3	0.65485686
50	0x3f62633a	0.8843266
51	0x3f97921c	1.1841464
52	0x3f731c82	0.94965374
53	0x3f0c1521	0.5471974
54	0x3f01b10e	0.5066079
55	0x3f36953c	0.71321464
56	0x3f1ffd28	0.6249566
57	0x3f14d374	0.5813515
58	0x3f0730ce	0.52808845
59	0x3f07017a	0.5273663
60	0x3ebeec4a	0.3728965
61	0x3f0da9e8	0.5533738
62	0x3f7ec7b0	0.9952345
63	0x3efe8a08	0.49714684

encoder.conv3.nn.0.weight f4 [128, 128]
0	0xbd906b04	-0.070516616
1	0xbde01535	-0.10941545
2	0x3d96aa59	0.0735671
3	0xbc157abd	-0.009123501
4	0xbcf864ad	-0.030321443
5	0xbd0087c6	-0.031379484
6	0xbd21b8d7	-0.039482918
7	0x3c25fdfe	0.010131357
8	0x3d35879e	0.044318788
9	0x3d616153	0.055024456
10	0xbcaabbea	-0.020841558
11	0x3dca9e42	0.098934665
12	0x3de87edb	0.11352321
13	0x3d647638	0.055776805
14	0xbd82388d	-0.063584425
15	0xbd9f74fb	-0.07785984
16	0x3c7676b5	0.01504295
17	0x3d54126c	0.05177538
18	0xbe112ed2	-0.14178017
19	0x3a99c922	0.0011732916
20	0x3c1a6bda	0.009425128
21	0x3d4fe40c	0.05075459
22	0xbd635532	-0.05550117
23	0x3c97f278	0.018548235
24	0x3d83d256	0.06436603
25	0xbda964e0	-0.082711935
26	0x3da20302	0.0791073
27	0x3cbbb270	0.022912234
28	0xbe06967d	-0.13143344
29	0xbc40dc76	-0.011771312
30	0xbd88267b	-0.066479646
31	0xbc2a07ef	-0.010377868
32	0x3d507731	0.05089492
33	0xbc873935	-0.01650677
34	0x3ca5d9a2	0.020245377
35	0xbb94e19c	-0.0045434963
36	0xbc3607d6	-0.011110267
37	0xbc487f9b	-0.012237455
38	0xbdb1027c	-0.08643052
39	0x39736137	0.00023210501
40	0x3d52e452	0.051487274
41	0x3da9baa1	0.0828755
42	0xbd3ca8fa	-0.046059586
43	0xbd0481d9	-0.032350395
44	0x3d9dc990	0.077044606
45	0x3c4da9d1	0.012552694
46	0xbd5d544b	-0.054035466
47	0xbdbc7be2	-0.09203316
48	0x3d06b283	0.032885086
49	0x3d2bf0b5	0.041977603
50	0x3c2f703a	0.010707909
51	0x3d28de6a	0.041227736
52	0xbd240438	-0.040043086
53	0x3dac56b1	0.084149726
54	0xbc60cbab	-0.013720433
55	0xbd31e3e4	-0.043430224
56	0x3c4db7a3	0.012555989
57	0xbd84b148	-0.06479126
58	0xbd444d26	-0.047925137
59	0x3d4040f7	0.046936955
60	0x3ce1d0f8	0.027565464
61	0x3d7491a3	0.059709202
62	0xbd038445	-0.032108564
63	0x3d3802b6	0.04492446
64	0x3bfb9f4a	0.007678901
65	0xbd83d483	-0.06437018
66	0x3d94ee26	0.07271986
67	0x3d40db43	0.047084104
68	0xbbc81b5e	-0.006106778
69	0x3d34791d	0.044060815
70	0xbdab152e	-0.08353649
71	0x3d473c1a	0.0486413
72	0x3ccb3d81	0.0248096
73	0xbbe95d1e	-0.007121696
74	0xbccd3446	-0.02504934
75	0xbcc21e3b	-0.023696056
76	0xbce213d8	-0.027597353
77	0x3db0dc64	0.08635786
78	0x3ce87667	0.028376771
79	0x3dea736f	0.114477985
80	0x3c78ccde	0.015185563
81	0x3ca3ff90	0.020019323
82	0xbd42565a	-0.047445633
83	0xbd6517c6	-0.055930875
84	0x3c9b378f	0.01894739
85	0x3ca6b537	0.020350082
86	0x3d73827e	0.05945062
87	0x3db91c3f	0.09038591
88	0x3d7eed8a	0.062238254
89	0x3da45fba	0.08026071
90	0xbd0d723e	-0.034532778
91	0x3cec2e9b	0.028830817
92	0x3cf0e3c9	0.029405491
93	0xbcace015	-0.021102944
94	0xbcd26282	-0.025681738
95	0xbd8c5311	-0.06851781
96	0x3cadd57e	0.021219965
97	0xbd478944	-0.04871489
98	0x3c5ad39e	0.0133561175
99	0x3c1004f8	0.008790247
100	0xbd1d3b25	-0.038386483
101	0xbdfc920f	-0.12332546
102	0x3c4816ad	0.012212438
103	0xbde5371b	-0.11192151
104	0x3c16659e	0.009179501
105	0x3c7ed712	0.015554206
106	0xbd93427a	-0.07190414
107	0x3d9d0166	0.07666282
108	0xbd7f42d0	-0.062319577
109	0x3d5b8db4	0.053601936
110	0x3d7bfc93	0.06152017
111	0xbd40c6e6	-0.047064684
112	0xbd8d4a99	-0.06898994
113	0xbdba63ec	-0.0910109
114	0xbd040e0a	-0.03223995
115	0xbd438d51	-0.04774219
116	0x3daa924c	0.08328685
117	0xbcc6cb82	-0.024266962
118	0xbd925544	-0.071451694
119	0xbd7c3f30	-0.061583698
120	0xbcf0fa03	-0.02941609
121	0x3d30f417	0.043201532
122	0x3d47ab7b	0.04874752
123	0xbd767861	-0.060173396
124	0xbd833611	-0.06406797
125	0x3b2a5015	0.0025987674
126	0xbd9e69c1	-0.07735015
127	0xbc2ef88d	-0.010679376
128	0xbd257bfa	-0.040401436
129	0x3db1ed9a	0.08687897
130	0xbc4c4e0e	-0.012469782
131	0xbc608e8f	-0.013705864
132	0xbcf76d6f	-0.03020355
133	0x3dc21a31	0.09477652
134	0x3dcfcc01	0.101463325
135	0x3bb45a6f	0.0055039446
136	0x3d76ba66	0.060236357
137	0xbd42bfc6	-0.04754617
138	0xbd313e9e	-0.043272607
139	0xbdcac400	-0.09900665
140	0x3c57553d	0.013142881
141	0x3da2263a	0.079174474
142	0x3c1d243d	0.009591159
143	0xbdac318d	-0.084078886
144	0x3d1160a0	0.03549254
145	0xbcaa3e6f	-0.020781724
146	0x3e0cc423	0.13746695
147	0x3d7f43bc	0.062320456
148	0x3d8d2748	0.06892258
149	0x3b9e7b91	0.0048365076
150	0x3dde0beb	0.10842117
151	0x3da7b7a3	0.08189323
152	0xbc12d4f3	-0.008961904
153	0x3c06a31c	0.008217599
154	0x3d3b45bb	0.045720797
155	0xbcfc0d56	-0.030768078
156	0xbd6efc16	-0.058345877
157	0x3df661ef	0.12030398
158	0xbb3d4380	-0.0028879344
159	0xbd2a27b8	-0.041541785
160	0xbd4a8423	-0.04944242
161	0x3dd88197	0.10571592
162	0xbd158191	-0.036500517
163	0x3be47fc2	0.0069732377
164	0x3d4b9ef9	0.049712155
165	0xbc52474d	-0.012834382
166	0x3d69748a	0.056995906
167	0xbd04adbe	-0.032392256
168	0x3cebcb22	0.028783385
169	0x3d036d4b	0.03208665
170	0xbccbddda	-0.02488606
171	0x3e18f0a4	0.14935547
172	0xbd59c004	-0.053161636
173	0xb91cb4a4	-0.00014944613
174	0xbd4a264b	-0.049352925
175	0xbd348edf	-0.044081565
176	0x3e0a042e	0.13478157
177	0x3d68ca8c	0.05683379
178	0xbb3036c5	-0.0026888114
179	0xbdc414d0	-0.09574282
180	0x3d4efd87	0.05053475
181	0x3cdf230d	0.027238393
182	0xbd1c85b9	-0.038213465
183	0x3d186f17	0.03721532
184	0xbd317e50	-0.04333335
185	0xbd0a2e0f	-0.03373533
186	0x3cf08b69	0.029363351
187	0x3df1f1f0	0.11813724
188	0x3cb69cae	0.022291508
189	0x3d15bb88	0.036555797
190	0x3de3e00c	0.11126718
191	0xbdcf0eb8	-0.10110229
192	0xbd059301	-0.032610897
193	0xbd3c15d0	-0.04591924
194	0xbdebfd23	-0.11522891
195	0xbce13789	-0.027492302
196	0xbdd1d813	-0.10246291
197	0xbcf6620c	-0.03007605
198	0xbd80dcc8	-0.06292111
199	0x3df7fcf9	0.121087976
200	0x3dabd7e3	0.083907865
201	0x3cdd1e4b	0.026991984
202	0x3d091b21	0.033473138
203	0xbbefaeae	-0.0073145246
204	0xbd80f281	-0.06296254
205	0xbd4a1dd6	-0.04934486
206	0xbaa337e7	-0.0012452573
207	0xbd04b9f0	-0.032403886
208	0x3d6ac71b	0.057318788
209	0xbd1e9df7	-0.038724866
210	0x3d26a300	0.040682793
211	0xbdbada67	-0.09123688
212	0xbdac6410	-0.08417523
213	0xbdae3b30	-0.08507383
214	0x3e0c5733	0.13705139
215	0xbdc37a45	-0.095448054
216	0x3ce10dd8	0.027472422
217	0x3ce28b75	0.027654389
218	0x3dbf71e3	0.09347894
219	0x3d67342a	0.056446232
220	0x3e234818	0.1594547
221	0xba01941e	-0.00049430307
222	0xbbc0d964	-0.00588529
223	0xbd4e381b	-0.050346475
224	0x3daa4346	0.08313613
225	0xbd1c974f	-0.038230237
226	0x3cb7c063	0.022430604
227	0x3b57427d	0.0032846027
228	0x3c3ab215	0.011394997
229	0xbd3b4b12	-0.04572589
230	0x3d1688e8	0.036751658
231	0x3c624a35	0.013811638
232	0xbda6bbec	-0.08141312
233	0x3d333df0	0.04376024
234	0x3d60b150	0.0548566
235	0x3d05584d	0.032554913
236	0x3cf8178c	0.030284666
237	0xbcb34a74	-0.021886088
238	0xbad1425e	-0.0015965214
239	0x3d222cea	0.039593615
240	0xbde331ed	-0.11093507
241	0x3cc06ad6	0.023488443
242	0x3c2a6be9	0.010401704
243	0x3cb15003	0.021644598
244	0x3d3d46d2	0.046210118
245	0x3e038bc1	0.1284628
246	0x3d08b750	0.033377945
247	0xbd5674c1	-0.05235744
248	0xbd9c0381	-0.07617856
249	0xbbea1e66	-0.007144737
250	0x3df804c0	0.12110281
251	0x3d15c488	0.03656438
252	0xbe0bb829	-0.1364447
253	0x3d6b9653	0.057516407
254	0xbdcef584	-0.10105422
255	0x3cb296c8	0.021800414

encoder.conv3.nn.0.bias f4 [128]
0	0x3d3fde1f	0.04684269
1	0xbceff629	-0.029292183
2	0x3d967f99	0.07348556
3	0x3d8a621a	0.06756993
4	0x3c50dd88	0.01274813
5	0x3d4648ad	0.048409153
6	0xbda745d1	-0.08167613
7	0x3d5cf4fd	0.053944577
8	0xbda74263	-0.08166959
9	0xbca992b0	-0.020699829
10	0x3d914e02	0.07094957
11	0xbc19ec1d	-0.009394673
12	0xba97956c	-0.0011564917
13	0x3d1f7dd7	0.03893837
14	0xbc953be3	-0.018217033
15	0xbc4db637	-0.01255565
16	0x3d290cb3	0.041271877
17	0x3d81c7af	0.06336915
18	0x3aac84b3	0.0013162106
19	0xbd15f238	-0.03660795
20	0x3d859151	0.065218575
21	0xbbe15185	-0.006876173
22	0xbd82ea18	-0.06392306
23	0x3cbbf9e7	0.022946311
24	0x3d8c891c	0.06862089
25	0x3d0369e6	0.032083414
26	0x3cd3ee11	0.025870355
27	0xbd82faf4	-0.06395522
28	0x3d202638	0.03909895
29	0xbda7c54c	-0.08191928
30	0xbd85ad1c	-0.065271586
31	0xbcead30d	-0.02866509
32	0x3c38633d	0.011254129
33	0x3a46086e	0.00075543567
34	0xbd67516e	-0.05647414
35	0x3d5686bf	0.052374598
36	0xbd35d305	-0.044390697
37	0xbc52e239	-0.0128713185
38	0xbd62670c	-0.055274054
39	0xbb8a40d4	-0.004219154
40	0xbc93972d	-0.018016422
41	0xbd0a49b2	-0.033761688
42	0xbd452eab	-0.04814021
43	0xbd951ab5	-0.072804846
44	0x3c3f2269	0.011665919
45	0x3c61e9a7	0.013788617
46	0x3d5bde8b	0.05367903
47	0x3c3df29f	0.01159349
48	0x3d28bc59	0.041195247
49	0xbd0606df	-0.032721397
50	0xbd693f7f	-0.05694532
51	0x3cb8d94e	0.022564556
52	0x3cd70bcd	0.026250744
53	0x3d9d07d8	0.07667512
54	0x3d824459	0.063606925
55	0xbd405c0b	-0.04696278
56	0xbdb80fb5	-0.08987371
57	0x3d53b989	0.051690612
58	0x3d0a535c	0.033770904
59	0x3d8fee43	0.07027867
60	0x3db19324	0.08670643
61	0x3d66c02a	0.056335606
62	0x3dc31b1d	0.09526656
63	0x3c8e5d78	0.017378554
64	0xbcc556dc	-0.02408927
65	0xbd208c84	-0.039196506
66	0x3d0771b2	0.033067413
67	0xbd499f89	-0.04922441
68	0xbd0465e5	-0.032323737
69	0x3d184565	0.037175555
70	0xbd337fd9	-0.043823097
71	0x3d2d7044	0.042343393
72	0xbd03cc99	-0.03217754
73	0xbdac357b	-0.08408638
74	0xbdb59d44	-0.08867887
75	0x3d56a7c4	0.052406088
76	0xbd8e389e	-0.069443926
77	0xbc564434	-0.013077784
78	0x3d8f242d	0.06989322
79	0xbaf1d138	-0.0018449193
80	0xbd0d6f30	-0.034529865
81	0xbd1cce41	-0.038282637
82	0xbd415fc8	-0.047210485
83	0xbcfa6ccb	-0.030569455
84	0x3d575f02	0.05258084
85	0x3d687373	0.056750726
86	0x3c55f1ea	0.013058165
87	0xbb9b81d9	-0.0047457037
88	0x3d483d00	0.0488863
89	0xbc891844	-0.016735204
90	0xbd50bfa1	-0.050964
91	0x3d9fdefd	0.078062035
92	0x3da33a1a	0.07970066
93	0xbd23eef9	-0.040022824
94	0xbd472e5b	-0.048628192
95	0xbd9cdff7	-0.076599054
96	0xbd5fb0bf	-0.054611918
97	0x3db4e732	0.088331595
98	0x3db67cc5	0.08910517
99	0x3d9617b8	0.07328743
100	0xbce9e47e	-0.028551336
101	0xbd050dee	-0.032483988
102	0xbdb62b7a	-0.08895011
103	0x3b954139	0.0045548943
104	0xbd370dcf	-0.044690903
105	0xbcd18f42	-0.025581006
106	0x3b840427	0.0040288153
107	0x3c07894f	0.008272483
108	0xbc320440	-0.010865271
109	0xbcfada62	-0.030621711
110	0xbd5e935a	-0.054339744
111	0x3d4da16b	0.05020277
112	0x3c9fefe2	0.019523565
113	0x3c35f2fb	0.011105294
114	0x3d9c3e1b	0.07629033
115	0xbd0aeb89	-0.03391603
116	0x3c97718e	0.018486764
117	0xbdc8b791	-0.098006375
118	0x3da2b86d	0.07945333
119	0xbdb32446	-0.08747153
120	0xbd2f737b	-0.04283474
121	0xbd289be9	-0.041164313
122	0x3c533949	0.012892076
123	0xbd7575cc	-0.059926793
124	0x3ce98331	0.02850494
125	0xbd73fff1	-0.059570257
126	0xbd277c5a	-0.040890075
127	0xbcbff0d9	-0.023430275

encoder.conv3.nn.1.weight f4 [128]
0	0x3f7a7090	0.97828007
1	0x3f82cc49	1.0218593
2	0x3f7d0252	0.98831666
3	0x3f812695	1.0089899
4	0x3f83d867	1.0300416
5	0x3f75cbb5	0.9601396
6	0x3f74e47f	0.9566116
7	0x3f7a0a17	0.97671646
8	0x3f836bc3	1.0267261
9	0x3f84b950	1.0369053
10	0x3f851c28	1.0399218
11	0x3f85c2c5	1.0450064
12	0x3f796596	0.9742063
13	0x3f7e6acd	0.99381715
14	0x3f759ba5	0.9594062
15	0x3f89e51d	1.0773045
16	0x3f81abef	1.0130595
17	0x3f85f143	1.0464252
18	0x3f805797	1.002673
19	0x3f7e0572	0.9922706
20	0x3f7ba742	0.9830209
21	0x3f83648f	1.0265063
22	0x3f83312d	1.0249382
23	0x3f77af19	0.9675155
24	0x3f6a5cfc	0.9154813
25	0x3f79ee2b	0.9762904
26	0x3f7a24a7	0.9771218
27	0x3f8d8672	1.1056654
28	0x3f82d442	1.0221026
29	0x3f7e554a	0.9934889
30	0x3f8a7ef2	1.0819991
31	0x3f8263c4	1.0186696
32	0x3f7e3f74	0.9931557
33	0x3f84794f	1.034952
34	0x3f7fafbe	0.99877536
35	0x3f80d989	1.0066386
36	0x3f7ef486	0.99591863
37	0x3f8187c5	1.0119559
38	0x3f803051	1.0014745
39	0x3f7c0423	0.9844381
40	0x3f82d23e	1.0220411
41	0x3f87b763	1.060284
42	0x3f815a78	1.0105734
43	0x3f724786	0.94640386
44	0x3f85253e	1.040199
45	0x3f82a1f2	1.0205672
46	0x3f78376b	0.9695956
47	0x3f70e996	0.94106424
48	0x3f81f697	1.0153378
49	0x3f872143	1.0557026
50	0x3f82ba7d	1.0213162
51	0x3f80478f	1.0021838
52	0x3f6fe6fb	0.93711823
53	0x3f814866	1.0100219
54	0x3f81c891	1.0139333
55	0x3f835050	1.0258884
56	0x3f83c7a7	1.0295304
57	0x3f8200ea	1.0156529
58	0x3f937feb	1.1523412
59	0x3f829b2c	1.0203605
60	0x3f7a9fba	0.97899973
61	0x3f8196dd	1.0124165
62	0x3f79cdaa	0.97579443
63	0x3f82bd31	1.0213987
64	0x3f8577f0	1.0427227
65	0x3f8e26e5	1.110562
66	0x3f829afb	1.0203546
67	0x3f82fc6c	1.0233283
68	0x3f900c49	1.1253749
69	0x3f7d8466	0.9903015
70	0x3f86db61	1.0535699
71	0x3f7cfb7b	0.9882123
72	0x3f85e886	1.0461586
73	0x3f80dd79	1.0067588
74	0x3f8ac189	1.0840312
75	0x3f81f0d4	1.015162
76	0x3f7891af	0.97097296
77	0x3f72cf2d	0.94847375
78	0x3f7ac7e3	0.9796125
79	0x3f838efa	1.0278008
80	0x3f7dc55c	0.9912927
81	0x3f8254da	1.0182145
82	0x3f881268	1.0630617
83	0x3f7cd603	0.98764056
84	0x3f806899	1.0031921
85	0x3f7be9b6	0.9840349
86	0x3f83badb	1.0291399
87	0x3f8506af	1.0392665
88	0x3f80a4fd	1.005035
89	0x3f81daf3	1.0144943
90	0x3f7c92b8	0.98661375
91	0x3f7c3d7b	0.9853131
92	0x3f7ebc6a	0.9950625
93	0x3f6c7896	0.923715
94	0x3f8885a1	1.066578
95	0x3f83f316	1.0308559
96	0x3f8782d5	1.0586802
97	0x3f81e7c5	1.0148855
98	0x3f81cc33	1.0140442
99	0x3f80345a	1.0015976
100	0x3f7d7ea5	0.9902137
101	0x3f866d67	1.0502137
102	0x3f6ca726	0.9244255
103	0x3f825b8b	1.0184187
104	0x3f826971	1.0188428
105	0x3f795fff	0.97412103
106	0x3f82ad93	1.0209221
107	0x3f7f5fcc	0.9975555
108	0x3f8654b1	1.0494596
109	0x3f78f20a	0.9724432
110	0x3f76b480	0.9636917
111	0x3f7df916	0.992082
112	0x3f77d710	0.96812534
113	0x3f723782	0.9461595
114	0x3f8376a4	1.0270581
115	0x3f7fefca	0.99975264
116	0x3f7cee15	0.98800784
117	0x3f74068a	0.9532248
118	0x3f826a3c	1.018867
119	0x3f839980	1.028122
120	0x3f719904	0.9437411
121	0x3f7e3a74	0.9930794
122	0x3f84d74f	1.0378207
123	0x3f7afa5a	0.98038256
124	0x3f80f053	1.0073341
125	0x3f75d208	0.9602361
126	0x3f6ebc25	0.93255836
127	0x3f7c7ce5	0.98628074

encoder.conv3.nn.1.bias f4 [128]
0	0x3d6c5a55	0.057703335
1	0x3d75c212	0.059999533
2	0xbc96b454	-0.018396534
3	0x3e15e362	0.14637521
4	0x3d3192dc	0.043352947
5	0x3d7843f7	0.06061169
6	0x3d63a5ff	0.055578228
7	0x3bab6788	0.0052308477
8	0xbcb048fe	-0.02151918
9	0x3e0f71f7	0.14008318
10	0x3dad60ee	0.084657535
11	0x3e08fb7a	0.1337718
12	0x3d0a59e5	0.033777136
13	0xbc1529c1	-0.009104193
14	0x3d733ad2	0.059382267
15	0x3d335d98	0.04379043
16	0x3e002415	0.12513764
17	0xbcb8e6b5	-0.022570947
18	0x3d2584ec	0.040409967
19	0x3dffe0a2	0.12494017
20	0x3d6a6f25	0.057234902
21	0x3daf2c2a	0.085533455
22	0x3d3b6a55	0.045755703
23	0x3bc44a71	0.0059903194
24	0x3df79123	0.120882295
25	0x3dc32ed8	0.09530419
26	0x3b52199d	0.0032058724
27	0x3ddf43df	0.10901617
28	0xbc995ecf	-0.018721966
29	0xb8b3daf2	-8.576167e-05
30	0x3d4ed88c	0.050499484
31	0x3cb1d5c1	0.021708371
32	0x3db50f1b	0.08840772
33	0x3c1f793b	0.009733493
34	0x3ba54bc3	0.005044432
35	0x3de34cf2	0.110986605
36	0x3d9df93f	0.077135555
37	0x3da88123	0.08227756
38	0x3d146064	0.036224738
39	0x3ca923e9	0.020647006
40	0x3cc1c363	0.023652738
41	0x3df9d05e	0.12197946
42	0x3dc36db6	0.0954241
43	0xbd1b8294	-0.037966326
44	0x3e12e945	0.14346798
45	0xbbe72bfb	-0.0070548034
46	0xbd56e288	-0.05246213
47	0xbbd5d4ab	-0.006525596
48	0x3bf64ee8	0.0075167306
49	0x3cf15b54	0.029462494
50	0x3cb56526	0.022142958
51	0x3b71eb6b	0.0036914002
52	0x3cdab0c3	0.026695615
53	0x3d6c7079	0.05772445
54	0x3da9f43e	0.082985386
55	0x3d8f7e12	0.07006468
56	0x3dc6c9ef	0.097064845
57	0xbca29180	-0.01984477
58	0x3e33a756	0.17544302
59	0x3d6f3149	0.05839661
60	0x3d9b3aeb	0.07579597
61	0x3cf7ebd8	0.030263826
62	0x3d18b7ba	0.03728459
63	0x3d8cc610	0.06873715
64	0x3d8aed78	0.06783575
65	0x3de71f26	0.11285238
66	0x3d68df1f	0.05685341
67	0x3dc919ed	0.09819398
68	0x3da900b9	0.08252091
69	0xbc71f683	-0.014768246
70	0xbd0e21ec	-0.03470032
71	0x3d168e7a	0.03675697
72	0xbc96e9f4	-0.018422104
73	0x3d0982a9	0.033571873
74	0x3df43504	0.119241744
75	0x3daf5470	0.08561027
76	0x3d76a196	0.060212694
77	0x3d8845ee	0.06653963
78	0x3d3a38e1	0.0454644
79	0x3d9073e2	0.07053353
80	0x3d2c97e6	0.04213705
81	0x3d8eca7d	0.06972215
82	0x3e04602b	0.1292731
83	0x3dbd449f	0.09241604
84	0x3d232d82	0.03983832
85	0x3dfdff13	0.12402167
86	0x3d190a36	0.037363254
87	0x3d83a2f6	0.06427567
88	0x3d6d42dc	0.05792509
89	0x3dbc60ee	0.09198175
90	0xbd673b6e	-0.05645316
91	0x3d5d3be6	0.0540122
92	0x3df0a91c	0.11751005
93	0x3d86094c	0.06544742
94	0x3e0b5063	0.13604884
95	0x3c8aec04	0.016958244
96	0x3e005e31	0.12535931
97	0xbcf92187	-0.030411495
98	0x3d3f15e7	0.046651747
99	0x3b2ee79f	0.002668835
100	0x3cde15de	0.027110036
101	0x3e2cfb90	0.16892838
102	0xbcc26ecc	-0.023734473
103	0x3db47668	0.08811647
104	0x3cd14e0c	0.025549911
105	0xba5c12ae	-0.00083951175
106	0xbc626add	-0.0138194235
107	0x3d2ce640	0.04221177
108	0x3d8047a0	0.062636614
109	0x3ddbce8c	0.10732755
110	0x3d67ca3f	0.05658936
111	0xbd2ad783	-0.041709434
112	0x3cebc24d	0.028779173
113	0x3c55c387	0.013047106
114	0x3d9c416d	0.076296665
115	0x3db745b5	0.089488424
116	0x3c472218	0.012154125
117	0xbd35b360	-0.04436052
118	0x3da60fab	0.08108457
119	0x3e239390	0.1597426
120	0x3db6665d	0.08906243
121	0x3c1b2abc	0.009470638
122	0xbc0ffa9c	-0.008787777
123	0x3cba4436	0.022737604
124	0x3d316ecc	0.043318555
125	0x395da7bd	0.0002113869
126	0x3c5f0da7	0.013614095
127	0x3d5f29fb	0.054483395

encoder.conv3.nn.1.running_mean f4 [128]
0	0xbdd17b1e	-0.10228561
1	0x3ed9f0d3	0.42566547
2	0xbeb1e8ce	-0.34747928
3	0x3e2d3691	0.16915347
4	0x3dfa46a1	0.12220503
5	0x3f2742d2	0.65336335
6	0xbea714c3	-0.32633027
7	0xbe520226	-0.20508632
8	0xbc19f7db	-0.009397472
9	0xbe0ce5c3	-0.13759522
10	0x3ef24f78	0.47326255
11	0xbe1b8f8a	-0.15191475
12	0x3f0ce224	0.55032563
13	0xbecadfcf	-0.39623877
14	0x3ee6f6cc	0.45110166
15	0xbe68daff	-0.2273979
16	0x3e85372d	0.26018658
17	0xbf05df74	-0.5229409
18	0x3db74a99	0.08949775
19	0xbda1fdf6	-0.07909767
20	0x3ea0a545	0.3137609
21	0xbec32636	-0.3811509
22	0xbd0f8c03	-0.035045635
23	0x3e30983a	0.1724557
24	0x3e36b245	0.17841442
25	0xbd4ef1f0	-0.0505237
26	0x3ec80804	0.39068615
27	0x3cc98871	0.024601193
28	0x3ebfea11	0.37483266
29	0x3d465a05	0.048425693
30	0xbecd5652	-0.4010492
31	0xbeb8aa6c	-0.36067522
32	0xbe10cf0b	-0.1414148
33	0xbea9f221	-0.33192542
34	0xbcbcda79	-0.023053395
35	0xbddaa6a0	-0.106763124
36	0x3e0a06c3	0.13479142
37	0xbeb16a2d	-0.34651318
38	0xbef89970	-0.48554564
39	0xbf22e1d9	-0.63625866
40	0xbefd079c	-0.49419868
41	0xbe62774b	-0.22115819
42	0x3ea79b1a	0.3273552
43	0xbd93077a	-0.071791604
44	0xbe8a40f3	-0.27002677
45	0x3e4186ef	0.1889913
46	0xbf1e48dc	-0.61829925
47	0x3ee5fc92	0.44919258
48	0xbeb851a4	-0.35999787
49	0xbe72f29d	-0.23725362
50	0xbeb8ed55	-0.3611857
51	0x3dae00c3	0.08496239
52	0x3eb78f82	0.35851675
53	0x3eda50e6	0.42639846
54	0xbda1ae6c	-0.078945965
55	0xbd202008	-0.039093047
56	0x3ea91a95	0.33028093
57	0x3de201df	0.11035513
58	0xbf493968	-0.7860322
59	0x3e2fd192	0.17169788
60	0x3f49ce93	0.7883083
61	0x3dc6bef2	0.09704389
62	0x3ee42c41	0.44565013
63	0xbcb24e2e	-0.021765795
64	0x3de44d13	0.11147513
65	0xbef27555	-0.47355142
66	0xbebc6c4a	-0.36801368
67	0x3eab3f57	0.33446762
68	0xbef47469	-0.47745064
69	0xbe092bc6	-0.13395604
70	0xbf2d8c76	-0.6779245
71	0xbf6cd4c9	-0.92512184
72	0xbec6cdb1	-0.38828805
73	0xbda4678d	-0.08027563
74	0xbdd57376	-0.10422413
75	0x3f1c8143	0.6113474
76	0x3ecdeca2	0.402196
77	0x3e3d41b3	0.18482094
78	0xbd939de9	-0.07207853
79	0x3ea6a527	0.32547876
80	0xbccfbc32	-0.025358293
81	0xbdf355b5	-0.11881582
82	0x3da745f3	0.08167639
83	0x3e7e15a4	0.24812943
84	0xbdf76a8d	-0.1208087
85	0xbce5ad34	-0.028036691
86	0x3d628426	0.055301808
87	0xbb2ab935	-0.0026050333
88	0xbec1da23	-0.37861738
89	0x3ed136eb	0.40862212
90	0x3f03f816	0.51550424
91	0xbe84be0f	-0.25926253
92	0x3f418583	0.7559435
93	0x3f00597e	0.50136554
94	0x3e95f8ae	0.2929129
95	0xbd0ae40f	-0.0339089
96	0xbe9f90f7	-0.31165287
97	0xbef3133c	-0.47475612
98	0x3ed0cb11	0.40779927
99	0xbe10bf47	-0.14135467
100	0xbf4f33f6	-0.8093866
101	0x3e553d1f	0.20824097
102	0x3e99b3fb	0.30020127
103	0xbe337a38	-0.17527092
104	0xbf0d5ef2	-0.55223
105	0xbe1a7da1	-0.15086986
106	0xbe1523d7	-0.14564453
107	0xbda571be	-0.08078335
108	0xbec7a3b7	-0.38992092
109	0xbdcf5f0c	-0.10125551
110	0x3e9bc934	0.30426943
111	0xbd3369a8	-0.043801934
112	0x3ccc1b55	0.024915377
113	0x3e25c6b9	0.16189088
114	0xbe972163	-0.2951766
115	0xbdad61d5	-0.084659256
116	0xbd886c7c	-0.06661317
117	0x3f0c3a16	0.5477613
118	0xbe6bdec9	-0.23034205
119	0xbe63eb8e	-0.22257826
120	0xbe5b4a5d	-0.21415086
121	0xbea8c953	-0.32966098
122	0xbefcdd03	-0.4938737
123	0x3e0459d5	0.12924893
124	0x3e547b70	0.20750213
125	0x3e0de39a	0.13856354
126	0x3f3e70bb	0.74390763
127	0xbc935961	-0.017986955
