roof_segmentation_dgcnn_best.pth (torch, 377692 bytes, 42 tensors)

encoder.conv1.nn.0.weight f4 [64, 12]
00000000: 96ef 88bc fb1c f0bd ba57 e43e dcff 27be
00000010: 14b5 453e e800 cc3d d742 34be 8c21 63be
00000020: 7944 77be 7d85 4ebd ea21 99bd e769 39be
00000030: 77b2 44be 4e58 c83d caad d13d 97a2 0fbc
00000040: 1a23 3e3d 48c1 25be fb39 db3d d918 a9bc
00000050: 3f1e 82be 3ff1 623d 0691 1cbe dd5f 64be
00000060: 08f6 f2bd 3822 cc3d 44b7 a5bd d69c 983c
00000070: d2ee 61be 622e 853d dfa6 703e f5d1 8b3e
00000080: 4b30 76be 651d 143d 1e71 3d3e 40be 0b3c
00000090: c261 35be 168f db3c 11c6 7ebc 68e1 fe3d
000000a0: 88d6 623e fe02 273e a826 8dbe 5186 cfbb
000000b0: b160 243d 20db 1ebe cf78 313d 00a0 2a3e
000000c0: 8316 6ebe 3153 9dbe 7265 3e3e 8faf ff3d
000000d0: 04ca b3ba 7406 4fbe 8d98 febd 7bcd 08bd
000000e0: 16ae 103d 7fad 46be 032c ef3d 7dc6 fbbd
000000f0: 9185 393d 7b01 4ebc 6d67 72be d526 4dbe
00000100: db9b 63bd f262 1b3d 8fc6 d4bd f05a 72be
00000110: aa07 51be bfdc 8dbc ba33 c1bd 82f9 183d
00000120: 34b5 8f3e 6ef0 6cbe 0a45 cc3c 562f 803e
00000130: 9417 90be b155 633d 7cf5 65be 5943 07be
00000140: 670b 2d3e 40e1 863e 7746 46be 74cf 62bd
00000150: 2058 41be 298b 1abe ce11 75be 77ea 6b3d
00000160: 262b ea3d 3bd5 653e ed27 a63c 98e3 b8bd
00000170: 11fb 00be 9a95 37bc 0b61 8abe 5feb b03d
00000180: a634 75be c781 443e 17c4 4ebe 2042 a7bd
00000190: b501 2e3e 8afd 203e ab0a 3dbe 8424 2d3e
000001a0: 41e9 89be be1c 173e 4a59 a93e efca d2bd
000001b0: 547b 853d e8c9 763e f750 c2bc cbe3 963e
000001c0: ca8e 903e 7f8f 193e 2a2d 813e 1fba 0ebd
000001d0: ce57 8bbd 76f1 0dbd a556 823e b55b 16bd
000001e0: 78de 813d fb23 733e 5ed6 d03d 1cbb 75bd
000001f0: 8a90 a3bd c148 61be 9192 e73d 1a1e 72be
00000200: 000f 673e 3d67 d6bd e92a 24be e781 513d
00000210: 5c23 733d b244 7d3d b8ea 97be df52 1cbe
00000220: a669 b8bd 5b7c 4c3e 72b1 263d cb88 783d
00000230: 001a 8ebe 37ea 3d3e fe94 a53d a54b 4bbe
00000240: 846b 553d 27b5 5f3e 39cb a33e 6a44 84be
00000250: 781a 81be 228a 253e 09b9 d2bc aed9 95be
00000260: 8d23 833e b830 11bd 6454 673e 6f82 523e
00000270: b92c 313e 5a6e 253c 41ac 8c3e 75b1 203e
00000280: 76a3 49be e195 7dbe 3101 763e e3e2 f1bd
00000290: 023a ea3d bfe7 543e 2ed3 88be 1823 7f3e
000002a0: a18f d13d 61f7 353d c84a 363e 0836 8fbe
000002b0: 3e2a 8dbe b6a1 683e d1cd c33c c9d6 823c
000002c0: 3bdc 513c f1f6 063e 177e 503e 8009 793e
000002d0: bc57 5bbe 28bd eebd 8264 973e f7c6 7bbe
000002e0: ff1c 7d3e cb53 093e 7bb9 553d e322 9c3d
000002f0: 19a2 823c b183 dcbd 5f98 703e d58b 43be
00000300: 59af 023e a5fc 72bd 41c1 9cbd 4947 413e
00000310: 1c7f c43d 64c4 c9bb 672e 9a3d b35c 91be
00000320: fb08 f03d 94bc 7a3d 3e77 9fbd 8645 0c3d
00000330: cc9d 63be 742a 6b3e 50be a1be bb8d 48be
00000340: acaf 8cbe 002e 153e 4df3 1ebe 8c27 fb3d
00000350: ec58 1bbe cbef 1bbe b397 4bbd 23f5 edbd
00000360: 4415 56be 69f1 36be c3df 883e 67c9 d5bc
00000370: f49b 073d 1f53 19be 13e4 473e 1dbc 0a3e
00000380: 6694 fe3d f734 b23d c9d0 2ebe b78d fe3d
00000390: 042a 593e 0647 85be 3df4 2d3e b13e 593e
000003a0: 0264 133e 4edb 093e 7d5a 66bc f5d6 a7bc
000003b0: b7f5 f73d aa14 893e 0397 8a3d c088 d03c
000003c0: a0d7 23be 04f9 4bbd 4513 24bd 1ed9 773e
000003d0: 470b 7a3e 50a8 9bbd 1794 17be a088 8abb
000003e0: 6045 55be 0f47 fe3d c501 00bd c0dd 343e
000003f0: b5a4 0a3d fb34 6ebe ffad 80be 8c0b e63d
-0.016715806 -0.117242776 0.4459818 -0.16406196 0.19307357 0.0996111 -0.17603622 -0.22180766
-0.24147214 -0.050420273 -0.07477172 -0.18106805 -0.19208704 0.09782468 0.10238226 -0.008766792
0.046420194 -0.16187012 0.10704418 -0.020641731 -0.254137 0.05540585 -0.15289697 -0.22302194
-0.11863333 0.09967464 -0.08091596 0.018629473 -0.22063759 0.065029874 0.23501156 0.27308622
-0.2404186 0.036160845 0.18500182 0.008529246 -0.17713073 0.026801627 -0.015550152 0.124453366
0.2215215 0.16309735 -0.27568555 -0.0063331504 0.040131275 -0.15513277 0.043328103 0.16662598
-0.23250775 -0.30727533 0.18593386 0.12484657 -0.0013716822 -0.20217305 -0.124314405 -0.033399086
0.03532227 -0.19402121 0.116783164 -0.12293718 0.045293394 -0.012573595 -0.23672266 -0.20034344
-0.055568557 0.03793616 -0.103894345 -0.23667502 -0.2041308 -0.017317174 -0.09433694 0.037347324
0.28067935 -0.23138592 0.024935264 0.25036114 -0.2814299 0.055501644 -0.22456926 -0.13209285
0.16898881 0.26343727 -0.19362818 -0.055373624 -0.18881273 -0.15092148 -0.23932573 0.05759665
0.11434011 0.22444622 0.02028271 -0.09027785 -0.12595774 -0.011205101 -0.27027163 0.086386435
-0.23945865 0.19190131 -0.2019199 -0.08166909 0.16992839 0.15721717 -0.18461101 0.16908461
-0.2693577 0.14757058 0.33075935 -0.10292613 0.065176636 0.24100459 -0.023720248 0.29470667
0.2823394 0.14996146 0.2522977 -0.034845468 -0.06803857 -0.034654103 0.2545673 -0.036708552
0.06341261 0.23744194 0.10197137 -0.059992895 -0.07986553 -0.2200041 0.11307252 -0.23644295
0.22564316 -0.1046891 -0.16031994 0.051149275 0.059359893 0.06183309 -0.29671264 -0.15265988
-0.09004526 0.19969313 0.04069657 0.06067733 -0.2775421 0.18546377 0.08085059 -0.19853075
0.052104488 0.21846448 0.31990984 -0.25833446 -0.25215507 0.16165975 -0.025722997 -0.2926764
0.2561306 -0.035446852 0.22590786 0.20557569 0.17302217 0.010097111 0.2747517 0.15692694
-0.19691262 -0.24764206 0.24023892 -0.11810853 0.11436845 0.20791529 -0.26723617 0.24915731
0.10232473 0.044425372 0.17801964 -0.2797091 -0.2757129 0.22717938 0.023901852 0.015971558
0.012808855 0.13180138 0.203606 0.2432003 -0.21420187 -0.116571724 0.2956887 -0.24587618
0.24718092 0.1341087 0.05217884 0.076238416 0.015946435 -0.10767306 0.23495625 -0.1909631
0.12762202 -0.05932297 -0.07654048 0.1887485 0.09594557 -0.006157445 0.07528382 -0.28391036
0.11720463 0.061215 -0.077864155 0.03424599 -0.22228163 0.22965413 -0.3159051 -0.19585316
-0.27477777 0.14568329 -0.155225 0.12263402 -0.1517064 -0.15228193 -0.04970522 -0.11619022
-0.2090655 -0.17865528 0.26733217 -0.026097013 0.033107713 -0.14973114 0.19520597 0.13548322
0.124306485 0.087015085 -0.17071833 0.12429374 0.21207434 -0.2603075 0.16987701 0.21215321
0.14393619 0.13462564 -0.01405966 -0.020488242 0.12107413 0.26773578 0.067670844 0.025455832
-0.16000223 -0.049798027 -0.04005744 0.24203917 0.24418364 -0.076004624 -0.14802586 -0.0042277128
-0.20827246 0.12415897 -0.031251688 0.17662716 0.033848483 -0.23262398 -0.25132748 0.11232671

encoder.conv1.nn.0.bias f4 [64]
00000000: 1920 6c3e daed 81be fe7c 343e e244 573d
00000010: e2aa b33c 99bb 913e 7734 88be ef48 94bd
00000020: e7b5 5e3e 45e4 823e 13c6 c93d a966 2c3e
00000030: b549 1e3e 1021 7a3e 0896 c13d dbdc c3bc
00000040: d087 de3d 3a59 293e 7422 6a3d c2ea 9a3c
00000050: 8e65 01be 09ee 08be cbba 2ebe 4add 37be
00000060: 097e 52be 5b69 213e 89a0 bd3d ab01 5cbe
00000070: 80c2 2cbe 8105 1a3e 1ceb 903c 7e9b 013e
00000080: 62b0 833e a044 35be 1498 21be 333c 7dbe
00000090: 25a9 b0bd 61d4 933c 90d3 53bb 7245 343e
000000a0: 91ad 8dbd 260c 82bd 8379 f5bd 9e3e b7bd
000000b0: 3b98 4f3e a6cb 733e 5a5f 3abe e385 07be
000000c0: 26cc 1c3e cae8 f8bd 338b 8b3e eeea 8a3e
000000d0: 4932 723e 7b6f cebd b0b6 b4bd b4a2 c2bd
000000e0: 9327 5a3c dab4 6ebd eb32 63be 2d38 7cbd
000000f0: d370 c2bd c037 a4bc af9b 193e 7329 7b3e
0.2305912 -0.2537678 0.17625806 0.052555926 0.02193207 0.28463438 -0.26602527 -0.072404735
0.21749078 0.2556478 0.09852233 0.16836037 0.15457805 0.24426675 0.09452444 -0.023909023
0.10865748 0.16537943 0.057161763 0.01891077 -0.12636396 -0.13372053 -0.17063443 -0.17955509
-0.20555891 0.15762846 0.09259135 -0.21485011 -0.16871071 0.15041162 0.017690234 0.12656972
0.25720507 -0.1770196 -0.1578067 -0.24729995 -0.08626012 0.018045606 -0.0032322146 0.17604616
-0.06917871 -0.063499734 -0.11986067 -0.0894749 0.20272915 0.23808154 -0.18200436 -0.13234667
0.15312251 -0.12153776 0.27254638 0.27132362 0.23651995 -0.10079857 -0.088239074 -0.095036894
0.013315099 -0.058277942 -0.22187392 -0.06157701 -0.09494176 -0.020046115 0.15000795 0.2452753

encoder.conv1.nn.1.weight f4 [64]
00000000: 7e2c 833f c26e 803f c1d0 7c3f 0f48 7e3f
00000010: 5efb 793f 8ec9 843f 5c53 813f c1e4 7b3f
00000020: 351d 803f d952 823f 8d1a 7b3f 580d 833f
00000030: 2d0a 803f 654d 803f b70f 7e3f e305 803f
00000040: b764 803f ec66 813f 5f0d 813f 5531 803f
00000050: e599 823f f525 813f 66d0 7d3f d58d 783f
00000060: d8df 843f 800a 7d3f bc82 7e3f f26a 7c3f
00000070: ca5f 803f 00ca 833f f107 803f 3d08 803f
00000080: 8f90 7b3f ea00 803f c66a 823f 3249 833f
00000090: a940 763f 7a8a 7c3f 27a9 7f3f aa18 803f
000000a0: 5eb1 803f b5cb 7f3f 36a1 7f3f 9b9e 7b3f
000000b0: 0f22 7e3f e10f 803f 863c 803f a481 7f3f
000000c0: 2607 7c3f f38b 7f3f 767e 7c3f 961d 7a3f
000000d0: d670 7b3f b3d8 833f b620 833f dd43 803f
000000e0: 51ab 803f 580d 813f 5228 843f 7af5 813f
000000f0: 08d8 7d3f 2e6b 7d3f bcdc 743f ed2e 773f
1.0247953 1.0033801 0.98756033 0.993287 0.9764918 1.037401 1.0103564 0.98395926
1.0008913 1.0181533 0.9808739 1.0238447 1.0003105 1.0023619 0.9924273 1.0001796
1.0030736 1.0109534 1.0082206 1.0015055 1.0203215 1.0089709 0.99146116 0.9709142
1.0380812 0.98844147 0.99418235 0.98600686 1.0029233 1.029602 1.0002424 1.0002514
0.98267454 1.0000279 1.0188835 1.0256712 0.96192414 0.986488 0.9986748 1.0007527
1.0054128 0.9992021 0.99855363 0.9828889 0.9927072 1.0004846 1.001847 0.9980719
0.9844841 0.9982292 0.98630464 0.97701395 0.9821905 1.0300506 1.0244358 1.002071
1.0052282 1.0082197 1.0324805 1.0153039 0.9915776 0.9899167 0.95649314 0.9655598

encoder.conv1.nn.1.bias f4 [64]
00000000: c4cf 633d 51a0 153b 9ebd 0fba 2b83 e63b
00000010: e69a b2bb bc54 e43d c651 84bc 06f6 01bc
00000020: aca6 883b 2388 7c3c f48a 0c3c 83f0 6dba
00000030: 903a 783c fe57 963c 9045 6f3c ba85 1fbc
00000040: 2d9c 903b 1923 2c3b 1c4b a23c 82d8 14bc
00000050: 58ba 423c 2183 2d3d 5e26 8b3b 961d c7bc
00000060: addc f73d 5dd7 fdbc 7659 613d 1e1b 33bb
00000070: de70 ef3c 5e36 b03c 3f41 023c 9985 e139
00000080: a0f1 9abc bb0a d53c 5b18 2bbc e56b 5e3d
00000090: c7b0 a9bc 633b 023c 4e73 9b3c 4ebf 893c
000000a0: eb44 013d c05c a7bc 67d6 d7ba 7868 9bbc
000000b0: 9878 d03c 0a5c 023d 14c0 ff39 c62a 9c3a
000000c0: 2754 81bc 4dc4 5cbc 1798 12bc cad8 dd3c
000000d0: 66a3 583c 86e0 bd3d dad5 0d3d e369 24bc
000000e0: 0ab1 07bc 7144 c83b 347a bc3c ab72 7d3d
000000f0: 4870 2abc e7e9 3a3a 8b7a 57bd 7ca6 e6bc
0.055618063 0.0022831152 -0.0005483272 0.0070346794 -0.0054505942 0.11148974 -0.016152274 -0.007932192
0.0041702595 0.015413317 0.008578051 -0.00090766716 0.015150681 0.018352505 0.014603987 -0.009736473
0.004413149 0.0026266037 0.019811206 -0.009084823 0.011885248 0.042361382 0.004246517 -0.0243061
0.121026374 -0.030986482 0.055016957 -0.0027329396 0.029228624 0.0215103 0.007950126 0.00043014882
-0.018914044 0.026006093 -0.0104428185 0.054302115 -0.020714177 0.007948729 0.01897588 0.016814854
0.031559866 -0.020429969 -0.0016467095 -0.018970713 0.025448129 0.031826057 0.000487805 0.0011914603
-0.015787197 -0.013474536 -0.008947394 0.027080912 0.013222551 0.0927134 0.034627773 -0.010035011
-0.0082819555 0.0061116745 0.02300749 0.061876934 -0.0104027465 0.0007130191 -0.0526071 -0.028155558

encoder.conv1.nn.1.running_mean f4 [64]
00000000: 5177 a63e 0878 d0be f94c 743e 2e42 543e
00000010: e220 2ebe f085 a43e 490e 59be a60a 103e
00000020: 9c1c bc3e c2ca cb3e b04f e2bd a963 b73e
00000030: f904 9e3e 4831 0a3c 56fc 9e3e 5cf6 d13d
00000040: 8e5a d43d 03e2 9b3e 7f6b adbd ada4 183e
00000050: c2d7 4abe 4950 84bd 112e 483d fc18 ecbe
00000060: ada3 a4bd 9361 023e 7683 09be 5b43 51be
00000070: a54a f43d f1f4 8c3e 7491 6d3e b63c e53d
00000080: e163 cc3e 4994 7fbe 4410 8bbd 54c9 65be
00000090: 9ad3 bdbc 8199 2a3e af3f 1d3e c472 d93d
000000a0: 7c63 6dbe 129f 4dbd aaa0 babe 4aa9 b23d
000000b0: 193b a63e ae9f f93e 7929 73bc e198 4b3d
000000c0: 059c b53e 8b65 ccbd 014f 843e 87d9 283e
000000d0: 37a2 013e d7a8 34be 083b 45be 57cd 2ebe
000000e0: 3c9c 873e 0093 8ebe ab90 fcbd a04d 9c3d
000000f0: 5200 443d de3d a23c 31c0 ad3d fe82 e93e
0.32512906 -0.40716577 0.23857488 0.2072837 -0.17004731 0.32133436 -0.21196856 0.14066562
0.36740577 0.3980313 -0.110503554 0.35818222 0.3086317 0.008434601 0.31051892 0.102520674
0.103688344 0.3044587 -0.08467769 0.14906569 -0.19808868 -0.06460626 0.048872057 -0.46112812
-0.08039031 0.12732534 -0.13429055 -0.2043585 0.119283 0.27530625 0.23200017 0.1119322
0.39919952 -0.2495891 -0.06790212 -0.22440082 -0.023172189 0.1666012 0.15356325 0.10617593
-0.23182482 -0.05020053 -0.36450702 0.087236956 0.32466963 0.48754638 -0.014841431 0.049706344
0.35470596 -0.09980305 0.25841525 0.1648923 0.12659536 -0.17642532 -0.192608 -0.17070518
0.26486385 -0.27846527 -0.12332281 0.07631993 0.047851868 0.019804891 0.08483923 0.45607752

encoder.conv1.nn.1.running_var f4 [64]
00000000: 05fb 6c3b db0b 873b 1caa 393b 93c8 923b
00000010: 00a5 263c 8ffa f53a 218f c03c 6f17 813b
00000020: 6fb3 3b3c 67e5 893c 2ccd 863b 4576 d33a
00000030: 9077 dd3b 0109 e53b 8b14 ca3b fc50 403c
00000040: 6ed4 993b 0cd1 463c 9495 c73b 3b8e 463c
00000050: 4c82 993b 22b0 4c3c 9922 313b a13e 073b
00000060: 537a c13a 2029 e73b 90c1 b13b e9e3 a13b
00000070: 9198 f13a 3300 d03b 4e42 033c 2e3e 983b
00000080: 1952 223c 3347 c63b 00fc 7c3b 3447 9d3b
00000090: 8dec fd3b 29ef 603b eb1e 8a3b 05f5 9b3b
000000a0: d50c 183b 3940 2b3c 5d0c e93a 48d5 ad3b
000000b0: bf3e ab3a 1830 113c b5ae 233c 49ee 673b
000000c0: 2e3c b93b d8e5 603c 1d3c 053c a79d 0d3b
000000d0: 9aab d53b 5ef8 903b 6ab9 cd3b 731b 663c
000000e0: 0c2e 903b 8a9e 383c 20ea 153c 9d2b d73a
000000f0: de6e b73b 882b ee3b 6b35 163c 055e 513c
0.0036160361 0.0041212863 0.0028330153 0.0044794767 0.010171175 0.0018766689 0.02350575 0.003939561
0.0114563545 0.01683302 0.004113814 0.001613327 0.0067586377 0.0069895987 0.0061669997 0.011738058
0.004694513 0.012134802 0.006090829 0.012118871 0.004684722 0.012493165 0.0027028678 0.0020636695
0.0014761187 0.007054463 0.005424686 0.004940499 0.0018432309 0.00634768 0.008011414 0.0046460843
0.009907269 0.006050968 0.0038602352 0.004799748 0.0077491463 0.0034322238 0.0042151115 0.004759433
0.0023201008 0.010452324 0.0017780174 0.005304966 0.0013064964 0.008861564 0.009990384 0.0035389832
0.005652926 0.013726674 0.008132008 0.002160886 0.0065207006 0.004424139 0.0062782066 0.01404463
0.0044000205 0.011268267 0.009150058 0.0016416196 0.005597933 0.007268373 0.009168009 0.012778764

encoder.conv2.nn.0.weight f4 [64, 128]
00000000: 1d9e e0bc 5b69 42bd 3b23 833c a1f7 ee3c
00000010: 1442 e7bb 97bc 983d 24a5 d2bc 9da9 1abd
00000020: 4ed3 8ebc d632 68bd 52f3 e63c 24fd 513a
00000030: 7476 b83d 1dda 12bc f8cd f53d 734d 293d
00000040: 2986 babd ae8a a73b 9672 aa3d 43d9 693d
00000050: 7d3b bfbb b612 e2bb c968 67bc 1461 81bb
00000060: 4de9 c4bd 79f4 63bd 315d cf3b da32 223b
00000070: f04b c63c c62e a83d efe5 81bd 554f 13bd
00000080: 6062 e53b 3c7d 3c3b 2b3e 953d 69d2 5cbd
00000090: 6155 403d 5252 503d 8272 803d 2cb0 563d
000000a0: 55d1 653c 6684 db3b f48d a53d cfcf 5ebc
000000b0: a28a 2d3c 96e8 f4bc 54c2 3cbd a31c 2e3d
000000c0: 30ce 233c 8f29 463d e30c 98bd 1fd9 183d
000000d0: 90ab 9c3d 1c4b bb3c 04f3 a6bb 774a ac3c
000000e0: 24d8 a4bc 7003 1a3d 089b da3d 57bf 93bc
000000f0: 9c43 f93c a12d 973d 4c4a b8bb 28d5 d83b
00000100: e93e 7a3c f323 73bd f2a7 883d 5aa9 56bd
00000110: 597f e2bc d262 5ebd ca4b 1fbc 52e1 8a3a
00000120: 75d6 b1ba 27d4 373d e81c 5ebd 0b65 e93c
00000130: a0c1 90bd 56ae 9fbd 89bf 863d 086e 573d
00000140: 0eec 46bd 1031 77bd c7dd cabd e7cb 663d
00000150: 42f4 54bd 89cf 36bd 3187 c8bd ec42 1d3d
00000160: 9866 ae3d b854 59bd c09d 9cbc fbd8 d93c
00000170: 3bcc 893c fa7b 223d aeae cdbc 803b 49bd
00000180: 9dc2 8d3d 2fd2 2f3d 5c0e 463c 8049 5ebd
00000190: 1f1f b93d fe9b 803a 45ee ae3d e64e 563d
000001a0: b28e 8e3d 1d0f 51bd d6a0 a43d 10b2 3dbc
000001b0: 021a 31bd fae2 13bd 663a 5dbd 0252 90bc
000001c0: 3253 863d 52f4 0f3d 3d50 eb3c 99d7 513c
000001d0: 86df b5bc f471 633c 2ede 463d 8234 a43d
000001e0: 99b3 89bb 0d36 aebc a7e8 53bd 13f6 93bc
000001f0: 5c10 e1bb 034c b8bc 2046 3bbc 3849 f63c
00000200: 50d9 e83c c056 c53c 3b26 9abc 6b38 2abd
00000210: 90a0 03be 36c9 c23d 7330 59bc 3638 d6bc
00000220: d300 a8bd 1ce3 a2bd 5dfc be3d 6c91 473d
00000230: 0ccd 32bd 699e 8dbd 8aaf 3d3b f2cb 87bd
00000240: eff8 87bc 38d0 d7bc 80cb b4bd 727e c03c
00000250: a795 5fbd 8ffb 393d f220 a9bd 7886 88bc
00000260: 68e5 9fbd 1c07 a53c da0b 943d f866 423d
00000270: d2d2 8b3d 8090 68bd bf94 0cbd ec94 81bd
00000280: 40a5 623c d7aa a2bd 30a1 b13b 6c39 263c
00000290: 8dfe 563c 2b59 c03c c5d9 41bd 284d 2cbc
000002a0: edf4 7cbd 5336 cbbc 2a4a 8ebd d949 813d
000002b0: 2dd3 913d 7400 aa3c 0519 e8bd d118 33bd
000002c0: 788e cbbd a19c 93bd b79e 1c3c 6ed5 35bb
000002d0: 9fa4 d43c fb91 cd3c 946c 783d 9240 a83c
000002e0: e4fa 5cbd 925b 75bd a913 2fbc 2775 b4bc
000002f0: c303 313c 58bd 95bd 8e49 693d d64c 863d
00000300: a241 083d 236c 3bbd 70f4 86bd b864 fd3c
00000310: 50b3 8cbd a03b 1fbd b844 e4bc b573 89bb
00000320: 8e8a 07be 21df 523d 3879 613d 8c9b 19bd
00000330: c50d 4b3d 2d52 ac3c 4096 b7bc e312 453d
00000340: bbe0 513d b8a3 fc3c 14b4 b7bc 2b5c f4bc
00000350: b800 8ebc 4e0c 7d3c f0bc a7bd 6654 a5bc
00000360: 9f1b 84bd 3a4e 07bd d4f2 a8bd 219d 4d3d
00000370: 0a41 acbc 719a 2c3c 0237 d5bd 30c5 b93d
00000380: 446d a3bd 1cca 91bd 4f89 86bb 848f b33d
00000390: 1d89 3f3d 23aa 85bd e5f9 84bd 3e09 623d
000003a0: 2c76 293c 88a0 16bc b0f6 2a3d 3637 edbc
000003b0: d36a ccbb 13d0 793d 7914 39bd 421c f0bc
000003c0: 5795 273d 5b93 af3c 8c4e 9bbd 1ae8 0fbc
000003d0: 44e8 a3bd 16ca 22bd 2eff 953d b3ba 9abc
000003e0: be53 5abd 2f4e 463d c253 733c e17e c0bd
000003f0: ae83 75bd 71ee 6b3c 1e8f 183d 4cec 3fbd
-0.027419144 -0.047463756 0.01600801 0.029170813 -0.0070574377 0.07457846 -0.02571351 -0.037759412
-0.017434742 -0.056689106 0.028192196 0.0008010438 0.09006968 -0.008963135 0.12002176 0.041333627
-0.0910762 0.0051129675 0.08322637 0.057091963 -0.005835949 -0.006899203 -0.014124104 -0.00394834
-0.09614811 -0.05565307 0.006328248 0.0024749548 0.024206132 0.08212046 -0.063426845 -0.03596433
0.0070002526 0.002876117 0.07287248 -0.0539116 0.046956424 0.050859757 0.06271841 0.052414104
0.014026959 0.0066991327 0.08083716 -0.01359935 0.010592135 -0.029896062 -0.046083763 0.04250778
0.009997889 0.048379477 -0.07424333 0.037316438 0.076499104 0.022862963 -0.0050948877 0.021031601
-0.020122595 0.037600935 0.10674101 -0.018035574 0.030427746 0.0738175 -0.0056240913 0.006617207
0.015273788 -0.059360456 0.06672658 -0.0524076 -0.027648615 -0.05429346 -0.009722659 0.0010595715
-0.0013567941 0.04488006 -0.054226786 0.028490564 -0.07068181 -0.07796924 0.06579501 0.05259517
-0.048564963 -0.060349524 -0.09905582 0.0563468 -0.051990755 -0.044631515 -0.09791411 0.0383939
0.08515662 -0.05305931 -0.01911819 0.026592722 0.016821017 0.039669015 -0.025107708 -0.04912901
0.06921885 0.042925056 0.0120883845 -0.054269314 0.09039139 0.0009812114 0.0854154 0.052321337
0.06960811 -0.051039804 0.080384895 -0.011578098 -0.043237694 -0.036105134 -0.05401077 -0.01761723
0.06558837 0.03514511 0.028724784 0.01280775 -0.02220131 0.013882149 0.04855173 0.080178276
-0.004202318 -0.021266008 -0.051735546 -0.018061673 -0.0068684053 -0.022497183 -0.011430293 0.03006421
0.028423935 0.024089217 -0.018817058 -0.04155771 -0.12854218 0.09511034 -0.01325618 -0.02614985
-0.08203282 -0.07953474 0.09325478 0.04872267 -0.04365258 -0.0691498 0.002894374 -0.06630696
-0.016598193 -0.026344404 -0.08827877 0.023497794 -0.05458608 0.04540592 -0.08258237 -0.016665682
-0.07807428 0.020144992 0.07228823 0.04746148 0.0682732 -0.05677843 -0.034321543 -0.06327233
0.013833344 -0.07942741 0.0054208264 0.010145526 0.013122213 0.023480019 -0.04732682 -0.010516442
-0.061757017 -0.024806177 -0.069477394 0.063129134 0.07120357 0.02075217 -0.11332897 -0.04372484
-0.09939283 -0.07207609 0.009559325 -0.0027745622 0.025957404 0.025094023 0.060650423 0.020538602
-0.053950205 -0.05990178 -0.01068584 -0.022028519 0.0108041195 -0.07311505 0.056954913 0.06557624
0.033265717 -0.045757424 -0.065895915 0.030931816 -0.06870139 -0.038875222 -0.027864799 -0.0041947016
-0.13236448 0.051482324 0.055047244 -0.037501857 0.04957368 0.021035278 -0.022410512 0.048113715
0.05123971 0.030839786 -0.022424735 -0.029829105 -0.017334327 0.015444828 -0.08190334 -0.020181846
-0.06450581 -0.033033587 -0.08249441 0.050198678 -0.021027107 0.010534869 -0.104108825 0.09070814
-0.07979825 -0.071186274 -0.004105724 0.08767608 0.04676162 -0.06526592 -0.06492976 0.055184595
0.010343116 -0.009193547 0.041739166 -0.02895699 -0.0062383204 0.06098945 -0.04518554 -0.02931035
0.040913906 0.02143257 -0.07583341 -0.008783365 -0.080032855 -0.039743505 0.07324062 -0.018887853
-0.05330252 0.048414405 0.014851512 -0.093992 -0.059940033 0.014400111 0.037245862 -0.04685621

encoder.conv2.nn.0.bias f4 [64]
00000000: afa6 1ebd 7dba 40bc c92a 773d 8311 8d3d
00000010: 9ff1 75bd 824b 873d f43a 0f3d a096 7ebd
00000020: bc6d 12bd 0f05 b0bd d0b5 8b3c 0199 ab3d
00000030: fbda 1a3d 0db3 4d3d e261 8d3d 9a76 8abd
00000040: dc40 41bd ae86 8c3d 71aa 48bd bd5b 953d
00000050: 5498 903d 4115 a83d edc2 1f3c c403 263d
00000060: b3d1 7b3d 04b6 b13a ac03 d2bc b56c afbb
00000070: 4831 a939 0824 6dbd 3950 933c 3c95 4c3d
00000080: 6db3 d5bd 3791 37bd 3577 d53d 7229 b93d
00000090: ec5d 8f3d b648 a5bc 4dce a53d eaba e83c
000000a0: 4c21 423c f6b9 07bd e88b 1b3d e508 0b3d
000000b0: c348 be3c f6ea c83c 8e13 20bd e97a 933d
000000c0: 08aa a83d bd75 87bd eb59 f1ba 400c b0bd
000000d0: 5f67 623d 9b39 633c 33c5 643c 6e3d 0f3d
000000e0: c3c0 58bd 2936 9ebd 0043 1e3d 32c3 a43d
000000f0: 834b b3bd 9d5d 8bbb bdc8 523d 22f4 cdbd
-0.03873318 -0.011763212 0.060343537 0.06888106 -0.06004488 0.06606199 0.03496833 -0.062155366
-0.035749182 -0.08594715 0.017054468 0.083787926 0.037806492 0.050219584 0.06903435 -0.06760903
-0.047180995 0.068616256 -0.04899067 0.07292888 0.07060304 0.08207179 0.009751064 0.040530935
0.06147928 0.0013558273 -0.025636517 -0.005353535 0.0003227091 -0.05789569 0.01798259 0.04994701
-0.104346134 -0.044816222 0.104231276 0.09041108 0.07000336 -0.020176273 0.080959894 0.02840944
0.011848759 -0.03313633 0.037975222 0.03394403 0.023228055 0.0245261 -0.03908115 0.072011776
0.08235556 -0.06614254 -0.0018413638 -0.085960865 0.055274364 0.013868715 0.013963032 0.034970693
-0.052918207 -0.07725174 0.038638115 0.08045043 -0.08754637 -0.004253103 0.05146097 -0.1005633

encoder.conv2.nn.1.weight f4 [64]
00000000: 2dca 7a3f 4e80 7e3f 67c7 7c3f 8981 7e3f
00000010: 5627 853f afd2 7d3f 6a16 7e3f 107f 783f
00000020: 00b0 7e3f d4dc 7f3f dd23 7e3f b3f0 7f3f
00000030: 4000 803f 9080 7e3f 5af0 7b3f b6b2 7d3f
00000040: dfa8 7c3f c5a7 7c3f 2681 7e3f 0d97 813f
00000050: 95ab 7f3f 98e3 843f 8a60 813f 674d 773f
00000060: d2d8 803f cd6a 7e3f 94ee 833f 2519 873f
00000070: 0d86 803f b997 823f dc36 833f 24fd 7d3f
00000080: b305 823f a53a 733f eb78 803f a082 7f3f
00000090: ab4b 803f 9dd3 793f e3e8 7f3f e68e 813f
000000a0: 1168 823f 1525 7c3f 0a9b 7d3f 09ba 7b3f
000000b0: 41a8 823f 87e0 803f fe6c 823f 07df 763f
000000c0: b0cf 803f 42de 823f b851 803f 94d4 7c3f
000000d0: cdfc 7f3f fd61 823f 4ffa 813f eac7 7d3f
000000e0: 4780 7b3f 3a82 7f3f 917c 823f f100 813f
000000f0: 51b7 823f 48f9 7a3f e791 7f3f bb21 823f
0.97964746 0.9941453 0.98741764 0.99416405 1.0402629 0.991496 0.9925295 0.9706888
0.99487305 0.9994633 0.99273473 0.9997665 1.0000076 0.9941492 0.9841362 0.99100816
0.98695177 0.98693496 0.99415815 1.0124222 0.9987119 1.0381956 1.0107586 0.9660248
1.0066168 0.99381715 1.0307183 1.0554549 1.0040909 1.0202552 1.0251117 0.99214387
1.0157989 0.9501136 1.0036901 0.9980869 1.0023092 0.9758852 0.9996473 1.0121734
1.0188009 0.9849408 0.99064696 0.9833074 1.0207597 1.006852 1.0189512 0.9643406
1.0063381 1.0224078 1.0024939 0.9876187 0.9999512 1.0186154 1.0154513 0.9913317
0.9824261 0.99808085 1.0194265 1.0078412 1.0212194 0.98036623 0.99832004 1.0166544

encoder.conv2.nn.1.bias f4 [64]
00000000: 9857 fa3b 810b 73bd df3e 633b 35cc 263d
00000010: ddf6 6c3d a144 923c b31d 943c 48e8 ca3c
00000020: 11ce 4f3a 965a 173d 0c41 883b 3cdd 5bbc
00000030: f091 893c 35ba 03bc 38f6 5bbd 436f ba3c
00000040: ef74 553c 082a ef3c fbc4 38bb d09c 143d
00000050: a24d a73d b7a9 293d 4f5b ae3c f81a 143d
00000060: be5e bd3d 8aae 86bc 5cd6 913d af5a 8d3d
00000070: cfc0 143b c444 6c3d 3c66 793d fbdd 1c3d
00000080: 4e07 be3d dc61 bbbb 96d0 c1bc 37cd a93d
00000090: cc3c 8fbc 50df 1cbc 0178 063c f1bb 303d
000000a0: 7264 773c 41b0 e83b ad51 1c3d 2692 9bbc
000000b0: 8ef4 9e3d 2ee3 9a3d b297 583d 1a79 7dbc
000000c0: b1c2 183d 0940 0e3d e3c4 89bb d43c 863b
000000d0: 1cdf e43c 3f85 1b3d 034f 6f3b dcc3 0cbd
000000e0: cf12 44bc cdaf 6f3c 19e9 2b3b f497 593d
000000f0: 26b5 c73d d105 6c3c 7cb9 6e3d a167 953c
0.0076398365 -0.059337143 0.0034674925 0.04072209 0.057852615 0.01785499 0.018080568 0.024768963
0.00079271296 0.036951624 0.004158145 -0.013419446 0.016793221 -0.008040001 -0.05370161 0.022758132
0.013028367 0.029194847 -0.0028193581 0.03628236 0.08169104 0.04142162 0.021283774 0.036158532
0.09246586 -0.016440649 0.07120964 0.06902062 0.002269793 0.057682768 0.060888514 0.038297635
0.09278737 -0.005718453 -0.023659032 0.08291095 -0.017485045 -0.009574726 0.008207322 0.043147985
0.015099632 0.007101089 0.03816383 -0.018990587 0.07761489 0.07562862 0.052879043 -0.015470767
0.037295047 0.034729037 -0.004204379 0.0040966067 0.027938418 0.03796887 0.00365156 -0.034366474
-0.011967375 0.0146293165 0.0026231466 0.05312343 0.09751348 0.014405684 0.05828236 0.01823789

encoder.conv2.nn.1.running_mean f4 [64]
00000000: dc93 4e3e 9e91 88be 7cc7 a73d e1de 613c
00000010: b73c 293e 5cec 7fbc 3f86 91be edf9 e03c
00000020: de7f b0bd a4d2 72be f1d4 7fbe ca73 863e
00000030: e1ff 7abd 2779 0e3d 8d64 c1bd 9094 533d
00000040: 6fab 2e3e 213b 3b3c b767 56be dac1 6ebd
00000050: a71d 843e 1ce9 87bd 8074 06bf 3e4b b63e
00000060: 98bb 093e eca6 8f3e f7d4 e93c 7746 10be
00000070: 53a9 3ebe fe69 503d f43a 1ebd a69d e53d
00000080: 8491 12be a071 afbd 8e1a 473e 8353 a13c
00000090: 44f4 fdbc d520 2abe dba6 abbd 2416 90be
000000a0: 2855 983d ed1c 8e3e 1721 00be 55a3 bb3d
000000b0: 2ce1 a8be 6f38 dbbb 3e9a e9bd f98f 143d
000000c0: bd43 ec3e f30d fa3d f04f dbb8 09ce 96be
000000d0: 1619 af3d 33f4 3cbe f3c3 c0be 9541 6ebd
000000e0: 8b33 153e 4222 7a3d 0c75 49bd ae65 143c
000000f0: 4318 f2bd 6324 bebd e491 943e 4017 1abe
0.20173591 -0.26673597 0.081923455 0.013786049 0.16527067 -0.015620317 -0.28422734 0.027462924
-0.08618139 -0.23713166 -0.24983574 0.26260215 -0.06127918 0.03478351 -0.09443007 0.051655352
0.17057584 0.011427672 -0.20938002 -0.05829034 0.25803873 -0.06636259 -0.52521515 0.3560428
0.13450468 0.2805704 0.028543932 -0.1408938 -0.1861928 0.050882332 -0.03863044 0.1121171
-0.14313322 -0.08566594 0.19443724 0.019693142 -0.031000264 -0.16614087 -0.083814345 -0.28141892
0.07438117 0.27756444 -0.12512623 0.091620125 -0.32984293 -0.006690077 -0.114063725 0.036270116
0.4614543 0.12209692 -0.00010457623 -0.29454067 0.08549707 -0.1845253 -0.37649497 -0.058168013
0.14570443 0.061067827 -0.04918389 0.009057445 -0.11821034 -0.09284284 0.29017556 -0.15047932

encoder.conv2.nn.1.running_var f4 [64]
00000000: e521 693e fad4 403e 13db 1d3e 0bcb 1d3e
00000010: e80e 213e 019e 4b3e 30b3 433e 8739 2c3e
00000020: e62a 023e 197d 003e e11f 313e b49e 243e
00000030: c946 f63d edcc c43d 0cc2 873e 337b 333e
00000040: 71e9 0e3e 4e5b 7a3e cc3e ad3d cd8b 223e
00000050: 3954 ac3d 93b9 5c3e ebd0 7f3e caa6 cf3d
00000060: ea45 013e e2e0 2b3e 8556 f93d 7998 f03d
00000070: 263b f43d 5880 df3d aecc 273e 05c7 273d
00000080: c198 033e f6be 013e 159f 683e 7944 ef3d
00000090: d39a 013e 6ced 6d3e 768d 303e 13bc 0e3e
000000a0: 8835 033e e423 0c3e 080a 163e 12cc 3e3e
000000b0: 21f8 3c3e 08b5 f13d 550a 1a3e 5437 cb3e
000000c0: 6245 7c3e 759d 5c3e 96ff 213e 3ce7 cb3d
000000d0: 974f 213e 8bbc 583e b668 333e 2011 333e
000000e0: 09f9 043e accc 7b3e 3600 923e 9823 3f3e
000000f0: daa9 b43d 102c ae3d 7e93 4c3e d8ca 2b3e
0.22766836 0.18831244 0.15415601 0.15409486 0.15728343 0.19884492 0.19111323 0.1681882
0.12711677 0.12547721 0.17297317 0.16076165 0.1202522 0.09609399 0.26515234 0.17527466
0.13956238 0.24448892 0.08459243 0.15873642 0.08414502 0.21555166 0.2498204 0.10139234
0.12624326 0.16785005 0.121747054 0.11747832 0.11925344 0.109131515 0.16386673 0.040961284
0.1285124 0.12670502 0.22716935 0.11682982 0.12656717 0.232351 0.17241463 0.13938932
0.1281339 0.13685566 0.14652264 0.18632534 0.18454029 0.11802107 0.15043004 0.3969065
0.24635842 0.2154444 0.15820155 0.09956214 0.15753017 0.21165673 0.17520413 0.17487001
0.12985624 0.24589795 0.28515786 0.18665922 0.08821459 0.08504498 0.19978139 0.16776597

encoder.conv3.nn.0.weight f4 [128, 128]
00000000: be4f a4bd 2c87 a9bc 8132 993c 2375 54bd
00000010: c87d a2bd 6013 173d 0308 8abc 1dc7 9bbd
00000020: fb3b 2e3c e717 91bd 2978 7c3d 88aa 88bd
00000030: 58b6 70bd 4dc4 5cbd b31c 863c c8db 9b3d
00000040: e31e e03c 9f89 813d 8bd4 cbbd ae91 55bd
00000050: 6c56 893d b39c 043c eb7d 9e3d d9e9 79bd
00000060: d075 8bbd e118 533d f473 593d bb0c 4bbd
00000070: a2be 8fbb da0c a83d 1f6e 07bd ead4 59bc
00000080: 472b 82bc bf4d d53c cdab fabb 893f bc3c
00000090: abb1 22bd 31d9 a93d 868c c7bd 799d 263d
000000a0: 89ef 9a3d bca6 da3c d668 7c3c e3d8 0dbd
000000b0: f260 abbb ce66 85bd 78b9 08bc 7cc1 a13d
000000c0: d258 55bd 80d1 3cbd e269 31bd ba16 abbc
000000d0: 91a9 83bc 506b e7bc a1cb 91bc 2824 0c3d
000000e0: 98a7 333d 28a0 0ebc 3cde 15bc f82e 88bd
000000f0: 4652 89bd e6ee abbd 5fb5 cebd 48d6 093d
00000100: 9a72 29bd cbba 9abd d8fe 0abd fdd6 a23d
00000110: b311 bb3b c12a 32bc df10 983d 877e 123d
00000120: 536c b0bd b4c7 9d3c e463 1f3d 2520 96bd
00000130: 7c4e b8bd b0c7 94bd b85e a33b 1d6e a5bd
00000140: 243b 64bd af57 923c 5333 a4ba 4c4b 813d
00000150: cd06 1ebd 73d7 ab3c 1acd 633c a2a3 78bc
00000160: e2d3 cabc eb38 3ebb 0d0c 90bd 8892 a0bb
00000170: 33f8 a33c efbe 823d 53ff 283c d044 a03d
00000180: c237 83bc fe3f 153d cd75 a83d 273d 9abc
00000190: 295c 80bd cbd5 de3c cbaa 513d ec15 403d
000001a0: 0af6 493d 2f73 a23d a357 79bc a0a8 8f3d
000001b0: ebde f43c 8daa a2bd d661 33bd 8acf 733d
000001c0: 6ce0 c33b 2aad 11bd 3dc8 a6bd 13c6 17bc
000001d0: 078f 693d 8f2e c03d 2ac3 04bd 1e2a 063d
000001e0: e129 e43c bcb9 b23d 7aca c33b 0f5f 5c3d
000001f0: f7cc a0bd 182b adbd bf28 b3bd 6833 523d
00000200: 7337 793d 9b90 3cbd 1e70 fcbc 16fa 60bd
00000210: b33c 293c 0693 c6bd 20a6 abbd 3107 263d
00000220: 62f4 423d a1c4 b43d 4688 93bd 7b1d 54bb
00000230: 308a a8bd 3db3 71bd 7b77 3b3c f110 b6bd
00000240: 1c3c 1dbd 4a0a 95bb 53ed bf3b 5e5f 753d
00000250: 035c eb3c 710b e73b 6d3b a9bc 8555 a6bb
00000260: c279 7b3d c974 923d 9251 59bd b22c 07bd
00000270: a500 a1bd e7e4 853d ab04 ea3c 789e 7bbd
00000280: f086 63bd 0f39 5f3d bbc4 233d 771a 423d
00000290: 2c9a 523d 44a4 4dbb df86 683d 9d4b 793d
000002a0: 47d1 cb3d 8144 a9bd 1e04 9cbd c346 57bd
000002b0: db13 fa3c 5586 2cbc 61b0 3ebd be54 3f3d
000002c0: eb0c af3c 8b5c 21bd 1493 a7bd 75a3 70bd
000002d0: 7ab0 a5bd 5389 c0bd b40b 7abd d084 c7bd
000002e0: f57b 013d b277 893d d662 0fbd a137 9bbd
000002f0: 75a1 0bbb 6c00 2dbb 9645 5cbc e9f6 983c
00000300: 73b5 383d 6081 f03c 5208 b2bd 5741 003d
00000310: c43c 23bd 5bef 643d 28f8 843d e4ea 7a3d
00000320: 8419 a93c a7d3 cf3c d20e ab3d 1d36 6c3d
00000330: c0a7 d03d 6158 18bd 9c2b 663d 55fd bb3d
00000340: cd41 663d b8fd 4e3d 961d 663d 4607 a4ba
00000350: ba43 6dbd ff02 3bbd 3bbd 843d 7e1f 86bd
00000360: 3c81 773c 8ef0 493d c0c6 953d 3526 ad3d
00000370: 4cdf 4abd b3db b33c 02e2 ee3a 1367 1dbd
00000380: 67b2 793c afa7 a8bd b6ee 983c 5e62 083d
00000390: 6614 843c 2dd4 0ebd 7e92 b23d 4604 d73c
000003a0: 86f8 763d 9814 a4bb 639d 3d3b 3feb 0cbc
000003b0: a1c3 093c 4322 b73d ae79 18bc 55a3 7c3d
000003c0: 6ce7 92bd 83e7 323d 9fdd 9e3b a74e 243d
000003d0: a2aa 5ebc cada 2e3d 627e 903d 773f af3d
000003e0: 1909 743d 68a1 243d e58e 30bb d397 a9bd
000003f0: e07b 93bd 549a 563d 8293 64bd 6cf2 e23c
-0.08023022 -0.020694338 0.01870084 -0.051869523 -0.07934147 0.03688371 -0.016849523 -0.07606337
0.010634418 -0.07084637 0.06163803 -0.06673151 -0.058767647 -0.053898145 0.016371107 0.07610279
0.027358478 0.06325077 -0.09952649 -0.052140884 0.06705937 0.008094001 0.07738861 -0.06101403
-0.0680958 0.0515374 0.053089097 -0.049572688 -0.004386739 0.08205576 -0.033064004 -0.013295392
-0.015889777 0.026038049 -0.007649875 0.022979515 -0.03972022 0.08293379 -0.097435996 0.04067752
0.07565219 0.026690833 0.015405854 -0.034630667 -0.0052300626 -0.06513749 -0.008345 0.07898232
-0.05208666 -0.046098232 -0.04331387 -0.02088486 -0.016072067 -0.028249413 -0.017797293 0.03421417
0.043861 -0.008705176 -0.009147223 -0.066495836 -0.067051455 -0.08395176 -0.100931875 0.03365162
-0.04136906 -0.07555159 -0.033934444 0.07951162 0.005708897 -0.010874451 0.07425093 0.035765197
-0.08614411 0.019260265 0.038913622 -0.0733035 -0.08999345 -0.0726465 0.0049856566 -0.08077643
-0.055720463 0.017864076 -0.0012527503 0.0631319 -0.038580704 0.020976758 0.0139038805 -0.015175732
-0.024759237 -0.0029025625 -0.070335485 -0.0049002804 0.020015812 0.06384074 0.01031478 0.07825625
-0.016017798 0.03643798 0.08225594 -0.018827988 -0.06267578 0.027201554 0.05118827 0.046895906
0.049306907 0.07932126 -0.015218648 0.070145845 0.029891452 -0.07942686 -0.043794475 0.059524097
0.005977681 -0.035565533 -0.08143661 -0.009263533 0.057021167 0.0938388 -0.032412685 0.03275501
0.027852 0.08726832 0.005975065 0.053801592 -0.07851594 -0.08455485 -0.08748006 0.051318556
0.060843896 -0.046036344 -0.03081518 -0.054926 0.010329413 -0.09696011 -0.08381295 0.040534202
0.047596343 0.088265665 -0.072037265 -0.0032366205 -0.08229482 -0.059008826 0.011442061 -0.0888995
-0.038387403 -0.0045483457 0.0058571487 0.059905402 0.028730398 0.0070509245 -0.02065822 -0.0050761127
0.061395414 0.07151181 -0.053056307 -0.03300161 -0.07861451 0.065378 0.028566679 -0.061430424
-0.05554861 0.054497775 0.03998254 0.04738852 0.05141656 -0.0031378428 0.056769248 0.060863126
0.09952026 -0.08265019 -0.07617973 -0.052557718 0.030527046 -0.010530074 -0.046554927 0.046711676
0.021368464 -0.039394896 -0.0818235 -0.058749635 -0.08090301 -0.094011925 -0.061046317 -0.09742129
0.031612355 0.06712283 -0.035006367 -0.0757897 -0.0021305953 -0.0026397957 -0.013444325 0.018672423
0.04509492 0.029358566 -0.08692993 0.031312313 -0.039852872 0.05589233 0.064926445 0.061259165
0.02064205 0.025369478 0.08352436 0.057668794 0.10188246 -0.03719366 0.056193933 0.091791786
0.056215096 0.050534934 0.05618056 -0.0012514375 -0.057925917 -0.045657154 0.06481405 -0.065489754
0.0151064955 0.049301676 0.07313299 0.08454553 -0.04952936 0.021955347 0.0018225315 -0.038428377
0.015240288 -0.08235108 0.018668514 0.033296935 0.016123008 -0.034870315 0.087193474 0.026247155
0.060295604 -0.005007338 0.002893292 -0.008601009 0.008408458 0.08942082 -0.009306354 0.061679203
-0.071730465 0.043677818 0.0048481966 0.04011407 -0.013590487 0.042689122 0.070553556 0.08557027
0.05957899 0.04019299 -0.002694064 -0.08280911 -0.07201362 0.052393273 -0.055804737 0.027703486

encoder.conv3.nn.0.bias f4 [128]
00000000: 7010 18bd 477f 3c3d 0230 ca3c b0be 3e3d
00000010: 41a1 b43c 4c70 85bd 369c 99bd b848 bf3c
00000020: 9bea 7d3d 26fa 8dbd 5d10 8bbc 52f7 a1bc
00000030: 99d1 5abd a23a 2d3d fe8e 2cbc fec6 38bd
00000040: ca08 0c3d bb13 853d c97b 193c 6ae4 8a3d
00000050: b43b 13bd 3fa7 3abd 123e c53c 7198 75bd
00000060: 3f4f 72bb 5b66 68bd 398d 2c3c 5dac 46bd
00000070: d3e4 ae3d 51cc 66bc 1697 8ebd 34cf 803d
00000080: 182d bdbd 2772 27bd 15ed 863d 5daf 7f3b
00000090: dc57 173d 2166 703d 0dec 00bd 87ae a1bd
000000a0: f67c 4cbd c932 fc3c 022a de3b c06f 86bd
000000b0: 2925 d63d ea87 233d a8a8 273c d171 813d
000000c0: 8203 f1bb f099 c9bc 7e62 d03c 53f0 00bd
000000d0: 7364 4d3d cd1f 86ba 555c ecbc ea62 183d
000000e0: cf5d 15bd 171b 90bd 07e7 c1bd 49de 8f3c
000000f0: 6937 b33d fa66 723d a8fb 85bd 1f2a a43d
00000100: 3bce 9ebc 7b45 b33b 8dab 8b3d 3479 90bc
00000110: b6d2 46bd a565 bb3d de8e 37bd a29d 9fbc
00000120: 429b 47bc 7c7d 61bd 33c8 eabb 2929 aebc
00000130: 5753 63bd 24c2 943d 7856 07bd dd12 253d
00000140: 24fa cd3c c62a ef3c 8fc9 efbc 078c 52bd
00000150: 464a 51bd 12f4 c2bd c275 7e3d 1010 60bc
00000160: 3d24 243c 0fcb 59bd fd50 a23d 7906 35bd
00000170: c5c1 7cbd 92ea 893d 3993 a5bd 48e8 b5bd
00000180: 8f2b b93c 9017 42bd 68d7 8e3d 9b7d d2bc
00000190: 6310 d03c 5c95 8a3d cbdb 903d 5821 97bc
000001a0: c46c c0bd 63d9 c13c 21b6 0cbc 730f 52bd
000001b0: 3cab 233c f899 85bd 40e4 4d3d 819b 87bc
000001c0: 85d7 b1bc ba53 933c b918 0dbd f5ad 15bd
000001d0: d8a6 bf3c 6546 1abd a41e 39bd b2cb 58bd
000001e0: 95b5 7e3d 96a8 73bd 9644 5f3d f0c4 a8bc
000001f0: 5ea0 a13d a1b0 6bbc 28d5 bbbc b4af dc3c
-0.03712505 0.04601982 0.024681095 0.046568573 0.022049548 -0.065155596 -0.07500498 0.023350105
0.061991315 -0.06932478 -0.016975576 -0.019771252 -0.053422544 0.042292245 -0.010532139 -0.04511165
0.03418807 0.06497904 0.009367892 0.06781848 -0.03594561 -0.045569655 0.024077449 -0.059959833
-0.0036973504 -0.05673824 0.010531717 -0.048504222 0.085397385 -0.014086799 -0.06962411 0.06289521
-0.092371166 -0.04088035 0.065881886 0.0039014437 0.036949024 0.058691148 -0.031475116 -0.078946166
-0.04992386 0.030785935 0.00677991 -0.06564283 0.104563065 0.03992454 0.010233082 0.06320537
-0.0073551545 -0.024609536 0.02543759 -0.03147919 0.050144624 -0.0010232866 -0.028852621 0.037203707
-0.036466416 -0.07036417 -0.09467893 0.017562049 0.08750803 0.059180237 -0.0654214 0.080158465
-0.019385448 0.005470929 0.0681983 -0.01763592 -0.048540793 0.091502465 -0.044813983 -0.019484345
-0.012183012 -0.05505131 -0.007164979 -0.021259861 -0.0554994 0.07263592 -0.033041447 0.040301193
0.02514369 0.0291952 -0.029270915 -0.05140307 -0.051096223 -0.09519209 0.06212402 -0.013675705
0.0100184055 -0.053172167 0.079256035 -0.044195626 -0.06170823 0.06734194 -0.08084721 -0.08882195
0.022603778 -0.047385752 0.06974679 -0.025694659 0.025398439 0.06766769 0.07073172 -0.018448517
-0.093957454 0.023663228 -0.008588345 -0.051284265 0.009989556 -0.06523508 0.050266504 -0.016553642
-0.021709213 0.01798426 -0.034447405 -0.03654285 0.023394987 -0.03766479 -0.045195237 -0.052928634
0.06218489 -0.059486948 0.054508768 -0.02060172 0.07891916 -0.014385373 -0.02292879 0.02693925

encoder.conv3.nn.1.weight f4 [128]
00000000: c3be 7f3f f8b9 7b3f 7418 803f 8e63 803f
00000010: ca82 7f3f 1fdf 7d3f 5515 7d3f 7b48 813f
00000020: 006e 803f beba 803f ee27 833f 5810 893f
00000030: ac7c 843f af58 7c3f 79e8 763f 247f 7e3f
00000040: 1118 7b3f 036c 7e3f b5c6 7e3f ebe7 7c3f
00000050: 6fb5 813f 9374 7d3f 4926 813f b80c 803f
00000060: b9d7 7b3f 3e49 803f 968d 7d3f ba87 7a3f
00000070: 99bd 7d3f 9f4c 813f 18b1 793f 1027 7f3f
00000080: 059c 803f 6ac7 803f 26a7 7f3f 0457 7b3f
00000090: fe83 7c3f 318c 803f 730d 803f 4484 813f
000000a0: 0e27 7d3f 6153 823f a90c 7f3f 6b88 833f
000000b0: 791e 803f a40d 7e3f 73fa 803f 6160 803f
000000c0: 0526 7e3f 97f7 833f 8ef2 823f 1bf2 7c3f
000000d0: 33b8 7d3f 4601 783f 68a1 7e3f a138 813f
000000e0: 99e9 803f cc24 813f fff1 7f3f 9d70 7e3f
000000f0: 0613 7c3f 9e0f 7f3f 6f30 7e3f c075 803f
00000100: 9306 803f 5115 803f c3f1 7f3f f115 7d3f
00000110: 9783 7f3f fd01 7e3f 99c3 7f3f 0492 803f
00000120: 2ded 7f3f 9738 803f 3369 7e3f 9ae6 803f
00000130: b681 803f 06a4 7e3f d961 813f 948d 7c3f
00000140: c56f 803f bc5d 7e3f 6770 873f edab 7b3f
00000150: 941f 813f 29dc 7f3f 6e58 7d3f bcf9 803f
00000160: 68bb 7d3f a24f 803f bef4 823f 69b7 7c3f
00000170: 6fd7 833f 1363 7c3f 7d4e 7f3f 38d7 803f
00000180: 727a 883f b6e8 803f db6e 803f ed84 743f
00000190: 2055 813f 1f32 7e3f 0d52 803f 26ec 813f
000001a0: f6ab 833f 553e 803f f5fa 7f3f 9d95 7a3f
000001b0: a9a4 803f 5f4d 7b3f 489e 7f3f 0b54 7b3f
000001c0: 3eae 803f 855f 803f 72f8 7e3f 96a2 813f
000001d0: df59 7c3f ef44 813f a8d7 7b3f ae25 7f3f
000001e0: f407 793f d6bc 7e3f d06d 823f f476 843f
000001f0: ff47 803f a2d5 7d3f 2245 7d3f 052e 813f
0.99900454 0.9833064 1.0007463 1.0030382 0.99808943 0.9916858 0.98860675 1.0100244
1.0033569 1.0056989 1.024656 1.0708113 1.0350547 0.9857282 0.96448475 0.9941275
0.980836 0.9938356 0.9952195 0.9879138 1.0133494 0.99006003 1.0089809 1.0003881
0.9837604 1.0022352 0.9904417 0.9786335 0.9911743 1.0101508 0.9753585 0.9966898
1.0047613 1.0060856 0.99864423 0.9817965 0.98638904 1.0042783 1.0004104 1.0118489
0.9888772 1.0181695 0.9962869 1.0276006 1.00093 0.99239564 1.0076431 1.0029413
0.99276763 1.0309933 1.0230272 0.98806924 0.9910919 0.96876943 0.99465036 1.0095407
1.0071288 1.0089355 0.9997863 0.99390584 0.9846653 0.99633205 0.99292654 1.0035934
1.0002006 1.0006505 0.99978274 0.98861605 0.99810165 0.99221784 0.99907833 1.004456
0.99971277 1.001727 0.9937927 1.0070374 1.0039585 0.9946903 1.0107986 0.9865353
1.0034109 0.9936178 1.0581177 0.9830921 1.0087762 0.9994531 0.9896306 1.0076213
0.99114084 1.0024302 1.0230939 0.9871736 1.030012 0.98588675 0.9972914 1.006568
1.0662367 1.0071018 1.003383 0.9551533 1.0104103 0.9929523 1.002504 1.0150192
1.0286853 1.0019022 0.99992305 0.9788454 1.005025 0.98164934 0.99850893 0.98175114
1.0053174 1.002915 0.9959785 1.0127742 0.9857463 1.0099162 0.9837594 0.9966687
0.9727776 0.9950689 1.0189762 1.0348802 1.0021971 0.991541 0.98933613 1.0092169

encoder.conv3.nn.1.bias f4 [128]
00000000: 647e 973d 6fcd 03bd fe3f 703d 4fa6 d43b
00000010: 1a88 943c 2305 7a3b bb8c 173d 8b2a f43c
00000020: 303c 80bc 5950 d13c 9e9c 6d3c 46a3 083e
00000030: 781c 8e3d 49c0 c63c df20 423c d47c a7bc
00000040: 97a8 9cbc e739 15bd 704c ec3c 5a81 5dbc
00000050: 2e38 1b3d 3e28 c43b fdac 153e 4c6f 623d
00000060: a95f 9fbc 64af 323d 2be7 813d 9a99 723b
00000070: 7620 dabb fa11 c13b 0873 85bc da96 17bc
00000080: e0fd ee3b 1ac4 203d 88e1 5b3d aeec 81bc
00000090: 4f1d 6dbb 0c35 a4bc cd6e 673c 8db0 a93c
000000a0: 69bb fc3c 058c 943d 989d 073d e5e8 623c
000000b0: dbd5 a23c 4c64 553b e437 773d c7bc 9dbc
000000c0: 096a 24bb 19e4 c23d b927 3a3c 0710 3e3d
000000d0: 0072 953d 4974 5a3d f302 04bc ca45 26bc
000000e0: 67c2 37bc f536 df3c 1a76 a73c dfee 883c
000000f0: 0626 d4bc fd00 043d 1333 903c 117c 263d
00000100: 95d4 833d bdac 693d 242f 683d b69d ac3b
00000110: 55f7 5f3c 3d01 6b3c 3e9a 973b c29e aabc
00000120: f038 a73c 4f27 283b 5a91 71bc 365c 903b
00000130: e553 0f3b 0638 883d 5eef 36bc 4167 fbbc
00000140: 8199 7c3d 27c4 cf3b e186 8c3d 45b1 50bc
00000150: d01d bc3d 1288 c63d 98f3 133d 09d4 453c
00000160: 6966 84b9 7950 36bc 91c5 e53c b014 013b
00000170: f7f8 6e3d 634d 8d3d a367 5a3b 0480 bd3d
00000180: 7aa7 373e eae9 873d 4843 153d 8969 b23c
00000190: 0b29 453d d3d4 ea3b 4d40 b93c dcb2 e93d
000001a0: 492c 1d3b c4d7 053d 4e3d 0b3e 2f53 633b
000001b0: 47f4 28bb 571c 24bc e319 9f3c 378d 9d3b
000001c0: 95c6 8b3d c9c5 833d 4b1a 30bc 0b9f c83c
000001d0: 8365 dd3c 87c4 203d f2e5 253c 1e28 e8bb
000001e0: 7bf3 5aba aab2 963d 9142 023e b1f0 103e
000001f0: 9aee dcbc abc8 dfbc 508a df3c 8773 853d
0.07397154 -0.03217834 0.058654778 0.006489552 0.018131305 0.0038150034 0.036999445 0.029805442
-0.0156537 0.025551008 0.0145026725 0.13343534 0.06939024 0.02426161 0.011848657 -0.020445265
-0.019123359 -0.036432173 0.028845042 -0.013519609 0.037895374 0.0059862426 0.14616771 0.055281922
-0.019454794 0.043624297 0.0634292 0.0037017823 -0.0066567017 0.0058920356 -0.016290203 -0.009252274
0.007293448 0.039249517 0.05368188 -0.015859928 -0.00361808 -0.020044826 0.014125538 0.020714069
0.030851083 0.07253269 0.033109277 0.013849472 0.019877365 0.0032561002 0.060356036 -0.019255055
-0.0025087616 0.095161624 0.01136201 0.046402004 0.072971344 0.053333554 -0.008057344 -0.010148475
-0.011215783 0.027247885 0.020442057 0.016715465 -0.025897037 0.032227505 0.01760248 0.040645663
0.06437031 0.0570495 0.05668558 0.005267824 0.013669808 0.014343557 0.0046265414 -0.020827655
0.020412892 0.0025658195 -0.014744127 0.0044055237 0.0021870073 0.066513106 -0.011165468 -0.030688884
0.06166983 0.006340522 0.068616636 -0.012737577 0.09185374 0.09693922 0.03612098 0.012074479
-0.00025253303 -0.011127585 0.028048309 0.0019696169 0.0583429 0.06899526 0.0033325932 0.09252933
0.17934981 0.066364124 0.036441118 0.021778839 0.048134845 0.007166484 0.022613669 0.11411068
0.0023982695 0.032676473 0.13597605 0.0034687032 -0.0025780366 -0.010016522 0.019421523 0.004808094
0.06824986 0.06434209 -0.010748456 0.0244899 0.027025944 0.039249923 0.010125624 -0.0070848605
-0.00083523215 0.07358296 0.12720706 0.14154316 -0.026969243 -0.027317366 0.027287632 0.06516176

encoder.conv3.nn.1.running_mean f4 [128]
00000000: f8c4 9bbe 324c 47be 06d4 ffbd 0a0f 72be
00000010: aed0 16be 7cf0 e7bd 79e3 d8bc eb36 5d3e
00000020: df83 9a3e 1345 8c3e f1dd 49be 274c 86be
00000030: ffb1 abbd 1cd5 d1bd 4c40 ffbc 042b 74be
00000040: 7d28 da3d 16ce 0c3e 2627 c8be 510c bc3c
00000050: 1456 bdbd 481e 99be d862 03be 488b 35be
00000060: 9275 243e f8da 80be 8604 7f3e d460 7ebd
00000070: 9048 74be 2ab2 0e3e 1cc3 90be 45bc 9a3e
00000080: 1886 553e 9c52 c63d c048 e33d 9a7a 5d3c
00000090: d9d9 213d 2679 373e 36c5 66be 1990 c8be
000000a0: 225b c6bd 203f ccbe 36dd 56be d20c 423e
000000b0: c155 263e f098 263e 910d 01be 828d 413e
000000c0: 678d 83bd 8ffa 57be 3265 afbd f8de 3bbe
000000d0: 2f59 65bd b722 4bbe 0e12 ce3b 0a2d a8bc
000000e0: 819c 1f3f af52 7a3a 012d 46bb 628a fe3d
000000f0: 2672 713c c7b4 053d 2709 61bd 3557 0ebd
00000100: b44a 303d 0159 a3be 06a2 36be 7b67 9a3d
00000110: dd6b babd df01 953d b841 c63d 0256 8a3e
00000120: bd83 993c a4af 2e3e ce24 adbd 2628 4fbe
00000130: 8367 b8bd c4dd 0b3e ad73 81be c2b9 643e
00000140: af9b 8139 71fd 033e b436 d5be 53e8 073e
00000150: a51d ea3d 0f5b d2bc 3634 72be 7f49 1bbe
00000160: 484f 433e 9472 e23d a70f 753e 4a36 a63d
00000170: 88ad d8be d547 17bd 3b3f d1bd 33b1 75bd
00000180: 9b06 8ebe bb91 1a3e 176d 9fbe 7729 04be
00000190: 3f0f 04be 11e7 013c 3fdd 8bbe 874f eabd
000001a0: 5cd7 02bf 9249 52be d08b 73bd 5958 cdbd
000001b0: 47e6 243e 91b2 95bc 8bf7 063c 21c9 643e
000001c0: 8b37 393e 05a9 b73d 5778 41bd ab44 2ebe
000001d0: 6d61 cf3d 3b29 b63c 69ad 93bd 164c 6bbe
000001e0: d394 c93e 3b6c 9cbe 924b bfbe a0d1 ddbd
000001f0: 99e8 e03d 5379 f5bd 2c09 793e 3de2 493e
-0.30423713 -0.1946266 -0.12491612 -0.2363855 -0.14728042 -0.11325166 -0.026475655 0.21602981
0.30178735 0.2739645 -0.1971357 -0.26229975 -0.083835594 -0.102457255 -0.031158589 -0.23844534
0.10652254 0.1375049 -0.39092368 0.022955092 -0.09244934 -0.29905915 -0.12830675 -0.17728913
0.16060475 -0.2516706 0.2490407 -0.06210406 -0.23855805 0.13935152 -0.28273857 0.30221763
0.20851934 0.09683725 0.1109786 0.013518 0.039514396 0.17917308 -0.22536168 -0.39172438
-0.09685351 -0.3989191 -0.20982823 0.18950203 0.1624365 0.16269279 -0.12602831 0.18901637
-0.06423455 -0.21091674 -0.08564223 -0.18346775 -0.055993255 -0.19837461 0.0062887734 -0.020529289
0.6234818 0.0009549064 -0.0030239227 0.12428738 0.014736688 0.032643106 -0.05494037 -0.034751136
0.043039992 -0.31903842 -0.17835245 0.075392686 -0.091026045 0.072757475 0.096805036 0.27018744
0.018739576 0.17059189 -0.084542856 -0.20230159 -0.09004118 0.13658816 -0.25283566 0.22336486
0.0002472079 0.12889649 -0.41643298 0.13272218 0.114314355 -0.025678186 -0.2365273 -0.15164755
0.19073212 0.1105701 0.23931752 0.081158236 -0.42319894 -0.03693374 -0.102171384 -0.059983443
-0.27739415 0.15094654 -0.31137916 -0.12906443 -0.12896441 0.007928626 -0.27317235 -0.1144095
-0.5110986 -0.20535877 -0.059459507 -0.100266166 0.16103469 -0.018273624 0.00823773 0.2234235
0.18087594 0.08967785 -0.047233906 -0.17018382 0.10126004 0.022236457 -0.0721081 -0.22978243
0.39371356 -0.30551323 -0.37362343 -0.108309984 0.109818645 -0.119860314 0.24319905 0.1971521

encoder.conv3.nn.1.running_var f4 [128]
00000000: 6510 113e 23d0 db3d 65ed 113e cc3c e63d
00000010: 6b2c 263e f90f 0c3e 41ac e63d d4e5 883e
00000020: 5eb8 f53d ecae 543e 76b0 be3d 8b75 b93d
00000030: 57fa f63d 7343 a73d 0020 003e f828 b93d
00000040: d202 6a3e dae0 c33d 2bcd 603e 0ad9 073e
00000050: 69d6 903e b8ac 853e b808 093e 9d61 c93d
00000060: d5f8 693e 03f0 083e 5f7a e03d c695 2f3e
00000070: f0f4 0e3e b188 e73d b523 7c3e b1de 103e
00000080: 69f2 083e e6f3 e13d 983b 5e3e 8f7c 063e
00000090: 833e 453e fc2c e93d b764 b33e 71fa 0f3e
000000a0: e089 793d d555 193e 5ca2 f03d a271 673d
000000b0: a4ca 0e3e b3ad 003e 3216 3f3e d0cc a83d
000000c0: 4201 8e3e 0642 0b3e fbb9 9d3e cb34 623e
000000d0: cc2c f33d 682c d53d 19ec 9c3d fa0c c13d
000000e0: 8739 7a3e 75ae be3d e381 2b3e a575 4a3e
000000f0: d736 033e be8b 353e 1363 e63e de75 e23d
00000100: b7a2 0c3e 8347 e63d b286 da3d 84a9 213e
00000110: 7603 1f3e a8b9 3d3e 6de9 4b3e 194b 363e
00000120: b9fd 623e 418c ed3d 7ece 5d3e bf1e 753e
00000130: b05a f13d 251a 5d3e f715 f13d 1bc7 e13d
00000140: 83a3 af3d 2c27 ab3e d0ea 2f3e 2ee7 833e
00000150: bbe3 fa3d 6061 bf3d 789f 523e 8824 c13d
00000160: 252d 4f3e 6a8b 8c3d 1b36 503d 09a5 973d
00000170: 8eb9 0c3e 4305 163e fbcc 493e 8865 af3d
00000180: e999 963d e827 223e 45d6 853e 9f80 4f3d
00000190: 0f96 273e 73e0 3e3e 915d a93d d620 0a3e
000001a0: 362f 333e dcc7 193e cdd1 583e e78b dc3d
000001b0: 5f54 253e 2390 bb3d 558c dc3d c7bb f63d
000001c0: f20a 4b3e 6271 db3d cac0 353e 721f f03d
000001d0: 732f ca3d ff08 863d 618b 1a3e 3b4e a83e
000001e0: 99af 173e 09cb 0d3e 7790 973e b9ac c43d
000001f0: 9d8c 813d 8fd5 0f3e ac31 3c3e 4d66 1a3e
0.1416641 0.10733058 0.14250715 0.11242065 0.16227882 0.13677968 0.112633236 0.26737845
0.11998056 0.20769852 0.09311001 0.09055623 0.12059467 0.08167162 0.12512207 0.09041017
0.22852638 0.095643714 0.21953265 0.13266388 0.28288582 0.26108336 0.13382232 0.098330714
0.22848828 0.13372807 0.109608404 0.17146978 0.13960624 0.11305369 0.24622996 0.1414745
0.13373722 0.11032848 0.2170242 0.13133453 0.19262128 0.11385533 0.35037777 0.1406038
0.060922503 0.14974149 0.117497176 0.056504853 0.13944489 0.12566261 0.1866081 0.0824219
0.27735335 0.13599405 0.30805954 0.22090451 0.11873779 0.104088604 0.076622196 0.09426303
0.24436007 0.09310619 0.16748767 0.1977144 0.12813888 0.17729089 0.44997463 0.11057638
0.13733946 0.112441085 0.10670222 0.15787321 0.15528664 0.18527853 0.19913264 0.17802085
0.221671 0.11599017 0.21660802 0.2393751 0.117848754 0.21592005 0.117717676 0.110243045
0.08576109 0.33428323 0.17179418 0.25762314 0.122504674 0.09344745 0.20568645 0.09430796
0.20232065 0.068625286 0.05083285 0.07404525 0.13742658 0.14650445 0.197071 0.085642874
0.07353575 0.15835536 0.26140037 0.050659772 0.16365837 0.18640308 0.082697995 0.13489088
0.17498478 0.15017647 0.21173783 0.10768872 0.16145466 0.09158351 0.10768954 0.120475344
0.19828394 0.107149854 0.17749324 0.11724748 0.098723315 0.065446846 0.15092231 0.32872185
0.14813079 0.13846983 0.29602405 0.09603257 0.06325648 0.1404631 0.18378323 0.15078087
