roof_segmentation_dgcnn_best.pth (torch, 377692 bytes, 42 tensors)

encoder.conv1.nn.0.weight f4 [64, 12]
000000 74 27 17 be f6 66 8f 3e 26 e3 aa 3e 05 27 c1 3d
       -0.14761144 0.2800824 0.33376426 0.094312705
000010 49 1b 83 be 30 ae b1 3e a1 ff 4e be d3 76 8a 3e
       -0.25606754 0.34703207 -0.20214702 0.2704378
000020 42 ce 86 be ec 86 a1 3e db 94 7d be 4b 59 59 3e
       -0.26329237 0.3154825 -0.24763815 0.21225469
000030 0a 2a 52 3e 4b 28 20 3e 9f 6a ec 3d c6 d2 c3 3d
       0.20523849 0.1564037 0.11543774 0.09561686
000040 9d 0a f0 3d 03 3e b6 be 27 31 af bc ff 22 a0 3e
       0.11720774 -0.35594186 -0.021385742 0.312767
000050 89 75 88 be 71 bf da 3d 98 bf e0 3d 1a d5 8e bb
       -0.26652172 0.10681046 0.109740436 -0.0043589
000060 01 f1 32 3d c2 16 a7 3e 98 04 b6 bd 45 e0 2c be
       0.04368687 0.3263455 -0.08887595 -0.16882427
000070 a1 a1 a7 bc 6a e6 8a be b7 73 aa bd c2 be a4 3e
       -0.020462813 -0.27128917 -0.08322852 0.32176787
000080 3e e0 a4 3d 08 f3 dd bd 02 cf 0c be 68 77 af bd
       0.08050583 -0.1083737 -0.13750842 -0.08567697
000090 7e a5 8e be fd 18 1e 3e da 7f 9d be a1 ca 62 be
       -0.27860636 0.1543922 -0.30761606 -0.2214761
0000a0 20 13 a5 3d f6 77 97 3e 42 26 bc 3d f8 b1 bc bd
       0.080602884 0.2958371 0.091869846 -0.09213632
0000b0 ce ef 52 be 14 eb 00 3e 02 f2 7e 3e 58 73 69 3e
       -0.2059929 0.12589675 0.24897006 0.22797906
0000c0 35 cb 09 3e cb d2 16 3d 38 c4 d4 bc 38 d6 86 3d
       0.13456424 0.03682212 -0.02597247 0.06583828
0000d0 4a 9a 17 be b4 a7 71 3e 28 53 46 3e e0 24 90 3e
       -0.1480495 0.2359913 0.19367659 0.28153133
0000e0 ce 13 89 3e 12 ee 85 3e 99 bc ce bd 7c 53 3f be
       0.26772922 0.26158196 -0.10094566 -0.1868419
0000f0 60 0e d8 3d d7 32 63 bd b8 6c ad 3d ae 1b 15 3e
       0.10549617 -0.055468407 0.08468002 0.1456134
000100 47 87 92 be 85 31 0b 3e 03 d0 40 3e 09 c4 b3 3d
       -0.28618833 0.13593109 0.1882935 0.08777625
000110 9b 62 1e bb b7 1e 56 be 1a 28 81 3c 40 40 c3 3d
       -0.002416766 -0.20910154 0.015766192 0.09533739
000120 2f 7d c0 bd dc 7a a8 3c e2 b6 5a 3e 16 b4 a6 3c
       -0.09398877 0.020566396 0.21358827 0.020349544
000130 05 52 91 3e be fc 67 be 21 38 40 be fb 27 3a be
       0.28382888 -0.22655007 -0.18771411 -0.18179314
000140 ed bd 63 be 54 72 a6 be 2c 99 47 3e 4b af b7 bd
       -0.2224042 -0.325091 0.19492024 -0.08968981
000150 0c f9 a9 be f7 35 db 3d 73 25 df 3d df 7e 41 be
       -0.3319782 0.10703652 0.10895815 -0.18896054
000160 69 9a 4c bc d6 8d cd 3d a5 b2 18 bd 61 81 e5 3d
       -0.012487986 0.10036819 -0.037279744 0.11206318
000170 98 2a e5 3b c4 78 d7 bd e7 4b ce bd a9 2c 8b 3d
       0.006993603 -0.10521081 -0.10073071 0.067956276
000180 13 f3 b0 bc ed 9b 41 be 03 39 3a be 26 b5 64 3e
       -0.021600282 -0.18907137 -0.1818581 0.22334728
000190 3c 48 32 3e 2f 76 cf bb 1b 53 0d bd 39 89 0f bd
       0.17410368 -0.0063312273 -0.034503084 -0.035042975
0001a0 a2 74 6f 3e b4 2b 05 be 31 bb 75 be 34 73 80 3e
       0.23384336 -0.13004953 -0.23997189 0.25087893
0001b0 66 5b 16 3e 39 fc 79 3e f6 a0 b0 bd df 3e 35 be
       0.14683303 0.24412622 -0.08624451 -0.17699765
0001c0 e5 2f 4d 3e f9 d1 4f 3e 4c c2 fa 3d 03 c5 a9 3d
       0.20037802 0.20294942 0.122440904 0.0828953
0001d0 00 38 87 3e 66 d5 0b be d9 a3 37 3d ab 2a 90 3e
       0.26409912 -0.13655624 0.04483399 0.28157553
0001e0 0a c1 5d be 8a 16 d7 3d 39 b9 38 be 84 56 01 3e
       -0.2165567 0.10502346 -0.18039407 0.1263066
0001f0 e1 a2 81 3e a3 99 10 3c 9a ba a6 3c 44 4a 5f be
       0.2531958 0.008825692 0.02035265 -0.21805674
000200 24 1a fe 3d 93 5d 2d 3d dd e6 a5 bc 52 af 94 3e
       0.1240733 0.042325567 -0.020251686 0.2904001
000210 4b cc 60 be 53 d2 25 3e 7e c8 e4 3d 53 55 ee bc
       -0.21952932 0.16193514 0.11171053 -0.02909342
000220 92 c7 95 be fa 4b 40 3d ab 33 8f 3e ab f5 33 3e
       -0.29253823 0.046947457 0.27969107 0.17574184
000230 ab 14 2f be 0b 0f 33 3d d0 b9 76 bc 37 69 89 be
       -0.17097728 0.043715518 -0.01505895 -0.26838085
000240 e3 ec 08 be e7 bf 0a 3e 1e 53 54 3e a6 5b 7e 3e
       -0.13371615 0.13549767 0.20734832 0.24839649
000250 4b 52 32 3e 75 f1 76 3e 33 26 fe 3d cb dd fe bd
       0.17414205 0.24115546 0.1240963 -0.124446474
000260 35 22 aa bb fa f9 81 be 90 03 36 bd fe 95 ae 3d
       -0.005192066 -0.2538603 -0.04443699 0.085247025
000270 df 5e 09 3e f1 57 b7 3d 3c 94 54 be 9c a4 75 be
       0.13415097 0.0895232 -0.20759672 -0.23988575
000280 6f 36 41 3e 64 73 89 bc ac b8 96 be fa 5b 29 3e
       0.18868421 -0.016778655 -0.29437768 0.16538993
000290 14 86 62 be e3 66 55 3e f6 d0 57 3e 09 63 94 be
       -0.22121459 0.2084003 0.21075806 -0.28981808
0002a0 0b 58 9e 3d 4a bb 1e 3e a1 d5 33 bd 90 20 a7 3d
       0.077316366 0.15501133 -0.043904904 0.08160508
0002b0 1e 0c 92 be 11 14 4c bd 57 74 d5 3e 34 91 82 3e
       -0.2852487 -0.049823824 0.41690323 0.25501406
0002c0 65 e1 36 3e bf 75 1c 3e b9 4e 88 bd c0 d4 34 3e
       0.17859419 0.15279292 -0.0665564 0.17659283
0002d0 f1 74 70 be 33 bf 78 bb 18 de 96 be 50 29 a8 3d
       -0.2348211 -0.003795576 -0.2946632 0.08211005
0002e0 7d 56 2d bd 2e 07 49 bd 09 72 4f 3e 09 49 86 3c
       -0.04231881 -0.049079113 0.20258345 0.016392248
0002f0 9b 3a bf 3d 32 76 51 be 7d 53 7c be 4f 97 c9 bd
       0.0933735 -0.20455244 -0.24641223 -0.09843313
000300 46 f8 60 3d 63 7d 10 be a8 2c 9d 3d 54 bb 53 be
       0.054924272 -0.14110331 0.07674533 -0.20676929
000310 c6 97 ea 3d 38 95 80 bd 30 be 49 3b a7 25 51 bd
       0.1145473 -0.06278461 0.0030783527 -0.0510613
000320 74 11 a3 3d 0a 1e a4 3d 7f cb 12 be bb d1 ca 3c
       0.07962313 0.08013542 -0.1433544 0.02475821
000330 75 34 f7 bc 79 ff 09 3e 99 0a 75 3e 15 76 36 be
       -0.03017638 0.13476361 0.23929824 -0.17818482
000340 5c 6d 99 3e 80 9d 79 3e 45 2b 12 bd 4b ee 41 3e
       0.29966247 0.24376488 -0.035685796 0.18938558
000350 ef 2f 8f 3d ab bd bf bc 59 0c 2d 3e 9b a3 06 3e
       0.069915645 -0.02340587 0.16899242 0.13148348
000360 ae 67 46 be 65 78 3f 3e 53 7a 48 be ef 4a 88 bd
       -0.19375488 0.1869827 -0.19577913 -0.066549174
000370 d6 ae 59 3e 69 64 2d 3e c2 45 fc bd 4a c4 cb bd
       0.21258101 0.16932835 -0.12317993 -0.099495485
000380 bf 5c 91 bb 4b 73 6a 3d 6f 07 cb 3d bf c6 9f 3d
       -0.004436105 0.05723886 0.09913527 0.0780158
000390 31 1e 88 be 48 f9 00 be 84 cc 53 3e cc b6 6a be
       -0.26585534 -0.12595093 0.20683485 -0.22921294
0003a0 a1 50 83 3e 81 ff 96 3c c9 aa 2a 3e 7d ec de 3d
       0.25647452 0.01843238 0.16666712 0.1088495
0003b0 5e e1 1a bc 70 0f 16 be 60 33 3f 3e 23 9b 74 3e
       -0.009453146 -0.14654326 0.18671942 0.23887305
0003c0 8e 7e 0b be 25 bd 22 3e 3b 6c e2 bd 1d a0 27 bc
       -0.13622496 0.15892465 -0.110557996 -0.010231045
0003d0 1e 53 fd bd b4 6f 42 be af 83 1d 3c 09 37 28 3e
       -0.12369369 -0.18987924 0.009613915 0.16427244
0003e0 ad 77 b8 bd 54 9f 88 3e 70 3b f4 3c cd 98 47 be
       -0.09007201 0.26684058 0.029813498 -0.19491883
0003f0 2d 43 78 3e 8d 5d 7a ba 15 fe 2a be ef 23 97 3e
       0.24244376 -0.00095506833 -0.16698487 0.29519603

encoder.conv1.nn.0.bias f4 [64]
000000 f8 c9 ab 3d 7f 7b 28 be 06 10 e9 3c a6 1b 87 be
       0.08388132 -0.1645336 0.028450023 -0.26388282
000010 c8 a6 e5 bc 51 38 d6 3d a6 e9 32 be 9e 7a 35 be
       -0.028033629 0.1045996 -0.17471942 -0.17722556
000020 16 86 27 3e 7d 3f 40 be 5c a5 42 3e e1 39 8f 3e
       0.16359743 -0.18774219 0.19008392 0.27973846
000030 59 e4 2b be 6f ec e4 3c ed dd 66 3e 7d aa 3e be
       -0.16786326 0.027944772 0.22545595 -0.18619724
000040 cc f3 31 3e 5d f8 02 3e e1 d1 ed bd 23 da 84 be
       0.17378157 0.12790056 -0.11612297 -0.25947675
000050 33 55 53 3e d3 86 0c be 7e a5 85 3d 30 59 69 3e
       0.2063797 -0.13723306 0.06525706 0.22787929
000060 4f 16 91 be 07 04 3b 3e c3 16 46 be 55 81 7f 3e
       -0.28337333 0.18263255 -0.1934462 0.2495168
000070 5f 97 cb 3d f2 c9 06 be d7 c6 63 bd fa 02 9b 3d
       0.09940981 -0.13162974 -0.05560955 0.07568927
000080 bc 93 06 bc a2 e9 12 bc 6d f1 85 bc ab 5b 3a 3e
       -0.008213934 -0.008966835 -0.016350472 0.18199031
000090 5a 69 11 3d f3 d8 7e 3a 28 eb 03 3e 7c f2 83 bc
       0.03550086 0.0009721659 0.12882674 -0.016106836
0000a0 56 0d 49 3e 3b 4d 3e be 50 73 79 be 79 1a 20 be
       0.19633994 -0.18584149 -0.24360394 -0.15635099
0000b0 5b 07 94 3b 1e c4 7c 3e f7 0b 65 3d 38 41 83 3e
       0.0045174784 0.24684188 0.055919614 0.25635695
0000c0 c5 6b 7f 3e 0d 29 27 bd 31 ea a9 3d 19 b4 95 be
       0.24943455 -0.040810633 0.082966216 -0.29238966
0000d0 19 4a d7 bb b4 96 1c 3e 5e 70 91 3e 40 a8 2a be
       -0.0065701124 0.15291864 0.28406042 -0.16665745
0000e0 b8 d4 f3 bd b8 83 88 3e 62 16 f7 3d 44 16 1f bd
       -0.11905807 0.26662993 0.12064816 -0.038839594
0000f0 0d bf e2 bd 7e a8 38 3e e9 79 90 3e ba 04 3f 3e
       -0.11071596 0.18033025 0.2821801 0.18654147

encoder.conv1.nn.1.weight f4 [64]
000000 1e 38 88 3f 3f 9b 71 3f ef 7d 7d 3f 50 2b 78 3f
       1.0642126 0.9437751 0.99020284 0.9694109
000010 5c 98 73 3f e1 6a 88 3f 16 cf 6c 3f 6e 22 77 3f
       0.95154357 1.0657617 0.9250349 0.9653691
000020 4c c4 83 3f f6 29 7c 3f 1c 15 81 3f a4 ce 83 3f
       1.029428 0.9850153 1.0084567 1.0297437
000030 7b 28 70 3f 3c 5e 75 3f 7e 10 7c 3f cb 06 83 3f
       0.9381177 0.95846915 0.98462665 1.0236448
000040 f1 50 81 3f fe 24 77 3f 2c 50 77 3f a2 ca 73 3f
       1.0102826 0.9654082 0.9660671 0.9523107
000050 42 69 79 3f 23 cb 7e 3f d4 c2 83 3f e8 0b 88 3f
       0.97426236 0.9952871 1.0293832 1.0628633
000060 8c 28 85 3f 04 ed 6f 3f 90 e0 84 3f fc ab 75 3f
       1.0402999 0.9372103 1.0381031 0.9596555
000070 d3 85 82 3f 96 ed 80 3f 00 8b 85 3f 1c 12 74 3f
       1.019709 1.0072505 1.0433044 0.9534013
000080 3e f1 88 3f 41 6a 6c 3f 20 99 72 3f 28 6a 7c 3f
       1.0698621 0.9234963 0.947649 0.9859948
000090 20 03 80 3f da 05 75 3f 68 98 83 3f ab 22 80 3f
       1.0000954 0.95712054 1.0280886 1.001058
0000a0 8d e5 71 3f 70 0b 8a 3f 11 8f 84 3f 65 cd 81 3f
       0.9449089 1.078474 1.035616 1.0140806
0000b0 e2 86 87 3f e1 83 80 3f 10 1c 76 3f a6 5b 78 3f
       1.0588038 1.0040246 0.9613657 0.97014844
0000c0 e7 74 80 3f d0 90 7f 3f fb ab 88 3f 1d 79 89 3f
       1.0035676 0.9983034 1.0677484 1.0740086
0000d0 78 5f 89 3f 65 3d 86 3f 9a 16 8c 3f 11 ce 76 3f
       1.073226 1.0487486 1.0944397 0.9640818
0000e0 a5 6b 7c 3f c1 51 72 3f 42 60 87 3f 1a f5 81 3f
       0.9860175 0.94655997 1.057625 1.0152924
0000f0 a3 75 80 3f f2 5e 85 3f ea f6 80 3f 7c 0b 82 3f
       1.00359 1.04196 1.0075352 1.0159755

encoder.conv1.nn.1.bias f4 [64]
000000 a7 c0 d5 3d e7 d6 3d 3d 1f 01 14 3d 5e ed c5 3c
       0.10437136 0.046347525 0.03613388 0.024161037
000010 f9 31 87 bd ad a3 35 3d 1c 80 f9 bb 1a 5e aa 3c
       -0.066013284 0.044345547 -0.007614149 0.020796824
000020 c9 1b 49 bd e8 63 ab 3b 75 6b 57 bd 5e 40 35 3d
       -0.049098764 0.0052304156 -0.052592713 0.04425084
000030 10 8d 3c 3d 2c 7f 12 bd 58 42 f2 3c 47 cb 15 3d
       0.046032965 -0.03576581 0.02957265 0.036570814
000040 2c fc 4f bb 04 f0 4d 3c 52 af 99 bc 23 30 c1 bc
       -0.0031736 0.012569431 -0.018760357 -0.023582524
000050 73 a1 9d bb b1 78 88 3c 0a c0 9d bc 75 2e f6 3b
       -0.004810506 0.016659113 -0.01925661 0.0075128623
000060 8b ea ca 3d d8 29 ae bd 29 38 d3 3d f6 2d 84 bd
       0.09908017 -0.08504075 0.10313446 -0.06454079
000070 19 e3 d0 3c a6 25 fa bb 78 19 c6 bc 55 f5 c2 3c
       0.025498914 -0.0076338826 -0.024182066 0.023798624
000080 60 32 30 bc fb 29 6d bd 5e 59 33 bd d4 e1 b6 bc
       -0.010754198 -0.057901364 -0.0437864 -0.02232448
000090 89 6a 81 3d e7 01 df bc d1 d1 10 bd d2 7a c3 bd
       0.06319148 -0.027222587 -0.035356347 -0.095449105
0000a0 ec 57 0a 3d af 18 9a 3c 7a b9 0c bd f7 06 7e 3b
       0.033775255 0.018810598 -0.03435657 0.0038761476
0000b0 a5 9d d2 3c 1d 07 b1 bd cb c8 8c bc f3 cd 90 3c
       0.025709936 -0.08643935 -0.01718559 0.01767633
0000c0 44 66 b8 bc b5 30 a9 bc 15 19 a8 3d 89 1f d5 3d
       -0.022509702 -0.020653108 0.08207909 0.104064055
0000d0 49 48 b3 3b 3e c5 79 3d a7 c6 dc 3d 00 90 ad 3d
       0.0054712635 0.06097912 0.107800774 0.084747314
0000e0 2e 95 d4 bc aa 19 6b 3c d5 ac d2 3d fb 96 8e 3d
       -0.02595004 0.0143493805 0.10286871 0.06962391
0000f0 42 cd fd 3c 24 11 ba bb f8 75 3f bd 76 16 8a 3d
       0.030981664 -0.005678313 -0.046743363 0.06742565

encoder.conv1.nn.1.running_mean f4 [64]
000000 93 ee cd 3e d1 50 fb be 4d 3e 63 be 41 86 dc 3b
       0.4022108 -0.49085096 -0.22191735 0.0067298715
000010 1a ec 40 3e ee da 6a 3e 34 97 c3 be cf 84 b0 bd
       0.18840066 0.22935078 -0.38201296 -0.08619081
000020 d6 15 22 3e 7c 4c 24 bb b6 5d 4b 3e 62 16 a5 3e
       0.15828642 -0.0025070002 0.19859967 0.3224364
000030 2c cf 5e 3d ad d9 49 3c c4 3f 37 3e 88 82 6c be
       0.054396793 0.012319964 0.17895418 -0.23096669
000040 1a 93 ec 3d 17 d1 b3 3e 79 d4 20 3d 7e 66 79 be
       0.11551495 0.3512046 0.03926513 -0.24355504
000050 d7 04 04 3d f3 85 40 be 45 7f ea bd ce 66 a6 3e
       0.032231178 -0.18801098 -0.11450056 0.3250031
000060 1b 94 27 be 2e 9e 64 bc e4 71 c5 be 45 ca 0d 3c
       -0.16365092 -0.013953729 -0.38563454 0.008654182
000070 f1 93 43 3d 90 e9 89 bc cc 23 c3 bd bd f6 ed 3d
       0.04774851 -0.016835004 -0.09528312 0.11619327
000080 10 c2 b5 bd e7 7f fc bd 81 b7 ea 3b b5 00 31 bd
       -0.08874905 -0.12329083 0.0071629887 -0.043213565
000090 a9 01 10 bd 0b 50 5e be 94 84 dc 3d e8 63 57 3e
       -0.035157833 -0.21710221 0.10767475 0.21034205
0000a0 3d c3 a5 3e 7d 85 5b 3d 07 ab ce be 82 b8 de be
       0.32375517 0.0535941 -0.40364859 -0.43500143
0000b0 be dd df 3d d3 c1 f3 3e c0 61 94 3d 03 5f b2 3e
       0.10930966 0.47608814 0.07245207 0.34838113
0000c0 0e ef 54 3e 9b 74 00 be aa b7 aa 3e 35 25 aa bd
       0.20794317 -0.12544481 0.3334325 -0.08307878
0000d0 16 5d 47 be 93 81 5c 3e 0d 7a c8 3e 7a 06 87 be
       -0.19469103 0.21533804 0.39155617 -0.2637213
0000e0 45 cf 3e be 05 f1 e0 3e e3 29 26 3d 28 ec 41 3e
       -0.18633755 0.43933883 0.04056729 0.18937743
0000f0 c0 e2 67 bd 56 e5 8e bd 23 3a a5 3e 86 39 3f 3d
       -0.05661273 -0.06977336 0.32270917 0.046685718

encoder.conv1.nn.1.running_var f4 [64]
000000 8f 85 4e 3c ba 5d 65 3c 9e 48 67 3c 84 b1 b8 3c
       0.012605085 0.013999397 0.014116434 0.022545584
000010 de bd 9d 3b e7 dc 38 3c 1e 45 04 3c 0b 74 b2 3c
       0.0048138937 0.011283136 0.008073119 0.02178385
000020 59 de 01 3c 79 55 86 3c 80 d7 58 3c 4a ae 54 3c
       0.007926547 0.016398178 0.013234973 0.012981007
000030 8b bf 43 3c 0d 8f 0b 3c 7f 72 e3 3b a1 ab ca 3b
       0.011947523 0.008517993 0.006941139 0.0061850105
000040 4f 74 99 3b eb 8e 72 3c f6 ee 85 3c 11 6d a7 3c
       0.0046830545 0.014804582 0.016349297 0.02043775
000050 87 43 b2 3b 19 29 b4 3c 69 6b c3 3b 32 56 c0 3c
       0.005440179 0.021992253 0.005963732 0.023478601
000060 99 71 46 3c 82 63 7b 3c cb ad ac 3b 83 8e 58 3c
       0.012112045 0.015343549 0.005269741 0.013217571
000070 80 ee 13 3c 10 78 5a 3c da 8b e9 3b 76 8c c6 3b
       0.009029031 0.013334289 0.0071272673 0.0060592247
000080 de 88 8a 3b 63 c0 21 3c 8b 9c 45 3c 13 e2 ed 3a
       0.0042277416 0.009872529 0.0120612485 0.001814904
000090 ff 58 e2 3b 8c 40 09 3c e1 31 ce 3b 95 9d 27 3c
       0.006907582 0.008377206 0.006292567 0.010230442
0000a0 11 83 55 3c ef ca ff 3b c1 3d da 3c ca e9 80 3c
       0.013031737 0.007806174 0.026640775 0.01573648
0000b0 87 19 58 3c 3f 86 b0 3c ed a6 6a 3c a1 a1 a8 3c
       0.01318968 0.021548389 0.014322025 0.020584883
0000c0 1c e0 09 3c 6c db 56 3c ca ba e0 3b f1 59 81 3c
       0.008415248 0.013113838 0.0068582045 0.015789958
0000d0 cd 01 90 3b 33 c4 8e 3c e2 b5 32 3c 9a 11 36 3c
       0.004394746 0.01742754 0.010907622 0.011112595
0000e0 a2 08 b5 3b 0e 85 91 3c 76 cc ad 3c 50 f1 29 3c
       0.0055247108 0.01776364 0.021215659 0.010372475
0000f0 44 df 1e 3c ed 9e 06 3c 55 bd e8 3b 7a 0d 0b 3c
       0.009696785 0.008216602 0.0071026483 0.0084871

encoder.conv2.nn.0.weight f4 [64, 128]
000000 f3 78 87 bb 69 59 aa bd 57 d7 c4 bc b8 f2 d4 bc
       -0.0041342913 -0.08317835 -0.024028463 -0.025994644
000010 f4 09 af bd 07 0e 07 bc 22 28 49 3c b6 86 56 3d
       -0.0854682 -0.0082430905 0.012277635 0.052374564
000020 27 03 cf bd 0b 11 9b bd 8c 50 e5 bd 49 34 29 3d
       -0.10108023 -0.0757161 -0.11197004 0.04130963
000030 de 37 af bd 14 ec aa 3c c1 34 cf bd 90 b6 fe b9
       -0.08555578 0.020864524 -0.10117484 -0.00048582675
000040 df 67 71 bc 19 64 b4 3c c7 90 bd bd 07 85 7f bd
       -0.014734237 0.022020387 -0.0925613 -0.062382724
000050 5f 38 0c 3d 62 ed af bd f2 98 84 bd dc 1f 96 3d
       0.034233447 -0.08590199 -0.064744845 0.073302954
000060 3b d3 c2 bc 6d 7c 42 3d 3d 6b b5 bc 2c 30 25 3d
       -0.023782363 0.047481943 -0.022145862 0.040329143
000070 27 d6 00 bd 24 ff 6f 3d 2a be 10 bc fd c9 7e 3d
       -0.03145423 0.05859293 -0.008834401 0.06220435
000080 6b 19 22 bd 0d dc f0 bc 7f ac 9f bd 6a b0 7f bc
       -0.03957502 -0.029401803 -0.07796573 -0.015606025
000090 40 31 ad bc 6a 1d 8b 3d f3 b6 07 3d e8 93 18 3d
       -0.021141648 0.0679272 0.03313346 0.03725043
0000a0 f7 f6 18 bd b5 e0 85 3d dc 03 b9 3d 5c 4d 61 bb
       -0.0373449 0.06537 0.09033939 -0.0034378385
0000b0 c1 ff a1 bd 17 3c a9 3d 63 ec 85 bd 87 25 0a 3d
       -0.07910109 0.08263414 -0.06539228 0.033727195
0000c0 c2 7d 9a 3d 93 07 cc bd 53 5b 94 3c 0f a6 95 bd
       0.07543518 -0.09962382 0.018109953 -0.07307064
0000d0 7c c6 9d 3d b3 47 09 bd b6 a0 57 3d 3e 9f 3c 3d
       0.077038735 -0.033515643 0.0526435 0.046050303
0000e0 78 10 57 bd cd 6f bc 3c bf ac 84 3d 22 90 29 bd
       -0.05250594 0.02300253 0.06478261 -0.04139722
0000f0 df 79 9a 3d 6c 61 9f 3d 81 65 1e bd 65 22 c6 bb
       0.07542776 0.077822536 -0.03867102 -0.0060465806
000100 56 82 81 bb c4 54 48 bb 73 ec a6 bd ba eb 42 bc
       -0.003952305 -0.0030568102 -0.08150568 -0.011897022
000110 16 73 80 3d 43 23 9b 3d c8 73 21 bd 07 40 94 bc
       0.06271951 0.07575085 -0.03941706 -0.018096937
000120 25 82 7c bb 5a 5d 67 bd 90 59 a3 3d f0 b4 c3 3d
       -0.003852972 -0.05648551 0.07976067 0.095559955
000130 69 7b 0a 3c 4c ce d8 bd 16 a8 04 bd 37 54 c3 3c
       0.008452275 -0.10586223 -0.03238686 0.023843868
000140 56 68 4d 3d b1 b4 d3 bd 70 42 94 bd 3c f3 07 3d
       0.05014833 -0.103371985 -0.072392344 0.03319095
000150 31 4d 6e bd 83 f9 87 bd d5 4b aa 3d 83 d1 a6 3c
       -0.058179084 -0.066393875 0.08315245 0.020363575
000160 8a d3 91 3d 80 1e 90 3d f5 aa d0 3d 2d af 33 bd
       0.07120426 0.070370674 0.101888575 -0.043868233
000170 fc 2a 10 bd ba e0 b3 bc 60 68 c2 3d ac f4 30 bc
       -0.035197243 -0.021957744 0.09492564 -0.010800522
000180 30 b1 cd 3a c8 7e f0 3d 89 ae 26 bd 64 63 6f bd
       0.0015693065 0.117429316 -0.040693793 -0.058444396
000190 5b 94 7c 3c 6d e9 8b bd 4a 9a 7f bd 8a 7a 50 3d
       0.01541623 -0.06831632 -0.062403 0.050898112
0001a0 53 30 13 3b 46 8f 98 3d 83 3b 9f bd 8e 6f 7d bd
       0.0022459223 0.07449202 -0.07775023 -0.061873965
0001b0 8f 5e c7 bd 85 f5 78 bd c1 8e 9d 3c 29 a6 95 bd
       -0.097348325 -0.06078102 0.01923311 -0.07307083
0001c0 4d d4 ec ba fb ce 95 3d d4 90 83 bc bf ce 25 bd
       -0.0018068642 0.07314869 -0.01606027 -0.04048037
0001d0 a0 0c 95 3b b5 bb bf 3d f5 7a 5a bc d1 b0 10 bd
       0.004548624 0.09361974 -0.013334979 -0.035324875
0001e0 8d 9d c8 3d 9e 10 d3 bc 71 72 52 3d a7 50 53 3d
       0.097956754 -0.02576476 0.05137867 0.051590588
0001f0 e9 14 74 bd 57 ff 0a bd 7f f3 68 3a 41 35 3b bd
       -0.059590254 -0.033934917 0.00088863814 -0.045705084
000200 f8 bb 25 bd bf 79 62 bc fe 1a 8c 3d 81 b9 db 3d
       -0.040462464 -0.013822972 0.06841086 0.107287414
000210 c7 8e 01 3c 80 9d 2a bd 20 9b a4 bd 83 d6 6f bc
       0.007907576 -0.04165411 -0.080374 -0.014638546
000220 04 4a c1 bc 0b 8c 94 bd 06 00 3e 3c 4e fd 94 3d
       -0.023594864 -0.072532736 0.011596685 0.072748765
000230 37 90 85 bd 58 83 c1 3d 01 50 34 bd 5f c9 aa 3d
       -0.065216474 0.0944888 -0.04402161 0.0833919
000240 96 7e 65 bd 77 06 86 bd 4d 17 b0 3d 2c 18 5b 3d
       -0.056028925 -0.06544202 0.08598194 0.05348985
000250 58 d0 ae 3d bb aa d2 3d 5c a2 c8 bc bb 4c f1 bc
       0.08535832 0.102864705 -0.024491481 -0.029455533
000260 c7 b6 15 3d 5f 85 49 3d 87 20 83 3d 5c 64 a4 3d
       0.036551263 0.04919946 0.064026885 0.080269545
000270 ed c5 9a 3d 94 3a 0b bd e3 44 4f 3d 33 df 30 3d
       0.075572826 -0.03399141 0.050602805 0.04318161
000280 61 88 64 3c c7 40 07 3c 64 40 0a 3d 56 1d 6f 3d
       0.013948531 0.00825519 0.033752814 0.058377586
000290 b9 4f 2d 3c 03 f1 c2 3d 4e 9e ac bc 1d 00 08 bd
       0.010578089 0.095186256 -0.02107158 -0.033203233
0002a0 cc b4 5f bd 1e ca 92 bd cf ea ef 3d c7 d5 88 3a
       -0.05461578 -0.07167457 0.11714708 0.0010439687
0002b0 08 e6 3e bc 35 42 e1 3d ec da 57 bc 02 5e 89 3b
       -0.011651523 0.10998956 -0.013174754 0.004192115
0002c0 13 54 55 3d 0c 1b 06 3e 27 e6 77 3d 63 b9 2b bd
       0.052082133 0.13096255 0.060522225 -0.041924845
0002d0 a9 82 f6 3d 89 f0 7d 3d e4 23 c0 3d ff 9e 93 bb
       0.1203664 0.06199697 0.093818456 -0.004505038
0002e0 9a ff 02 3e 0f b3 08 bd 2b c5 b3 3d 6e 3a 78 bd
       0.12792817 -0.03337389 0.08777841 -0.060602598
0002f0 ee 9e 9d 3d 80 c5 01 3e 23 11 95 3c 44 d6 94 bd
       0.07696329 0.12672997 0.018196648 -0.072674304
000300 12 97 32 be 2f 92 8b bc ac 5d 16 3c 9d fd 43 bd
       -0.17440441 -0.01703748 0.009177607 -0.047849286
000310 7a f7 90 bd f1 cd 7a bd 78 fb 7e bc 48 57 a2 3d
       -0.070784524 -0.061231557 -0.0155628845 0.07926804
000320 0c 34 9a bc ae b8 08 bd 22 d7 d1 bb b0 79 61 bd
       -0.018823646 -0.03337925 -0.0064038197 -0.05504769
000330 85 77 32 3d c7 69 ec bc 8a 2f 0d be 7f f7 98 3d
       0.043571014 -0.028859032 -0.13787666 0.07469081
000340 4f fc fc 3d 4f 78 68 3c 23 a6 25 bd 1f 16 4c bc
       0.123528115 0.01418884 -0.040441643 -0.012456446
000350 3d 88 c9 bd 87 97 94 bd f8 78 21 bd 89 87 0a 3d
       -0.098404385 -0.07255464 -0.039422005 0.033820663
000360 92 15 38 3d c2 ef 34 3d ce c5 1f 3d c4 20 b2 3c
       0.044942446 0.044173963 0.039007 0.02174414
000370 50 10 59 3c d8 b2 0e 3d 21 ea 61 bc b6 c9 13 bd
       0.013248518 0.034838527 -0.013788731 -0.03608104
000380 1f 5f dc bd d2 61 a1 bd 6f 83 d8 3d e1 0e 98 3b
       -0.107603304 -0.07879986 0.10571944 0.0046404456
000390 fe ed f1 3a 1e 93 fd bd 9d 31 b2 3d f8 9d 04 be
       0.0018457768 -0.12381576 0.08700869 -0.12950885
0003a0 cf 1c ba 3b dc dd b4 bc 81 c3 ef bd 5e 5a 89 bd
       0.005679704 -0.022078447 -0.11707211 -0.06706689
0003b0 49 b4 d4 bd c8 00 12 bd 69 b5 ee 3c f0 c1 1d 3d
       -0.10385949 -0.035645276 0.029139237 0.03851503
0003c0 ab a8 e9 3d 04 f8 ff bd 4b b1 41 3d ef df e3 bd
       0.11409124 -0.12498477 0.04728822 -0.11126696
0003d0 11 a6 41 bd d7 7c dd 3a 55 41 26 bd 24 c8 9a bd
       -0.047277514 0.0016898167 -0.04058965 -0.07557705
0003e0 58 bb bd bc 9d 01 48 3d 94 35 9d bd 6b e5 53 bd
       -0.023160622 0.048829664 -0.07676235 -0.051732462
0003f0 06 35 bd bd ec ae 6b bd 0e c7 24 bc 0f 04 f7 3d
       -0.09238629 -0.057539865 -0.010057224 0.12061321

encoder.conv2.nn.0.bias f4 [64]
000000 40 ef 92 ba 17 21 69 3c 5b 5c c5 bd 74 45 3a 3d
       -0.0011210218 0.014229081 -0.09636756 0.045476392
000010 cd 23 98 bd 08 40 a0 3d 81 45 96 3d 88 3f 9c bd
       -0.074287035 0.07824713 0.073374756 -0.07629305
000020 38 b3 ce bd dc 5a 2e bd 0e 79 1c bd 70 c8 80 bd
       -0.10092777 -0.04256712 -0.038201384 -0.062882304
000030 90 29 33 3d 66 3f df 3c a0 bd 54 bc a4 a8 db 3c
       0.04374081 0.02725191 -0.012984663 0.026813813
000040 99 23 31 3d 81 f0 34 3d 0c b3 f7 3c 7d fc 61 bd
       0.04324684 0.044174675 0.030236743 -0.055172432
000050 e6 a0 d5 bc 73 16 91 3d e3 83 a7 bd 1f 89 15 3c
       -0.026077699 0.0708436 -0.08179452 0.0091269305
000060 0a ed 1d 3c ea d7 66 3d be 1c 45 bc fe 4e 96 3c
       0.009639034 0.056358255 -0.012030778 0.018348213
000070 40 58 a0 bd cf 75 93 bb 1c f6 74 bd 3d dd 26 3d
       -0.07829332 -0.004500128 -0.05980502 0.040738333
000080 32 31 80 3d ac f4 ce 3c d7 1d 6b 3c 3c bf b3 bc
       0.06259383 0.025263153 0.014350376 -0.021941774
000090 63 27 b5 bc c9 89 f1 bd 29 0a 6a b9 b8 bd a1 bc
       -0.022113508 -0.117938586 -0.00022319764 -0.019743785
0000a0 8b b1 d4 bc d5 f9 81 bd 58 98 db bb 5c 73 2f 3d
       -0.025963565 -0.0634648 -0.0067015104 0.042834625
0000b0 d9 68 8f bd ed 7d c3 bb e5 b6 e1 bc af 18 63 bc
       -0.0700242 -0.0059659393 -0.027553031 -0.0138608655
0000c0 52 fb a9 3d a8 5e 77 3d 82 a9 15 3d da 06 ce bd
       0.08299889 0.060393006 0.03653861 -0.100599006
0000d0 42 0a 74 bd a1 1e 65 3d d6 54 bc bd f5 80 3c 3c
       -0.059580095 0.055937413 -0.09195869 0.011505355
0000e0 cd 0d 7d 3d 6c d1 ab 3a 1f 7f ae bd e3 28 fe bc
       0.06178074 0.0013108677 -0.0852034 -0.031025356
0000f0 14 bc e5 bc fb 43 35 3d 9b 24 00 bd 1d 53 48 bb
       -0.028043784 0.044254284 -0.03128491 -0.0030567118

encoder.conv2.nn.1.weight f4 [64]
000000 af 40 7d 3f f8 fd 86 3f 07 ef 7f 3f 64 2b 74 3f
       0.98926824 1.0546255 0.999741 0.9537871
000010 37 26 81 3f 9f 1f 7a 3f 97 07 83 3f 7c c6 7e 3f
       1.0089787 0.977045 1.0236691 0.99521613
000020 c8 fd 86 3f 30 a6 81 3f 4a c6 83 3f 8e a5 6d 3f
       1.0546198 1.0128841 1.0294888 0.9283074
000030 78 80 7b 3f 72 5a 71 3f de 78 7f 3f ed 49 87 3f
       0.982429 0.94278634 0.99793804 1.0569435
000040 41 31 76 3f 30 07 80 3f 29 af 86 3f 66 45 7b 3f
       0.96168905 1.0002193 1.0522205 0.9815277
000050 b0 97 66 3f b8 43 77 3f 34 1f 90 3f 19 c1 6a 3f
       0.90075207 0.96587706 1.1259522 0.91700894
000060 ad 9f 7f 3f bb 75 7e 3f 63 f6 85 3f 7f f0 7e 3f
       0.9985302 0.9939839 1.0465816 0.9958572
000070 e9 85 84 3f 83 eb 80 3f f3 3a 81 3f b5 1a 84 3f
       1.0353366 1.0071872 1.0096115 1.032065
000080 07 df 7b 3f 40 52 80 3f b7 01 83 3f 6b de 75 3f
       0.9838719 1.0025101 1.0234898 0.9604251
000090 ef dc 89 3f d5 31 88 3f af f3 80 3f d7 44 84 3f
       1.0770549 1.0640208 1.0074366 1.0333508
0000a0 52 25 80 3f 1b 03 80 3f 86 7d 7e 3f 08 62 8a 3f
       1.0011389 1.0000948 0.99410284 1.0811167
0000b0 be d4 77 3f 4d b2 77 3f 70 dc 89 3f 57 ad 80 3f
       0.96808994 0.9675644 1.0770397 1.0052899
0000c0 ee 15 82 3f 10 62 7c 3f 00 00 87 3f 6d 75 81 3f
       1.0162942 0.9858713 1.0546875 1.011396
0000d0 83 89 86 3f 66 27 75 3f 8a 35 83 3f 2d e2 74 3f
       1.0510715 0.9576324 1.0250714 0.95657617
0000e0 a7 bd 82 3f fc d2 80 3f 86 d3 7f 3f 6c de 80 3f
       1.0214127 1.0064387 0.99932134 1.0067878
0000f0 50 f9 81 3f 31 02 7f 3f ae 8d 8d 3f 0a 02 81 3f
       1.0154209 0.9961272 1.1058862 1.0078747

encoder.conv2.nn.1.bias f4 [64]
000000 2e 81 52 3c 52 3b 60 3d be a4 aa 3d d0 11 3e bd
       0.012848182 0.054744072 0.08332203 -0.046403706
000010 d0 43 9d 3d d8 68 7f 3d 41 0f ee 3d 93 08 40 3c
       0.0767895 0.062355846 0.11624003 0.011720794
000020 f7 c9 e4 3c ae 8a da 3d ec 98 b5 3d 7c f1 94 bc
       0.027928336 0.10670982 0.08867058 -0.018181555
000030 c8 32 81 bc e7 f8 04 bd eb 58 46 bd 22 10 a6 bc
       -0.015771285 -0.032463934 -0.048424643 -0.020271365
000040 fa b3 88 ba 99 79 32 3d 5f d2 0a 3e 98 87 89 3d
       -0.0010429614 0.043572996 0.13556813 0.067153156
000050 16 57 0d bc 91 a6 8a 3d 11 42 be 3d 76 40 24 bb
       -0.00862672 0.06770051 0.09289945 -0.0025062836
000060 cf 10 0a bb a7 94 ef 3d ca 1c a9 3d 83 b7 23 3d
       -0.0021067148 0.11698275 0.08257444 0.039969932
000070 2e ef b3 3d d7 73 9b 3c 41 d7 db 3d b0 5b ac 3c
       0.08785854 0.018976135 0.10734416 0.021039814
000080 f7 d0 99 3d 10 c0 41 3b ae a6 e8 3d ae 89 80 bd
       0.0751056 0.002956394 0.113599166 -0.0627626
000090 06 80 61 3c 30 a3 8c 3d d0 db 94 3d 31 55 18 bc
       0.013763433 0.06867063 0.072684884 -0.009297655
0000a0 99 5f ba 3c 95 e1 57 bc ff f7 b0 bc 92 7a 22 bd
       0.022750663 -0.013176342 -0.021602629 -0.039667673
0000b0 e3 df 33 3d 1f 3d 4b 3d 0e d6 85 3d 35 c5 c5 3d
       0.043914687 0.049618836 0.06534968 0.09656755
0000c0 d8 3e 25 bd 80 65 38 3d 1f 40 d4 3d 70 1e d6 3d
       -0.040343136 0.045018673 0.10363793 0.10455024
0000d0 9d f0 18 3e f5 a1 c1 3c 83 14 30 3c 18 28 7f bd
       0.14935537 0.023636797 0.010747078 -0.062294096
0000e0 51 08 89 3d ae eb 46 3c 13 f4 c4 3d b8 8f d5 bc
       0.06691039 0.012141151 0.09616866 -0.026069507
0000f0 c9 ea ab bc c6 2e ae 3d 1c 23 fa 3d 68 c3 24 3d
       -0.020985978 0.08505015 0.12213728 0.040225416

encoder.conv2.nn.1.running_mean f4 [64]
000000 f3 3f 3e be 3c 04 2a 3f b3 16 be 3e e6 cd 15 3f
       -0.18579082 0.6641271 0.37126693 0.585173
000010 26 44 49 3f 8a 9b 9a 3c d2 9c 28 3f 9c 1c e4 be
       0.7861961 0.018872995 0.6586429 -0.44553077
000020 92 44 7b bf c3 44 33 bf fc ba 34 bf 6a a8 3b be
       -0.98151505 -0.700268 -0.70597816 -0.18325964
000030 0c f8 69 be 51 39 9c 3d ce e6 ca be d4 0b 82 bc
       -0.22848529 0.0762812 -0.39629215 -0.01587478
000040 41 f2 3f be 2d 1d fc 3e 67 8d f6 3e cb 9e 20 be
       -0.18744756 0.4924101 0.48154756 -0.15685575
000050 4a d3 29 bf 18 70 c2 bd 7c 2b 13 bd 0b 50 eb 3d
       -0.66338027 -0.094940364 -0.03593014 0.11489876
000060 ff d7 38 be 4d 3d 35 3e 78 dd 23 be 01 4e 1c 3e
       -0.18051146 0.17699166 -0.16002452 0.15264131
000070 5d 3e 4c be 97 ac c8 bc 2d 5c 58 bd dd 3f c9 bd
       -0.19945665 -0.02449636 -0.05282228 -0.09826634
000080 33 66 ab 3e 87 2e c0 be 08 86 52 3e 0d 22 39 bf
       0.3347641 -0.37535498 0.20558941 -0.7231758
000090 d3 84 0a bf ff 70 ac be b8 a0 56 3f a1 a9 d7 be
       -0.54108924 -0.3367996 0.8383899 -0.42121604
0000a0 99 b8 5a 3d 36 61 75 be 4b 8f 0a 3f 98 12 14 3e
       0.053398702 -0.23962864 0.541249 0.14460218
0000b0 ab c6 4e bf 88 8b 0b 3f 71 c1 80 3e 91 0f 81 3e
       -0.80771893 0.5450978 0.25147584 0.2520719
0000c0 bd e3 1a 3e 11 65 6b 3e 58 5f 2f 3e d8 76 bb 3e
       0.15125938 0.22987773 0.17126215 0.36614108
0000d0 a3 43 ab 3e 7c a2 9d bd 17 3e 24 be ea c4 23 bf
       0.3345004 -0.07697007 -0.1603931 -0.6397234
0000e0 94 66 3f 3e 9b 80 21 3f 3c 12 cd 3e 75 2e fb be
       0.18691474 0.6308686 0.40052974 -0.4905888
0000f0 e0 60 0e bf 96 13 c0 be 36 58 27 3e 95 d8 bd be
       -0.5561657 -0.37514943 0.16342244 -0.370793

encoder.conv2.nn.1.running_var f4 [64]
000000 db 72 9a 3e dc 42 b2 3e c0 e2 2b 3f 53 43 00 3f
       0.30165753 0.34816635 0.6714287 0.5010273
000010 4b 44 f9 3e c0 e9 88 3f 32 14 57 3f 13 58 fe 3e
       0.48684916 1.0696335 0.8401519 0.4967657
000020 6a 73 04 3f cd b5 00 3f 58 82 fe 3f d5 0a 8a 3e
       0.5173861 0.50277406 1.9883528 0.2696139
000030 5d 7a 3f 3f 95 2a 1e 3f bd d6 4a 3f 6e 0f 2e 3f
       0.74796087 0.61783725 0.79233915 0.67992294
000040 02 bf b7 3e 0f 2d be 3e d3 f3 42 3f dd de cf 3e
       0.35887915 0.37143752 0.76153296 0.4059972
000050 44 88 18 3f 6f 83 a2 3e e6 8a 30 3e d1 9f 56 3f
       0.59582925 0.317409 0.17240486 0.8383761
000060 48 67 3c 3f 80 80 91 3e 9a a7 1c 3f f9 a8 b5 3e
       0.73595095 0.2841835 0.6119324 0.35480478
000070 fd e7 6b 3f 92 da fc 3e b2 9b 5f 3e 33 ff 89 3f
       0.9215086 0.49385506 0.21836737 1.0781006
000080 2b 29 26 3f cd 56 29 3f c6 e8 2e 3f 70 df 42 3f
       0.6490657 0.6614807 0.68323934 0.7612219
000090 36 e2 17 3f 8c 0a 2d 3e 25 d0 8d 3f a2 50 06 3f
       0.59329545 0.16898555 1.1079146 0.52466786
0000a0 d1 64 aa 3f 53 c2 62 3e 64 6c af 3e 7e 5a 8a 3e
       1.3312017 0.22144441 0.34262383 0.27022165
0000b0 d5 11 e3 3e 79 89 a8 3e 51 9b 23 3f 4f af 45 3f
       0.44349542 0.32917383 0.6390887 0.77220625
0000c0 7f b7 3e 3f 31 6e 13 3f b3 1f 7c 3f 56 a9 7e 3f
       0.7449874 0.57590014 0.9848587 0.99477136
0000d0 ec e2 7e 3f 07 1f 01 3f 40 4c 09 3f 7c ef 3b 3f
       0.99565005 0.5043797 0.53631973 0.734123
0000e0 20 f3 38 3f 81 a3 22 3f 6b a6 f9 3e 6c e6 06 3f
       0.7224598 0.6353074 0.4875978 0.52695346
0000f0 95 d4 b4 3e c4 2d 14 3f 31 64 4e 3f 2c 10 12 3f
       0.35318437 0.5788233 0.8062163 0.57055926

encoder.conv3.nn.0.weight f4 [128, 128]
000000 f0 b2 7d bd ae de f7 bd f0 67 71 3d 5d 70 44 bc
       -0.061938226 -0.1210302 0.058937013 -0.01198968
000010 31 87 15 bd c2 ba be bc 38 54 27 bd 78 c0 d0 3c
       -0.03650588 -0.023282412 -0.0408518 0.025482401
000020 a5 5f 8b 3d 75 b3 7b 3d bb e2 6c bc f9 72 ac 3d
       0.06805352 0.06145044 -0.014458354 0.08420367
000030 ac 9a d1 3d a9 26 5b 3d 04 9e 77 bd 34 19 9c bd
       0.102345794 0.053503666 -0.06045343 -0.076219946
000040 c0 be c9 3c ea be 3f 3d 58 f3 10 be 93 3f 8e bb
       0.02462709 0.04681293 -0.14155328 -0.0043410747
000050 5f 15 57 3c 73 6b 22 3d 0a be 90 bd 6c fc a3 3c
       0.013127654 0.039653253 -0.07067497 0.020017825
000060 c7 e4 5a 3d a3 f0 b2 bd 00 92 89 3d 18 00 d4 3c
       0.053440835 -0.08737304 0.067173004 0.025878951
000070 75 7c f2 bd 32 b4 28 bc f0 51 7b bd 78 b6 32 bc
       -0.118401445 -0.010296868 -0.06135744 -0.010907762
000080 9d dd 3f 3d 66 cc a2 bc b3 1a df 3c c9 e6 5d bb
       0.046842206 -0.019872855 0.02723441 -0.0033859483
000090 4e 89 f3 ba 35 38 59 bc ad 18 c0 bd b2 5d 50 3c
       -0.0018580349 -0.01325803 -0.093797065 0.012717651
0000a0 42 5f 51 3d 96 69 9d 3d bb fe 5d bd 06 ed f8 bc
       0.051116236 0.076861545 -0.054198008 -0.03038646
0000b0 2f 3a ab 3d 6e 8c 9f bb 5b 6c 7b bd bc 9e c3 bd
       0.08360707 -0.0048690354 -0.061382633 -0.095517606
0000c0 a3 59 00 3d d5 58 10 3d 19 cc 51 3c ec 0f 2a 3d
       0.031335484 0.035240967 0.012805008 0.04151909
0000d0 07 a0 35 bd 09 46 93 3d ab df 84 bc 92 91 09 bd
       -0.044342067 0.071910925 -0.016219934 -0.033586092
0000e0 48 8a 70 3c 57 ae 98 bd a5 ad 4c bd 53 fa 38 3d
       0.014681406 -0.07455128 -0.049970288 0.045160603
0000f0 e6 ce 10 3d 11 62 6a 3d db 94 23 bd 54 a4 c9 3c
       0.035353564 0.05722243 -0.03993688 0.02461449
000100 67 2d 00 3c 72 7d 84 bd fb bb 93 3d e1 38 3c 3d
       0.007823325 -0.06469239 0.07213589 0.04595268
000110 dd ed 21 bc 1b 2b 27 3d 03 2d b2 bd d6 fa 40 3d
       -0.009883371 0.040812593 -0.086999916 0.047114216
000120 f8 6d d9 3c 72 23 3c bb 36 10 e7 bc c8 03 bd bc
       0.026541695 -0.002870765 -0.028205972 -0.023073092
000130 8b d6 a4 bc c0 bf aa 3d 8e 91 eb 3c 8c 05 e7 3d
       -0.020121833 0.08337355 0.02875593 0.11280355
000140 74 d7 4c 3c 99 95 87 3c d3 14 4a bd 60 fb 64 bd
       0.01250254 0.016550826 -0.049336266 -0.055903792
000150 89 eb bb 3c e2 df a3 3c 5f 70 79 3d 85 3b b2 3d
       0.02293946 0.020004217 0.06089818 0.08702759
000160 77 a4 80 3d c7 3f 9d 3d f3 2a 20 bd 90 57 d9 3c
       0.06281369 0.0767818 -0.03910346 0.02653101
000170 10 80 b9 3c 08 47 c8 bc 7b e3 04 bd c8 0e 8d bd
       0.022644073 -0.024447933 -0.032443505 -0.06887585
000180 a7 41 a0 3c ac 97 41 bd f1 c2 5f 3c ae 81 ed 3b
       0.019562555 -0.047263786 0.0136573175 0.007248125
000190 1d 8d 03 bd f4 54 ed bd 77 5b 0a 3c e0 56 dc bd
       -0.032116998 -0.11588469 0.0084446585 -0.107587576
0001a0 75 b5 05 3c 6c 20 75 3c 01 8e 9f bd 1d 61 a0 3d
       0.0081609385 0.014961343 -0.07790757 0.07831023
0001b0 93 61 6d bd af 04 52 3d be fb 6e 3d 05 c3 4b bd
       -0.057954382 0.051273998 0.05834555 -0.049746532
0001c0 18 21 8d bd ce e4 b5 bd 8c e1 0c bd 75 6e 55 bd
       -0.06891078 -0.08881532 -0.034394786 -0.052107293
0001d0 6f dd 9f 3d bd 8f af bc 5a c4 92 bd ad 4e 80 bd
       0.07805907 -0.021430844 -0.07166357 -0.06265006
0001e0 93 a3 fb bc dc ec 21 3d 4a b7 34 3d 31 8f 6d bd
       -0.030717647 0.039532527 0.04412011 -0.057997886
0001f0 f6 0d 77 bd 5b a4 12 3b 93 3a 97 bd fe a4 b5 bb
       -0.06031605 0.0022375796 -0.07384219 -0.0055433502
000200 6c 3c 0e bd af 22 b1 3d b4 f2 60 3b 7d 81 3f bc
       -0.03472559 0.086491935 0.003432435 -0.011688587
000210 ac 34 ff bc e3 b7 ba 3d 1a c2 d7 3d a3 bb 90 3b
       -0.031153046 0.09117105 0.10535069 0.0044168993
000220 c7 f3 73 3d 14 76 0c bd a9 13 1e bd 08 f3 b0 bd
       0.059558656 -0.034292296 -0.038592968 -0.086401045
000230 30 c3 09 3c d2 0e 86 3d b9 ad 1f 3c cd 9f 99 bd
       0.008408353 0.065457955 0.009746009 -0.07501183
000240 61 d7 af 3c 4b be 5e bc cf 1f 0b 3e 46 bf 66 3d
       0.021465005 -0.013595174 0.13586353 0.056334756
000250 d9 66 81 3d 9b 36 ad 3b 1d bf 02 3e 8e 93 a3 3d
       0.06318445 0.0052860505 0.12768216 0.07987128
000260 08 1d 4b bc 85 40 09 3c 18 40 77 3d d3 8c 09 bd
       -0.012397058 0.008377199 0.06036386 -0.033581566
000270 29 af 7c bd 51 9b ee 3d 1f 70 7c ba 83 56 0d bd
       -0.061690483 0.11650718 -0.00096297445 -0.034506332
000280 74 b5 30 bd 96 81 a9 3d 89 0f 3a bd c2 96 4d 3c
       -0.043141797 0.0827667 -0.04542497 0.0125481505
000290 1d 70 1c 3d 15 42 6f bc 6c 9b 69 3d 0a 1d 2b bd
       0.038192857 -0.0146031575 0.057032987 -0.04177574
0002a0 a1 38 16 3d e0 4f 34 3d f7 5c b5 bc d6 a0 0a 3e
       0.0366751 0.044021487 -0.022139056 0.13537917
0002b0 75 f1 51 bd ce dd 57 3b e8 5c 54 bd 13 b1 37 bd
       -0.051255662 0.0032938602 -0.051846415 -0.044846606
0002c0 c7 d2 06 3e cc 94 4b 3d 28 95 0d 3b 39 8b b8 bd
       0.13166343 0.04970245 0.0021603797 -0.090109296
0002d0 e7 da 68 3d 14 ce f0 3c c0 7d 1a bd ea cd d8 3c
       0.056849387 0.02939514 -0.03771758 0.026465375
0002e0 96 7f 30 bd b0 d4 d5 bc 26 12 fa 3c 76 c8 e4 3d
       -0.043090425 -0.026102394 0.030526232 0.111710474
0002f0 a8 1b 7b 3c 8a f2 12 3d bf 0f e6 3d 09 fb cb bd
       0.015326418 0.035875835 0.11233472 -0.099599905
000300 2f 48 3a bd 32 49 4a bd 29 b6 ed bd b5 e4 da bc
       -0.045478996 -0.04938621 -0.1160701 -0.026720384
000310 62 01 be bd fc 31 16 bd 90 1c 93 bd 2a 0a ee 3d
       -0.092776075 -0.036668763 -0.07183182 0.116230324
000320 1a 65 af 3d 50 62 09 3d 77 fb d2 3c 85 05 a7 bb
       0.085642055 0.033541024 0.025754673 -0.0050970935
000330 33 52 63 bd c5 bf fa bc 2d 5a 68 3b 84 90 d4 bc
       -0.055498313 -0.030609021 0.003545414 -0.025947817
000340 00 52 52 3d 5a 71 0b bd 2e ec dc 3c 93 13 a2 bd
       0.051347733 -0.034043647 0.026968088 -0.0791389
000350 d5 c1 b3 bd 15 bf 97 bd a5 8c 02 3e 37 16 e0 bd
       -0.08777205 -0.07409493 0.12748964 -0.10941737
000360 0b ec 08 3d cf d8 01 3d 21 9d a0 3d c8 ee 5c 3d
       0.033428233 0.031700905 0.0784247 0.053938657
000370 cd 85 22 3e 87 5e bb bc eb eb e0 bb 45 95 32 bd
       0.15871353 -0.022872223 -0.006864061 -0.043599386
000380 e0 10 b3 3d 9f 69 0f bd 25 13 a4 3c 7a 2a b2 3a
       0.08743453 -0.035012837 0.02002866 0.0013592981
000390 1f 02 10 3c 90 6f 97 bd c9 fa 18 3d 94 f1 5d 3c
       0.008789568 -0.07394326 0.037348542 0.013546366
0003a0 c9 56 9f bd 83 ff 67 3d f9 56 78 3d c0 10 10 3d
       -0.07780225 0.05664016 0.06062982 0.035172224
0003b0 67 58 20 3d 9d ae 52 bc 31 d5 09 3c 95 82 23 3d
       0.039146807 -0.012859014 0.008412645 0.039919455
0003c0 50 b3 ec bd 85 c1 bd 3c b4 16 8d 3c 1e a3 97 3c
       -0.11557639 0.023163566 0.01722274 0.018510398
0003d0 44 b9 59 3d b7 3b 16 3e db 6e 39 3d 99 a8 7c bd
       0.0531552 0.14671217 0.045271736 -0.061684225
0003e0 fb 19 a1 bd 3b bb 0b bc ce fb f6 3d fa f8 27 3d
       -0.078662835 -0.008528526 0.12059747 0.041008927
0003f0 e5 b5 02 be 0e ee 6f 3d 31 10 d4 bd ea 6f 1b 3d
       -0.127647 0.058576636 -0.10354651 0.037948526

encoder.conv3.nn.0.bias f4 [128]
000000 47 14 40 3d 09 1c ed bc 9b cf 95 3d 9d 17 8b 3d
       0.046894338 -0.028944032 0.07314988 0.06791613
000010 49 4f 57 3c 4b 64 47 3d 27 d7 a6 bd de e8 60 3d
       0.013141462 0.04867963 -0.08146506 0.05490958
000020 17 2f a7 bd 0e 56 a7 bc 8e f1 90 3d 0c d0 18 bc
       -0.081632785 -0.020426776 0.07077323 -0.009326946
000030 86 8c b1 ba c6 a6 1e 3d 04 e2 92 bc 41 25 4b bc
       -0.0013545908 0.038733266 -0.017930038 -0.012399019
000040 35 78 28 3d 07 4e 82 3d 76 2e c1 3a de 94 14 bd
       0.041130263 0.06362539 0.0014738578 -0.036274783
000050 f1 c9 84 3d d7 6c d6 bb ae 0f 82 bd 19 af bf 3c
       0.0648383 -0.0065437364 -0.06350647 0.023398923
000060 1c 54 8c 3d b7 cb 03 3d 3c 4f d2 3c ec 97 82 bd
       0.0685198 0.0321767 0.025672548 -0.06376633
000070 9e a1 23 3d 7b da a7 bd 26 bf 85 bd 4f 99 f0 bc
       0.039949052 -0.08195969 -0.06530599 -0.029369978
000080 60 e5 2d 3c 92 61 3e 3a 78 17 64 bd b6 02 59 3d
       0.010613769 0.0007262464 -0.055686444 0.0529811
000090 4e 37 39 bd 10 0b 52 bc 57 d0 60 bd 91 73 6c bb
       -0.04521876 -0.01282002 -0.05488619 -0.0036079625
0000a0 0e 65 90 bc 6a 40 09 bd ab 64 45 bd 60 a0 95 bd
       -0.017626312 -0.033508696 -0.048191708 -0.0730598
0000b0 6d 48 34 3c da 0f 74 3c 8f ab 5a 3d f7 e9 3f 3c
       0.011003596 0.014896357 0.053386267 0.011713496
0000c0 4f b0 28 3d 1d 61 07 bd 12 f9 63 bd 67 19 be 3c
       0.041183766 -0.0330516 -0.055657454 0.023205472
0000d0 0e 72 da 3c 3b 5a 9d 3d 26 22 82 3d ed 84 3f bd
       0.026665714 0.07683226 0.063541695 -0.046757627
0000e0 94 bd b9 bd 61 6f 54 3d 05 08 14 3d e0 4c 8f 3d
       -0.09069362 0.05186403 0.03614046 0.069970846
0000f0 1a 6b b1 3d fa 03 64 3d 27 ae c2 3d 6d 21 92 3c
       0.08663006 0.055667855 0.09505873 0.017838204
000100 ca b5 c4 bc ea cc 1f bd 7a a0 08 3d 9d 50 48 bd
       -0.024012465 -0.03901378 0.033356167 -0.048905004
000110 e8 92 02 bd 0c 47 18 3d f4 d2 2f bd bf 70 2e 3d
       -0.031878382 0.03717713 -0.04292579 0.04258799
000120 89 44 03 bd 1b 43 ad bd 6f 7c b5 bd 0c 83 56 3d
       -0.032047782 -0.08460065 -0.088616244 0.05237107
000130 43 5a 8e bd 30 7b 53 bc 0e 0f 8e 3d af 6d e3 ba
       -0.0695081 -0.012907788 0.06936465 -0.0017351414
000140 02 53 10 bd f7 c1 1e bd 97 17 45 bd 71 77 f7 bc
       -0.035235412 -0.038759198 -0.0481182 -0.030208321
000150 e1 67 56 3d 97 fd 69 3d 27 c7 44 3c a5 c4 95 bb
       0.05234516 0.057126608 0.012010372 -0.004570561
000160 25 7c 49 3d 3e 3f 84 bc 93 fc 4e bd 1a 60 a0 3d
       0.04919066 -0.016143437 -0.050533842 0.0783083
000170 20 0f a3 3d df d4 24 bd 97 be 47 bd 10 41 9b bd
       0.07961869 -0.040242072 -0.048765745 -0.07580769
000180 39 47 5e bd 7a 0f b4 3d d7 bd b5 3d d0 1f 95 3d
       -0.054267142 0.087920144 0.088741 0.072814584
000190 a5 c6 ee bc df 95 04 bd d1 62 b5 bd dc 47 a0 3b
       -0.029147455 -0.03236949 -0.08856738 0.004891379
0001a0 b9 ad 37 bd fd 0e d2 bc b8 7c 87 3b 25 30 10 3c
       -0.04484341 -0.025641913 0.0041347407 0.008800541
0001b0 e1 90 33 bc c7 c9 f9 bc 7a 77 60 bd d2 bd 4e 3d
       -0.010959835 -0.030491723 -0.05480144 0.050473996
0001c0 cf c2 a3 3c 69 b5 36 3c 62 3d 9c 3d 22 b8 0c bd
       0.019990353 0.01115165 0.07628895 -0.03435529
0001d0 6b 73 96 3c aa 1c ca bd c2 50 a4 3d 60 e1 b2 bd
       0.018365582 -0.098687485 0.08023216 -0.08734393
0001e0 f5 9b 30 bd 62 1b 28 bd 12 8c 4f 3c 69 e3 72 bd
       -0.043117482 -0.04104174 0.012667673 -0.059298906
0001f0 1f 27 ea 3c e4 d3 72 bd 1c a6 25 bd e3 3e bc bc
       0.028583108 -0.059284106 -0.040441617 -0.022979205

encoder.conv3.nn.1.weight f4 [128]
000000 30 f6 78 3f 95 20 83 3f 1e 88 7d 3f 38 e2 80 3f
       0.9725065 1.0244318 0.99035823 1.0069036
000010 f7 d5 83 3f ca 76 77 3f 43 b3 75 3f f8 57 7b 3f
       1.0299672 0.9666563 0.95976657 0.98181105
000020 52 48 85 3f 05 4a 84 3f e2 dd 86 3f 66 f8 84 3f
       1.0412695 1.0335089 1.0536463 1.0388305
000030 76 d4 7b 3f 4c c5 7d 3f 03 1a 77 3f 53 d2 8a 3f
       0.98371065 0.99129176 0.96524066 1.0845436
000040 85 5b 81 3f 58 b6 86 3f 94 e6 7f 3f 61 1a 7e 3f
       1.0106055 1.0524397 0.9996121 0.99259
000050 e9 f2 78 3f 26 9a 82 3f 25 31 83 3f be 13 78 3f
       0.9724565 1.0203292 1.0249373 0.96905124
000060 a2 42 71 3f ad 2f 7a 3f ea b9 7a 3f 6b 6f 8e 3f
       0.942423 0.97729 0.9793993 1.1127752
000070 9a ff 83 3f 79 4e 80 3f f1 33 89 3f 47 e6 81 3f
       1.0312378 1.0023948 1.0718976 1.01484
000080 a1 57 7f 3f c1 f5 84 3f 9b 4c 80 3f 78 0a 81 3f
       0.99743086 1.0387498 1.0023378 1.008132
000090 07 95 7d 3f 58 37 80 3f bf 79 80 3f 22 46 78 3f
       0.9905552 1.001689 1.0037154 0.96982014
0000a0 f5 96 80 3f a4 b7 85 3f 73 40 80 3f c9 29 71 3f
       1.0046068 1.0446668 1.0019668 0.94204384
0000b0 1f ca 84 3f 60 a9 82 3f a3 4e 77 3f 07 a7 71 3f
       1.0374182 1.0207939 0.96604365 0.9439549
0000c0 e1 5f 80 3f e4 a8 87 3f 2b b3 82 3f 1e 6e 7f 3f
       1.002926 1.0598416 1.0210928 0.997774
0000d0 78 27 72 3f 3c 26 81 3f 9d 9d 81 3f 47 09 82 3f
       0.94591475 1.0089793 1.0126225 1.0159081
0000e0 bc 10 82 3f 9d 05 7d 3f d1 77 90 3f b1 54 81 3f
       1.0161357 0.9883669 1.1286565 1.0103971
0000f0 27 98 7b 3f 82 36 81 3f 72 8e 7b 3f ec 62 82 3f
       0.9827904 1.009476 0.9826423 1.0186439
000100 e7 96 83 3f 79 aa 8b 3f 73 32 82 3f 41 2b 84 3f
       1.0280427 1.0911399 1.0171646 1.03257
000110 c9 63 8e 3f 75 a4 7b 3f bd f9 84 3f 74 ce 7b 3f
       1.1124202 0.98297817 1.0388714 0.983619
000120 df 2e 86 3f 70 a1 82 3f cd 05 8a 3f 7b b0 81 3f
       1.0483054 1.0205517 1.078302 1.0131983
000130 73 10 7a 3f 8e 9e 74 3f e5 0e 7a 3f fb c4 83 3f
       0.9768135 0.95554435 0.9767898 1.0294489
000140 b6 3d 7c 3f 8c 58 81 3f 1d 18 87 3f 50 89 7f 3f
       0.98531663 1.0105147 1.0554234 0.998189
000150 78 7f 7e 3f f6 38 7b 3f d0 ec 81 3f ad ea 85 3f
       0.9941325 0.9813379 1.0150394 1.0462242
000160 86 2b 81 3f d0 0d 83 3f 70 08 7e 3f f7 4d 7a 3f
       1.0091407 1.023859 0.99231625 0.97775215
000170 6c f8 7d 3f 56 dc 6c 3f 2b f8 86 3f 1b 46 83 3f
       0.99207187 0.92523706 1.0544485 1.025577
000180 16 91 86 3f 82 2b 81 3f 80 8e 80 3f 87 40 80 3f
       1.0513027 1.0091403 1.0043488 1.0019692
000190 39 ab 7d 3f 80 d3 85 3f aa 26 71 3f 52 27 81 3f
       0.9908939 1.045517 0.9419962 1.0090125
0001a0 f1 6a 82 3f ee 8e 76 3f d6 d6 81 3f 1a 21 7f 3f
       1.0188886 0.96311843 1.0143688 0.99659884
0001b0 22 ad 86 3f 15 90 77 3f df 27 77 3f 19 30 80 3f
       1.0521586 0.96704227 0.96545213 1.0014678
0001c0 5b 9c 79 3f d7 92 72 3f 59 fa 82 3f df e6 80 3f
       0.97504205 0.9475531 1.023265 1.0070456
0001d0 cd 09 7e 3f 8c c2 73 3f 5b a8 80 3f 05 66 84 3f
       0.99233705 0.9521873 1.0051378 1.0343634
0001e0 09 ed 6e 3f 3c 1e 7d 3f 94 e7 84 3f 39 9c 7d 3f
       0.93330437 0.9887426 1.0383172 0.990665
0001f0 ac 86 82 3f a6 90 76 3f 35 53 72 3f b1 ab 7b 3f
       1.0197349 0.96314466 0.94658214 0.98308855

encoder.conv3.nn.1.bias f4 [128]
000000 20 b1 4a 3d 80 3b 6b 3d dc 2d b5 bc 23 25 12 3e
       0.049485326 0.05742979 -0.022116594 0.14271979
000010 b8 a0 83 3d 98 78 12 3d fe 46 30 3d 10 e8 eb bb
       0.06427139 0.03575954 0.043036453 -0.007199295
000020 ba 5f 13 bd 15 b1 e5 3d da 33 9a 3d 53 60 f7 3d
       -0.035979964 0.11215416 0.07529421 0.12078919
000030 8d d1 2e ba ac ec 5c bc ba de 88 3d 97 d5 33 3d
       -0.0006668799 -0.013484161 0.06683107 0.043904867
000040 28 ec ef 3d c2 8a 7b bc 48 ca 5b 3d e6 dc ef 3d
       0.11714965 -0.015352907 0.053659707 0.11712055
000050 81 1f 20 3d b6 f1 82 3d 35 e2 28 3d ae 90 e6 3b
       0.039092544 0.06393759 0.041231353 0.00703629
000060 72 8c f9 3d b5 82 b5 3d 36 58 c5 3b 5e 14 cf 3d
       0.12184991 0.08862821 0.0060224785 0.101113066
000070 91 2c 5f bd 67 2d 08 bb ef d0 9d 3c 19 b2 90 3c
       -0.05448586 -0.0020779015 0.019264666 0.017663049
000080 6b 23 a0 3d bb 73 80 bb 83 db 3d 3c 07 a6 f9 3d
       0.078192554 -0.003920046 0.01158798 0.1218987
000090 7b 32 94 3d 16 ec 78 3d 4d 58 74 3c f6 48 bd ba
       0.07236191 0.060772024 0.014913631 -0.00144413
0000a0 9b 73 97 3b bf 81 d9 3d 53 23 ad 3d 21 96 31 bd
       0.0046219355 0.1062045 0.08454003 -0.043356065
0000b0 16 d8 03 3e f0 7c 2e bc 51 fd 56 bd 1b e2 41 ba
       0.12875399 -0.010649905 -0.052487675 -0.0007396058
0000c0 5e 42 42 bb 98 2a 87 3c 2f 4b 5a 3d 6d 17 0c 3c
       -0.0029641609 0.016499802 0.053294357 0.008550507
0000d0 23 70 69 3c 2b 9d 80 3d b1 2a 7e 3d 86 1b 22 3d
       0.014247927 0.062799774 0.062052432 0.03957703
0000e0 3d a1 bb 3d 20 55 dd bc e3 34 12 3e e8 8a 3a 3d
       0.09161613 -0.02701813 0.14277987 0.045542628
0000f0 d9 64 85 3d 3b 3a 1a 3d db c8 2c 3d 73 a6 7e 3d
       0.06513376 0.03765319 0.04218374 0.062170457
000100 c4 2b 98 3d 86 9f d7 3d 40 65 4c 3d 0c d7 94 3d
       0.07430223 0.105284736 0.049901247 0.072675794
000110 50 0a 8f 3d 2a 3a a1 bc 9e a3 1b bd c2 06 d4 3c
       0.06984389 -0.019681055 -0.037997834 0.025882129
000120 7d 1e 02 bd a8 63 38 3d 9b 71 d3 3d 4e ea 93 3d
       -0.031767357 0.045016915 0.10324403 0.072224244
000130 e6 8c 4a 3d 82 e7 66 3d ab 9e 25 3d 2f 5c 89 3d
       0.049450777 0.056373127 0.04043452 0.06707036
000140 85 ee 35 3d a1 a0 40 3d 15 e7 fe 3d 76 1d a2 3d
       0.044416923 0.047028188 0.12446419 0.079157755
000150 5b c5 98 3c f7 d0 d9 3d 28 a7 f1 3c 52 87 3f 3d
       0.018648794 0.1063556 0.029498652 0.04675991
000160 e8 0b 1a 3d 0d 5a b4 3d b1 5a 47 bd 22 07 29 3d
       0.03760901 0.08806238 -0.048670474 0.041266568
000170 6d 0f d7 3d e8 94 50 3d 37 22 fe 3d 82 2c 85 3c
       0.10500989 0.050923258 0.1240887 0.016256575
000180 a9 2c ad 3d 91 b8 46 bd 76 d6 18 3d 85 c5 ca 3c
       0.08455784 -0.04851586 0.0373139 0.024752388
000190 a0 fb c9 3c 3e 5f 1f 3e 6d 16 93 bc ea 44 9b 3d
       0.024656117 0.15563676 -0.01795503 0.07581504
0001a0 ca aa bf 3c a9 3b 18 bc af 82 7d bc f5 b2 d7 3c
       0.023396868 -0.009291568 -0.015473052 0.02633045
0001b0 8f 5e 80 3d 3d 6b cc 3d f4 28 3c 3d 32 85 3a bd
       0.062680356 0.099813916 0.045937493 -0.04553718
0001c0 24 4d 9d 3c d2 b4 e9 bc 7a b7 93 3d 58 3d a8 3d
       0.019201823 -0.028528605 0.0721273 0.082148254
0001d0 ff 26 f1 3b 76 73 60 bc 7a 40 94 3d 3d 1d 1e 3e
       0.007359385 -0.013699403 0.072388604 0.15440841
0001e0 fd 89 af 3d a6 2c 55 3c c7 00 a0 bc fd 31 c6 3a
       0.08571241 0.013011133 -0.01953162 0.0015121099
0001f0 5a b4 ae 3c fc 13 1d 3c 94 93 b3 ba c1 56 60 3d
       0.021326233 0.009587284 -0.0013700598 0.054770235
