models/roof_segmentation_dgcnn_20251209_da_rs.pth (torch, 378222 bytes, 42 tensors)

encoder.conv1.nn.0.weight f4 [64, 12]
-0.014016574 -0.11573463 0.44551915 -0.16368805 0.1967913 0.099584915 -0.17699215 -0.22164378
-0.2398835 -0.050177246 -0.07338566 -0.18042186 -0.19168155 0.09863985 0.10104659 -0.007969939
0.048495375 -0.16183858 0.106555894 -0.021697639 -0.25403824 0.052150726 -0.15362534 -0.22299081
-0.11749051 0.10008369 -0.08071419 0.019935267 -0.22122134 0.06551187 0.23507896 0.27294967
-0.24083005 0.036531243 0.18388896 0.0077002426 -0.1770363 0.02937961 -0.015654352 0.12499582
0.22078045 0.16287269 -0.2754657 -0.0068051806 0.040071968 -0.15568176 0.045014545 0.16720438
-0.23320891 -0.30445898 0.18541439 0.124738805 -0.0021750024 -0.20378904 -0.124427505 -0.03386576
0.035204418 -0.19461115 0.117654525 -0.12215522 0.04595856 -0.0128973685 -0.23726217 -0.20142126
-0.054315157 0.037089437 -0.102761485 -0.23592135 -0.20434184 -0.018706493 -0.09508038 0.036372885
0.28142616 -0.23024185 0.026239842 0.25103202 -0.28319424 0.05567946 -0.22444996 -0.13036923
0.16489333 0.2637302 -0.19444552 -0.055914927 -0.18840142 -0.15142529 -0.2388288 0.057983518
0.11236623 0.22491959 0.020750597 -0.08986486 -0.1263618 -0.010606126 -0.27058744 0.08605302
-0.23806384 0.19258787 -0.20389532 -0.08164906 0.16976489 0.15375267 -0.1863363 0.16533063
-0.26916802 0.14818534 0.33365732 -0.10004691 0.06636856 0.24069737 -0.024834814 0.29336718
0.28447238 0.15104899 0.25244522 -0.034694918 -0.06802172 -0.03390508 0.25381812 -0.037825778
0.06396594 0.23999602 0.09845745 -0.06011127 -0.07825168 -0.2194771 0.11067773 -0.23605669
0.22635937 -0.10430042 -0.159689 0.05023709 0.061676327 0.06167328 -0.29674855 -0.15279447
-0.086159654 0.20256674 0.040847067 0.05974975 -0.27700138 0.18504553 0.07739961 -0.19955227
0.051891316 0.21800108 0.31948754 -0.25842392 -0.2522258 0.1583944 -0.025752066 -0.2962363
0.25607595 -0.03491617 0.22678535 0.2061128 0.17262183 0.0110892905 0.27775872 0.15627748
-0.19718157 -0.24721013 0.23985247 -0.11717341 0.113252744 0.20732512 -0.26789063 0.24916415
0.10357517 0.04280579 0.17869753 -0.2791956 -0.27635983 0.22740422 0.021846201 0.014166312
0.011818161 0.13142288 0.2027926 0.24317917 -0.21305297 -0.11642276 0.2935151 -0.2466045
0.24890745 0.13376732 0.052517172 0.07434787 0.015367828 -0.10704605 0.23647112 -0.19056043
0.1280075 -0.058808617 -0.077899486 0.18785404 0.09654338 -0.005286967 0.07253439 -0.28665167
0.11699584 0.05932264 -0.07767887 0.03438589 -0.2220003 0.22906667 -0.31614977 -0.19642529
-0.2769114 0.14544089 -0.15505855 0.122680955 -0.15143754 -0.15167767 -0.049607348 -0.11669676
-0.20911497 -0.17762949 0.26725736 -0.025194256 0.032097522 -0.15120769 0.19584736 0.13620317
0.12674184 0.08704531 -0.17096502 0.124765955 0.21376781 -0.2589552 0.16937874 0.21429889
0.14365359 0.132811 -0.014557807 -0.020988608 0.12030107 0.2686639 0.070131466 0.024927396
-0.15940133 -0.04821948 -0.039928615 0.2426886 0.24499632 -0.076630615 -0.14790846 -0.0037112404
-0.208121 0.12415059 -0.03127637 0.17717001 0.03281802 -0.23135917 -0.25062376 0.11151809
00000000: c6a5 65bc 4706 edbd 161b e43e d79d 27be
00000010: a983 493e 2df3 cb3d 6e3d 35be 96f6 62be
00000020: 05a4 75be a886 4dbd 394b 96bd 82c0 38be
00000030: 2b48 44be b103 ca3d 84f1 ce3d 5994 02bc
00000040: 16a3 463d 03b9 25be fa39 da3d 3fbf b1bc
00000050: 4d11 82be 009c 553d f64f 1dbe b457 64be
00000060: dd9e f0bd adf8 cc3d 7b4d a5bd 494f a33c
00000070: d987 62be 162b 863d 8ab8 703e 0fc0 8b3e
00000080: 279c 76be c9a1 153d 634d 3c3e 5152 fc3b
00000090: 0149 35be 82ad f03c 8e3d 80bc cffd ff3d
000000a0: 4514 623e 19c8 263e d709 8dbe fefd debb
000000b0: 8122 243d 0a6b 1fbe 2c61 383d a037 2b3e
000000c0: 51ce 6ebe 0ce2 9bbe 45dd 3d3e 0f77 ff3d
000000d0: 7c8a 0ebb 13ae 50be d9d3 febd d3b6 0abd
000000e0: 8232 103d 2548 47be dbf4 f03d 842c fabd
000000f0: 0b3f 3c3d 7c4f 53bc dbf4 72be 6041 4ebe
00000100: 9279 5ebd 18eb 173d 9d74 d2bd 5e95 71be
00000110: fd3e 51be 5c3e 99bc 81b9 c2bd bcfb 143d
00000120: 1717 903e 85c4 6bbe f0f4 d63c 4587 803e
00000130: d6fe 90be 2510 643d 36d6 65be 837f 05be
00000140: ccd9 283e a507 873e ba1c 47be 0d07 65bd
00000150: 4dec 40be 3b0f 1bbe 898f 74be 2080 6d3d
00000160: 4420 e63d 5251 663e 28fd a93c 110b b8bd
00000170: fd64 01be 51c5 2dbc 708a 8abe 913c b03d
00000180: 02c7 73be c135 453e efc9 50be 9f37 a7bd
00000190: d9d6 2d3e 5771 1d3e f1ce 3ebe 6f4c 293e
000001a0: 64d0 89be e6bd 173e 22d5 aa3e 65e5 ccbd
000001b0: 3dec 873d 5f79 763e 6172 cbbc 3934 963e
000001c0: 5da6 913e 96ac 1a3e 8040 813e 421c 0ebd
000001d0: f94e 8bbd 0ee0 0abd 73f4 813e 34ef 1abd
000001e0: 9300 833d 84c1 753e 0fa4 c93d 3c37 76bd
000001f0: 6b42 a0bd 9bbe 60be 01ab e23d d8b8 71be
00000200: c0ca 673e 759b d5bd 8385 23be 68c5 4d3d
00000210: 51a0 7c3d 1f9d 7c3d 6def 97be 2776 1cbe
00000220: 7974 b0bd a86d 4f3e 414f 273d 27bc 743d
00000230: 20d3 8dbe 937c 3d3e b083 9e3d 6e57 4cbe
00000240: fd8b 543d ad3b 5f3e df93 a33e 2450 84be
00000250: bd23 81be 2432 223e fff5 d2bc 49ac 97be
00000260: 631c 833e 4204 0fbd 6b3a 683e 3c0f 533e
00000270: c7c3 303e dbaf 353c 6436 8e3e 3407 203e
00000280: f7e9 49be a724 7dbe e39b 753e 9df8 efbd
00000290: 0ef1 e73d 094d 543e f628 89be e324 7f3e
000002a0: 381f d43d 2055 2f3d 7cfc 363e baf2 8ebe
000002b0: 097f 8dbe a7dc 683e cef6 b23c d219 683c
000002c0: f6a0 413c b893 063e dda8 4f3e f603 793e
000002d0: 8f2a 5abe 0e6f eebd 9c47 963e e485 7cbe
000002e0: 98e1 7e3e 4dfa 083e 3f1c 573d b243 983d
000002f0: 58c9 7b3c f63a dbbd 7c25 723e 4622 43be
00000300: 6614 033e 4ee1 70bd c489 9fbd cf5c 403e
00000310: 89b8 c53d 4b3e adbb e98c 943d 02c4 92be
00000320: 849b ef3d 4cfc 723d 1916 9fbd 38d8 0c3d
00000330: 0c54 63be 7490 6a3e 62de a1be b623 49be
00000340: 55c7 8dbe 75ee 143e abc7 1ebe 2740 fb3d
00000350: 7112 1bbe 6451 1bbe 1331 4bbd b6fe eebd
00000360: 3c22 56be 81e4 35be f5d5 883e 2f64 cebc
00000370: b178 033d 30d6 1abe 368c 483e d878 0b3e
00000380: 9dc8 013e d044 b23d 7411 2fbe 4b85 ff3d
00000390: f3e5 5a3e c795 84be 9f71 2d3e 2b71 5b3e
000003a0: ed19 133e 9bff 073e de83 6ebc 4df0 abbc
000003b0: 6860 f63d 518e 893e 16a1 8f3d 8a34 cc3c
000003c0: 1a3a 23be ca81 45bd 308c 23bd 5c83 783e
000003d0: 51e0 7a3e 83f0 9cbd 5175 17be 4838 73bb
000003e0: ac1d 55be aa42 fe3d a71b 00bd 0e6c 353e
000003f0: 306c 063d 6be9 6cbe c251 80be 9963 e43d

encoder.conv1.nn.0.bias f4 [64]
0.23172252 -0.2548384 0.17528723 0.052608017 0.021359272 0.28507638 -0.26633993 -0.06968589
0.21492377 0.25400046 0.099007286 0.16763523 0.15619098 0.24507827 0.09372522 -0.024520693
0.10548543 0.16586119 0.058978684 0.016313931 -0.12703507 -0.13338633 -0.17071481 -0.17944007
-0.20797662 0.15845051 0.09542466 -0.21420252 -0.1685826 0.15087906 0.016921796 0.12637913
0.2569807 -0.1775389 -0.16031095 -0.24682802 -0.08720989 0.018967552 -0.0021027836 0.17604515
-0.06978966 -0.061712455 -0.11912351 -0.08947975 0.2027579 0.23713939 -0.1786541 -0.13369252
0.1541499 -0.122439206 0.26942122 0.2713381 0.23649223 -0.09440903 -0.091892466 -0.09950633
0.013216959 -0.05920466 -0.22381517 -0.062177498 -0.096538566 -0.020499364 0.15010571 0.2467975
00000000: ab48 6d3e 2e7a 82be 7f7e 333e 817b 573d
00000010: a4f9 ae3c 88f5 913e b55d 88be 7ab7 8ebd
00000020: fa14 5c3e 590c 823e 55c4 ca3d 92a8 2b3e
00000030: 87f0 1f3e ccf5 7a3e 02f3 bf3d 9fdf c8bc
00000040: bf08 d83d 84d7 293e a293 713d cba4 853c
00000050: 7b15 02be 6d96 08be ddcf 2ebe 23bf 37be
00000060: d3f7 54be da40 223e 016e c33d e857 5bbe
00000070: eba0 2cbe 0a80 1a3e 949f 8a3c 8869 013e
00000080: f992 833e c2cc 35be 8e28 24be 7cc0 7cbe
00000090: 199b b2bd d761 9b3c dbce 09bb 2e45 343e
000000a0: e2ed 8ebd 33c6 7cbd 07f7 f3bd 2941 b7bd
000000b0: c49f 4f3e abd4 723e 1af1 36be b1e6 08be
000000c0: 79d9 1d3e 68c1 fabd 94f1 893e d4ec 8a3e
000000d0: 052b 723e 8659 c1bd 1e32 bcbd fac9 cbbd
000000e0: f28b 583c 9680 72bd ce2f 65be d5ad 7ebd
000000f0: 03b6 c5bd 48ee a7bc 50b5 193e 7cb8 7c3e

encoder.conv1.nn.1.weight f4 [64]
1.0264683 1.0035478 0.98640466 0.99343544 0.97699606 1.0374069 1.0101829 0.984243
1.0006812 1.0164639 0.9796246 1.0237149 1.0013058 1.0028392 0.99194396 0.9998962
1.0021358 1.008724 1.0086261 1.0007174 1.0219148 1.0086193 0.99093974 0.9704364
1.0372634 0.9881605 0.99456316 0.9861366 1.002647 1.0309904 0.9997782 0.9996959
0.98271155 1.00064 1.0188235 1.0262332 0.9605068 0.98791134 0.99905896 0.9997764
1.0061121 1.0007898 0.99950135 0.98358554 0.9927037 0.9997599 1.0025233 0.9978029
0.98402363 0.9975757 0.9855871 0.97657466 0.98177725 1.0292939 1.0244594 1.0022935
1.0057356 1.0093582 1.0301474 1.015297 0.9918593 0.9896618 0.9565618 0.9656895
00000000: 5063 833f 4174 803f 0485 7c3f c951 7e3f
00000010: 6a1c 7a3f c0c9 843f ac4d 813f 59f7 7b3f
00000020: 5216 803f 7d1b 823f aec8 7a3f 1709 833f
00000030: ca2a 803f 095d 803f 0af0 7d3f 33f9 7f3f
00000040: fc45 803f de1d 813f a91a 813f 8217 803f
00000050: 1bce 823f 701a 813f 3aae 7d3f 856e 783f
00000060: 0cc5 843f 16f8 7c3f b19b 7e3f 7373 7c3f
00000070: bd56 803f 7ef7 833f 77f1 7f3f 12ec 7f3f
00000080: fc92 7b3f f914 803f cf68 823f 9c5b 833f
00000090: c6e3 753f c2e7 7c3f 54c2 7f3f 59f1 7f3f
000000a0: 48c8 803f e119 803f 52df 7f3f 43cc 7b3f
000000b0: d421 7e3f 44f0 7f3f af52 803f 0370 7f3f
000000c0: f9e8 7b3f 1f61 7f3f 704f 7c3f cc00 7a3f
000000d0: c155 7b3f e7bf 833f 7c21 833f 274b 803f
000000e0: f2bb 803f a632 813f dfdb 833f 41f5 813f
000000f0: 7eea 7d3f 7a5a 7d3f 3ce1 743f 6d37 773f

encoder.conv1.nn.1.bias f4 [64]
0.05541462 0.0020811916 0.0011183337 0.007969209 -0.004358164 0.10968072 -0.01418338 -0.008085408
0.0037275807 0.016014079 0.007218946 -0.0034647293 0.014810437 0.018533563 0.01570237 -0.010577896
0.004630667 0.0023177387 0.019334752 -0.0063724224 0.012869232 0.041685548 0.0021204047 -0.025873318
0.12327932 -0.03262394 0.05639253 -0.0019449188 0.02945548 0.022245253 0.008752325 0.0014553836
-0.018708287 0.0287249 -0.009792707 0.05815233 -0.022028016 0.01025692 0.021568635 0.01717113
0.033031024 -0.01819674 0.00013481716 -0.018605106 0.025097746 0.03162853 0.0017931112 -0.0001432209
-0.016667746 -0.014525702 -0.009457475 0.02836197 0.012362735 0.09300228 0.035663728 -0.013542755
-0.00599798 0.0058181523 0.022024542 0.06498188 -0.010067793 0.0014622819 -0.056033645 -0.028445171
00000000: 71fa 623d 9a64 083b 0d95 923a 4991 023c
00000010: eece 8ebb 49a0 e03d 6861 68bc a978 04bc
00000020: 6d4a 743b f52f 833c e88c ec3b 8310 63bb
00000030: 7aa7 723c b3d3 973c 42a2 803c e94e 2dbc
00000040: dabc 973b 34e5 173b ea63 9e3c c1cf d0bb
00000050: 79d9 523c 77be 2a3d 7df6 0a3b 48f4 d3bc
00000060: de79 fc3d aea0 05bd dbfb 663d a5ec feba
00000070: 9e4c f13c ad3b b63c e965 0f3c 92c2 be3a
00000080: 1f42 99bc 7b50 eb3c 9771 20bc 2331 6e3d
00000090: 1974 b4bc a40c 283c b5b0 b03c 78aa 8c3c
000000a0: 8a4b 073d 5411 95bc b55d 0d39 bc69 98bc
000000b0: ca99 cd3c eb8c 013d d406 eb3a 912d 16b9
000000c0: cc8a 88bc 36fd 6dbc 86f3 1abc 5d57 e83c
000000d0: 128d 4a3c fb77 be3d 2114 123d 6ee2 5dbc
000000e0: b48a c4bb 33a6 be3b d06c b43c 3815 853d
000000f0: 62f3 24bc 0aaa bf3a 8983 65bd d905 e9bc

encoder.conv1.nn.1.running_mean f4 [64]
0.32642362 -0.4079967 0.23713589 0.20740743 -0.1714004 0.31985795 -0.213363 0.14297158
0.36144903 0.3986554 -0.10990223 0.3586865 0.30600354 0.009793235 0.30898014 0.10346802
0.10078516 0.3029657 -0.08493657 0.14412929 -0.20001404 -0.065734215 0.049590465 -0.4595238
-0.08245857 0.12861235 -0.1315012 -0.20335974 0.1204169 0.27795592 0.23259124 0.11257119
0.3979312 -0.24832357 -0.06955222 -0.22534174 -0.023511598 0.16679713 0.15529282 0.107743695
-0.23165132 -0.04870679 -0.36207515 0.08869943 0.32586086 0.48608032 -0.013064939 0.04910559
0.35328737 -0.09921519 0.25638184 0.16517985 0.12959649 -0.17020054 -0.19276157 -0.17329337
0.26623672 -0.27704376 -0.12462797 0.07674922 0.04593116 0.020050906 0.08542889 0.45639968
00000000: ff20 a73e f2e4 d0be c0d3 723e 9d62 543e
00000010: 9683 2fbe 6cc4 a33e d57b 5abe 2467 123e
00000020: d90f b93e 901c cc3e 6c14 e1bd c2a5 b73e
00000030: 7fac 9c3e ce73 203c a532 9e3e 0be7 d33d
00000040: 7368 ce3d 521e 9b3e 39f3 adbd a196 133e
00000050: 7bd0 4cbe a99f 86bd 5f1f 4b3d b446 ebbe
00000060: 0ae0 a8bd f5b2 033e 40a8 06be 893d 50be
00000070: 239d f63d 3d50 8e3e 662c 6e3e b98b e63d
00000080: a3bd cb3e 8948 7ebe 6571 8ebd fcbf 66be
00000090: 659b c0bc decc 2a3e 1505 1f3e baa8 dc3d
000000a0: 0136 6dbe c580 47bd ea61 b9be 0ca8 b53d
000000b0: 3cd7 a63e 85df f83e 530e 56bc f122 493d
000000c0: 15e2 b43e 5531 cbbd 7b44 833e e824 293e
000000d0: f1b4 043e 0d49 2ebe 4a63 45be d173 31be
000000e0: 2e50 883e aed8 8dbe f33c ffbd b22e 9d3d
000000f0: 5022 3c3d cc41 a43c 58f5 ae3d 38ad e93e

encoder.conv1.nn.1.running_var f4 [64]
0.0039217137 0.0040745493 0.0028200166 0.004405376 0.0103235915 0.0020365103 0.02420089 0.0038488961
0.011631768 0.017351901 0.004331572 0.0016994409 0.006854781 0.0071967924 0.0062652216 0.012128563
0.004700058 0.012146414 0.006067242 0.012310122 0.0046552722 0.012983828 0.0027410607 0.0021389453
0.0015818382 0.007299725 0.0058153863 0.0053054863 0.0019113238 0.0067405254 0.008357566 0.0046630246
0.010139538 0.0063742064 0.0039921924 0.0048139533 0.008170234 0.0035870334 0.0041086045 0.0048808237
0.0024152736 0.010350052 0.0018709288 0.0053043137 0.0013507353 0.009269337 0.010320523 0.0036866525
0.0059393547 0.013931577 0.00848377 0.002211571 0.0064110747 0.004522046 0.0063155126 0.014687495
0.004570641 0.011332489 0.009787676 0.0016321974 0.0057291226 0.007931207 0.009563798 0.013390142
00000000: b881 803b cc83 853b 07d0 383b f95a 903b
00000010: 4824 293c f976 053b f240 c63c c33d 7c3b
00000020: 2c93 3e3c 9325 8e3c dcef 8d3b c6bf de3a
00000030: 129e e03b 12d3 eb3b 7d4c cd3b e1b6 463c
00000040: f202 9a3b c101 473c b7cf c63b 65b0 493c
00000050: 418b 983b 1fba 543c 5ea3 333b 8c2d 0c3b
00000060: af55 cf3a 8832 ef3b ff8e be3b a5d9 ad3b
00000070: 6285 fa3a a0df dc3b 2cee 083c 49cc 983b
00000080: 4e20 263c b8de d03b f0d0 823b 5ebe 9d3b
00000090: 72dc 053c 6f14 6b3b 79a1 863b 51ef 9f3b
000000a0: 9149 1e3b 4493 293c f439 f53a cfcf ad3b
000000b0: 280b b13a 6bde 173c 6917 293c c49b 713b
000000c0: eb9e c23b 4541 643c 83ff 0a3c 01f0 103b
000000d0: fe13 d23b ac2d 943b 5cf2 ce3b d2a3 703c
000000e0: 51c5 953b e7ab 393c 7d5c 203c 75ef d53a
000000f0: 5dbb bb3b e5f1 013c 7ab1 1c3c 5362 5b3c

encoder.conv2.nn.0.weight f4 [64, 128]
-0.028155573 -0.04556954 0.017445581 0.03158275 -0.0059284987 0.07372984 -0.026215915 -0.036852397
-0.016315214 -0.053719092 0.02915746 -0.0010582438 0.08957666 -0.008537291 0.118667126 0.040975723
-0.091736965 0.0059813377 0.08409732 0.05561603 -0.0032787214 -0.007229978 -0.0141643835 -0.0034671647
-0.09518451 -0.054803118 0.008351064 0.007880909 0.023395099 0.08212291 -0.061737448 -0.037000638
0.007444502 0.008433262 0.075088345 -0.054369617 0.049173765 0.050446395 0.063749984 0.05165236
0.01604383 0.0068411827 0.081491165 -0.013711652 0.0075773126 -0.030237349 -0.04497571 0.042184535
0.009305527 0.050150648 -0.072145045 0.03828798 0.077577874 0.02339981 -0.0057594744 0.022402862
-0.02079518 0.040721867 0.10691076 -0.01685959 0.029702483 0.07251838 -0.005906265 0.005275582
0.015378111 -0.06112515 0.066586435 -0.055184174 -0.028007573 -0.054397833 -0.009427143 -0.0009746258
-0.0013914215 0.04485157 -0.05421074 0.028692659 -0.06754652 -0.07836284 0.06721116 0.053571165
-0.049332578 -0.059420437 -0.100099266 0.056608107 -0.053715143 -0.04495854 -0.098601304 0.037863202
0.08508577 -0.054300476 -0.019416953 0.025896192 0.01698689 0.039314978 -0.025367707 -0.049852725
0.069557175 0.041416496 0.012518696 -0.053699657 0.09140866 0.0005565975 0.08565433 0.052591268
0.06901098 -0.051305056 0.080282256 -0.012417904 -0.0436192 -0.035955682 -0.054256506 -0.017281141
0.06564468 0.034506638 0.028397042 0.012422618 -0.022769652 0.0127612185 0.048378397 0.079839624
-0.00393043 -0.022765845 -0.05197998 -0.019443562 -0.007741411 -0.02247192 -0.011771896 0.031523705
0.0290508 0.024189213 -0.018933976 -0.042254098 -0.12837662 0.0951928 -0.013288963 -0.025466442
-0.08199112 -0.08043399 0.0929381 0.048628073 -0.043692477 -0.07038603 0.0030161769 -0.06558911
-0.01663269 -0.026218018 -0.08744068 0.02510252 -0.054301336 0.04545515 -0.08157406 -0.015823577
-0.07777706 0.02053847 0.071019426 0.046290435 0.06908122 -0.05561053 -0.03453695 -0.062242698
0.014327774 -0.08014736 0.004975922 0.01035246 0.0122342715 0.02381656 -0.047137003 -0.010340559
-0.06232925 -0.02432525 -0.0709869 0.064058304 0.07238274 0.021049356 -0.114929825 -0.04310396
-0.09763065 -0.07184723 0.009182995 -0.0020372996 0.026101476 0.025582887 0.06059238 0.020968309
-0.05315491 -0.059753742 -0.0101033775 -0.022282341 0.011519374 -0.072010055 0.05772302 0.06676645
0.033499632 -0.045921795 -0.06583877 0.029676955 -0.068953834 -0.03888378 -0.027453465 -0.0065144855
-0.13437855 0.051492766 0.05486409 -0.037671905 0.049191475 0.02127628 -0.022605645 0.04759363
0.051086593 0.029605843 -0.023106478 -0.030292802 -0.017746186 0.01618027 -0.0807444 -0.020460686
-0.06503834 -0.033867292 -0.08237347 0.04994249 -0.021024276 0.009212798 -0.104742564 0.089755505
-0.08268556 -0.071461454 -0.0044364063 0.08665501 0.046723522 -0.065409526 -0.065315135 0.054692842
0.010102149 -0.010154512 0.042054534 -0.030012215 -0.004329033 0.060998753 -0.044676222 -0.029663159
0.040307887 0.020654172 -0.07601966 -0.010006335 -0.08041843 -0.039769206 0.073255524 -0.018930621
-0.0535299 0.04793758 0.015220873 -0.09395201 -0.060151886 0.014546309 0.036475662 -0.047094636
00000000: 84a6 e6bc 20a7 3abd 09ea 8e3c ea5c 013d
00000010: da43 c2bb acff 963d c2c2 d6bc 8af2 16bd
00000020: 7ca7 85bc 8d08 5cbd a0db ee3c c5b4 8aba
00000030: f873 b73d fedf 0bbc c007 f33d 29d6 273d
00000040: 97e0 bbbd 19ff c33b 373b ac3d a2cd 633d
00000050: d1df 56bb 74e9 ecbb bb11 68bc 5f39 63bb
00000060: 19f0 c2bd 3c79 60bd e7d2 083c ee1e 013c
00000070: 14a7 bf3c 0e30 a83d 68e0 7cbd fb8d 17bd
00000080: 02f1 f33b aa2b 0a3c ebc7 993d adb2 5ebd
00000090: 6e6a 493d e1a0 4e3d 5a8f 823d 6d91 533d
000000a0: 5a6e 833c 002c e03b d7e4 a63d d6a6 60bc
000000b0: 1b4b f83b 51b4 f7bc 7338 38bd b1c9 2c3d
000000c0: 3676 183c c46a 4d3d c8c0 93bd dbd3 1c3d
000000d0: 26e1 9e3d f5b0 bf3c f9b9 bcbb 3586 b73c
000000e0: a75a aabc f9cb 263d 07f4 da3d 1f1d 8abc
000000f0: 9f52 f33c 8484 943d 5889 c1bb cade ac3b
00000100: 79f4 7b3c 5e5e 7abd 785e 883d cd08 62bd
00000110: 2370 e5bc 43d0 5ebd 4e74 1abc 087e 7fba
00000120: 5c60 b6ba 48b6 373d 150c 5ebd de0c eb3c
00000130: d455 8abd b27c a0bd 01a6 893d 706d 5b3d
00000140: f510 4abd d862 73bd d800 cdbd e7dd 673d
00000150: 6904 5cbd 7226 38bd 7bef c9bd 7216 1b3d
00000160: 7341 ae3d 2d6a 5ebd 4d10 9fbc 4024 d43c
00000170: 1728 8b3c be08 213d f0cf cfbc 5f32 4cbd
00000180: fe73 8e3d 58a4 293d 371b 4d3c 2cf4 5bbd
00000190: 7734 bb3d a0e8 113a 8a6b af3d f169 573d
000001a0: a155 8d3d 4025 52bd 066b a43d 7774 4bbc
000001b0: 0caa 32bd 4446 13bd 123c 5ebd 2e91 8dbc
000001c0: b870 863d d556 0d3d eaa0 e83c 3d88 4b3c
000001d0: 6c87 babc 6e14 513c 6d28 463d f582 a33d
000001e0: d6ca 80bb 707f babc f6e8 54bd 1b48 9fbc
000001f0: aaab fdbb 0817 b8bc e9de 40bc 001f 013d
00000200: f1fb ed3c 7528 c63c 6d1b 9bbc a212 2dbd
00000210: 2975 03be 71f4 c23d f3b9 59bc 009f d0bc
00000220: f6ea a7bd 93ba a4bd 5556 be3d 3b2e 473d
00000230: e2f6 32bd 8d26 90bd 0dab 453b 9553 86bd
00000240: 4741 88bc 2bc7 d6bc 1914 b3bd cda3 cd3c
00000250: 146b 5ebd 2e2f 3a3d 4d10 a7bd 72a0 81bc
00000260: 9449 9fbd 4b40 a83c a272 913d 0a9b 3d3d
00000270: 747a 8d3d dec7 63bd 9e76 0dbd 33f2 7ebd
00000280: 0abf 6a3c 4d24 a4bd 0f0d a33b 5d9d 293c
00000290: 4172 483c f21a c33c bb12 41bd 736b 29bc
000002a0: f54c 7fbd bf45 c7bc 9461 91bd 0031 833d
000002b0: 673d 943d b36f ac3c 5460 ebbd c78d 30bd
000002c0: 94f2 c7bd a424 93bd 4674 163c 3784 05bb
000002d0: c3d2 d53c 3493 d13c b72f 783d bbc5 ab3c
000002e0: f7b8 59bd 57c0 74bd a388 25bc 7589 b6bc
000002f0: c2bb 3c3c 027a 93bd f96e 6c3d d9bc 883d
00000300: e936 093d 7e18 3cbd 7ad6 86bd 161d f33c
00000310: ab37 8dbd 9944 1fbd 17e6 e0bc 7777 d5bb
00000320: 889a 09be 14ea 523d 2bb9 603d db4d 1abd
00000330: 007d 493d 984b ae3c 792f b9bc 8af1 423d
00000340: 2d40 513d f487 f23c cc49 bdbc 9c28 f8bc
00000350: 7360 91bc 7c8c 843c 525d a5bd 2b9d a7bc
00000360: d232 85bd 6eb8 0abd 6cb3 a8bd 7f90 4c3d
00000370: 1a3b acbc 47f1 163c 4583 d6bd bcd1 b73d
00000380: 0c57 a9bd 625a 92bd 465f 91bb 2f78 b13d
00000390: 2a61 3f3d 6ef5 85bd f1c3 85bd 9a05 603d
000003a0: 7c83 253c 1c5f 26bc 6041 2c3d 2ddc f5bc
000003b0: 90da 8dbb d4d9 793d 6afe 36bd 2700 f3bc
000003c0: e219 253d f032 a93c 32b0 9bbd 9cf1 23bc
000003d0: 6bb2 a4bd 09e5 22bd fe06 963d 6414 9bbc
000003e0: 2b42 5bbd 325a 443d f860 793c e969 c0bd
000003f0: d361 76bd a453 6e3c 8167 153d 4ee6 40bd

encoder.conv2.nn.0.bias f4 [64]
-0.037987094 -0.010929675 0.060575318 0.06635206 -0.06304647 0.06599538 0.0370004 -0.062240474
-0.036736317 -0.08420939 0.017234813 0.08209171 0.03753622 0.049351167 0.06774256 -0.0670049
-0.04722511 0.069409944 -0.049193107 0.073122166 0.07127214 0.08053389 0.010540975 0.042788375
0.06117388 -0.00031761645 -0.026435025 -0.004988159 -0.0006585638 -0.05623951 0.018241119 0.04822996
-0.10476785 -0.044646885 0.10350212 0.090445735 0.068976134 -0.022516962 0.08360001 0.030777024
0.010793485 -0.037585285 0.03927737 0.033302613 0.021895105 0.02696603 -0.038899824 0.07177894
0.07936901 -0.06716416 -0.002859482 -0.08822221 0.056168314 0.015634652 0.015614549 0.035444893
-0.053211603 -0.079487525 0.03703272 0.08235556 -0.08766182 -0.0045489655 0.050757397 -0.09942731
00000000: 5b98 1bbd 6112 33bc d31d 783d 97e3 873d
00000010: 821e 81bd 9628 873d bb8d 173d deef 7ebd
00000020: d278 16bd f975 acbd 0630 8d3c b31f a83d
00000030: 94bf 193d 7324 4a3d 9cbc 8a3d dd39 89bd
00000040: 1e6f 41bd cd26 8e3d b67e 49bd 13c1 953d
00000050: 21f7 913d f4ee a43d 0eb4 2c3c dd42 2f3d
00000060: 7691 7a3d c285 a6b9 448e d8bc b673 a3bb
00000070: 78a3 2cba 675b 66bd 666e 953c c78c 453d
00000080: 8790 d6bd a7df 36bd ebf8 d33d 9d3b b93d
00000090: 5c43 8d3d 7e75 b8bc 7b36 ab3d 1920 fc3c
000000a0: 28d7 303c 07f3 19bd 4fe1 203d 5268 083d
000000b0: 5d5d b33c dde7 dc3c 6c55 1fbd d600 933d
000000c0: 388c a23d 5d8d 89bd 2666 3bbb d9ad b4bd
000000d0: bf10 663d 3e14 803c 2ad4 7f3c aa2e 113d
000000e0: 69f4 59bd 5bca a2bd 9faf 173d 08aa a83d
000000f0: 0a88 b3bd 7d0f 95bb fde6 4f3d 8ca0 cbbd

encoder.conv2.nn.1.weight f4 [64]
0.9787358 0.9949046 0.9871282 0.9954184 1.0410992 0.9921071 0.9910879 0.9691098
0.994376 0.9999028 0.9924982 0.9980464 1.0003428 0.9944648 0.98401123 0.9904728
0.9881719 0.9874547 0.99620193 1.0142677 0.999607 1.0383762 1.0103294 0.9667426
1.006549 0.99368083 1.0318828 1.0567911 1.0033271 1.0207579 1.0203512 0.9914243
1.0159693 0.948447 1.002599 0.9981564 1.0019989 0.9775541 1.0001445 1.0120565
1.0178235 0.9841092 0.98968416 0.98343146 1.0205834 1.0061575 1.0198096 0.96471256
1.0065042 1.022725 1.003666 0.98895955 1.0011423 1.0201432 1.0145872 0.9920723
0.981805 0.9983602 1.0206312 1.0079257 1.0214866 0.98243904 0.99732256 1.019126
00000000: 6e8e 7a3f 11b2 7e3f 6fb4 7c3f bed3 7e3f
00000010: bd42 853f bbfa 7d3f f0b7 7d3f 9417 783f
00000020: 6d8f 7e3f a1f9 7f3f 5d14 7e3f f87f 7f3f
00000030: 3c0b 803f 3f95 7e3f 29e8 7b3f a08f 7d3f
00000040: d5f8 7c3f d5c9 7c3f 1707 7f3f 86d3 813f
00000050: 3fe6 7f3f 83e9 843f 7952 813f 717c 773f
00000060: 99d6 803f de61 7e3f bc14 843f ee44 873f
00000070: 066d 803f 32a8 823f de9a 823f fccd 7d3f
00000080: 480b 823f 6ccd 723f 2a55 803f 2e87 7f3f
00000090: 8041 803f fc40 7a3f bc04 803f 118b 813f
000000a0: 0a48 823f 95ee 7b3f f15b 7d3f 2ac2 7b3f
000000b0: 7aa2 823f c5c9 803f 1f89 823f 67f7 763f
000000c0: 21d5 803f a7e8 823f 2178 803f 742c 7d3f
000000d0: 6e25 803f 0d94 823f fedd 813f 73f8 7d3f
000000e0: 9357 7b3f 8994 7f3f 0ba4 823f b603 813f
000000f0: 13c0 823f 2081 7b3f 8850 7f3f b972 823f

encoder.conv2.nn.1.bias f4 [64]
0.0055351583 -0.059108816 0.00091823994 0.041677848 0.05724312 0.017810768 0.01725137 0.02586071
0.0020219968 0.03756072 0.0038669999 -0.014963113 0.016302159 -0.005781893 -0.05538519 0.02321179
0.01378062 0.02943535 -0.0010627677 0.03741418 0.08654302 0.04373129 0.02121924 0.03826366
0.09250944 -0.017389907 0.0709532 0.06877458 0.0027626671 0.060521305 0.05765335 0.0393877
0.091476016 -0.0038081887 -0.023163745 0.08522441 -0.017086009 -0.008877633 0.0077712885 0.04325946
0.01529327 0.0068922597 0.037475497 -0.019036721 0.079857595 0.07312836 0.057271916 -0.01411909
0.03701264 0.03314166 -0.0021194667 0.0031784624 0.028782055 0.03813509 0.0027144302 -0.034517027
-0.013551496 0.014385113 0.0036241629 0.05485778 0.099597864 0.012768007 0.059985667 0.01933945
00000000: 4660 b53b 161c 72bd 0ab6 703a 64b6 2a3d
00000010: c377 6a3d e3e7 913c bf52 8d3c d7d9 d33c
00000020: 7a83 043b 45d9 193d 7e6d 7d3b d827 75bc
00000030: 1b8c 853c 0976 bdbb 95db 62bd a726 be3c
00000040: 1cc8 613c 6722 f13c 914c 8bba 9c3f 193d
00000050: 783d b13d 951f 333d f9d3 ad3c 5bba 1c3d
00000060: 9775 bd3d 4775 8ebc e94f 913d b0d9 8c3d
00000070: dd0d 353b 30e5 773d eb25 6c3d ff54 213d
00000080: c757 bb3d ce92 79bb e5c1 bdbc 238a ae3d
00000090: f5f7 8bbc 7e73 11bc 4ba6 fe3b d530 313d
000000a0: a090 7a3c 77d8 e13b e87f 193d e6f2 9bbc
000000b0: 618c a33d 52c4 953d f595 6a3d c153 67bc
000000c0: 919a 173d 8dbf 073d c0e6 0abb c04d 503b
000000d0: 58c8 eb3c 8a33 1c3d 95e4 313b ba61 0dbd
000000e0: 1807 5ebc 89af 6b3c 5d83 6d3b 8db2 603d
000000f0: f7f9 cb3d e730 513c 88b3 753d c46d 9e3c

encoder.conv2.nn.1.running_mean f4 [64]
0.21067958 -0.26574156 0.07271889 0.008017033 0.1578717 -0.008344991 -0.28213415 0.030347096
-0.087702006 -0.2399795 -0.2462703 0.26960766 -0.061806653 0.03360549 -0.09421457 0.05159497
0.16797817 0.011843184 -0.20091295 -0.053793635 0.26071486 -0.067887835 -0.5074135 0.36500803
0.12734896 0.28414834 0.03258139 -0.11617516 -0.19146846 0.055297114 -0.05804505 0.08649485
-0.14497596 -0.09069125 0.19584692 0.01995742 -0.031411547 -0.15676586 -0.06692853 -0.27638164
0.06935115 0.2761999 -0.12859988 0.082759574 -0.32961747 -0.014670487 -0.107785076 0.03689383
0.4610556 0.12210441 0.0079605505 -0.26768538 0.08778925 -0.18433207 -0.38151205 -0.050054073
0.13524671 0.06760453 -0.05302847 0.00023595591 -0.114780344 -0.09287865 0.28662914 -0.1365248
00000000: 63bc 573e 470f 88be a4ed 943d e059 033c
00000010: 1ea9 213e 6eb9 08bc e373 90be 799a f83c
00000020: 1c9d b3bd 30bd 75be 482e 7cbe 040a 8a3e
00000030: f928 7dbd e9a5 093d 92f3 c0bd 3f55 533d
00000040: 7802 2c3e ea09 423c 20bc 4dbe b756 5cbd
00000050: 6b7c 853e c708 8bbd dae5 01bf 55e2 ba3e
00000060: c467 023e e47b 913e 1074 053d 3eed edbd
00000070: 4f10 44be 3a7f 623d a5c0 6dbd 3624 b13d
00000080: 9474 14be 56bc b9bd 188c 483e be7d a33c
00000090: 65a9 00bd 3b87 20be d311 89bd e581 8dbe
000000a0: fa07 8e3d 136a 8d3e b0af 03be da7d a93d
000000b0: 9fc3 a8be 7b5c 70bc 6cbe dcbd fc1d 173d
000000c0: 7b0f ec3e e011 fa3d f86c 023c 0f0e 89be
000000d0: daca b33d 8cc1 3cbe 8c55 c3be 8005 4dbd
000000e0: 1d7e 0a3e 3e74 8a3d 6234 59bd ef6a 7739
000000f0: f511 ebbd 2937 bebd 0ec1 923e 28cd 0bbe

encoder.conv2.nn.1.running_var f4 [64]
0.22172786 0.17994508 0.15674685 0.14955854 0.16041909 0.19575904 0.19146852 0.16998978
0.12362393 0.12702149 0.16455239 0.15734641 0.12320861 0.09456886 0.26413643 0.18329537
0.13601083 0.24177685 0.092888705 0.16214189 0.08797201 0.21936935 0.23019944 0.10341251
0.13512708 0.16823666 0.118075304 0.11716597 0.118973866 0.116320446 0.18037865 0.051170185
0.13060531 0.13118403 0.22724545 0.11257049 0.11911274 0.21394487 0.16967969 0.13590388
0.12526935 0.13996251 0.14965343 0.18430914 0.18934129 0.12575008 0.13755906 0.39031386
0.2503187 0.21887381 0.15782653 0.09390236 0.16353177 0.20202535 0.17874926 0.16514057
0.13643162 0.26123154 0.27843887 0.1848713 0.08510192 0.08582848 0.2038749 0.17884527
00000000: a10c 633e 8643 383e 3f82 203e e025 193e
00000010: e744 243e 0f75 483e 5310 443e cd11 2e3e
00000020: 8b2e fd3d ec11 023e 6c80 283e 6b1f 213e
00000030: cc54 fc3d 52ad c13d e43c 873e c8b1 3b3e
00000040: 6c46 0b3e 5a94 773e 6f3c be3d 8608 263e
00000050: ab2a b43d 5ca2 603e 67b9 6b3e f0c9 d33d
00000060: c15e 0a3e 3b46 2c3e 77d1 f13d b6f4 ef3d
00000070: 92a8 f33d 6a39 ee3d 2eb5 383e d497 513d
00000080: 66bd 053e 1b55 063e 08b3 683e 5b8b e63d
00000090: 61f1 f33d 5d14 5b3e 83c0 2d3e 632a 0b3e
000000a0: 9c46 003e 5552 0f3e c03e 193e 89bb 3c3e
000000b0: afe2 413e a1c4 003e 48dc 0c3e 38d7 c73e
000000c0: c629 803e 7520 603e 479d 213e e14f c03d
000000d0: df74 273e bcdf 4e3e 0c0a 373e 9c1a 293e
000000e0: bbb4 0b3e 24c0 853e 8a8f 8e3e e74e 3d3e
000000f0: ea49 ae3d d8c6 af3d 95c4 503e 3723 373e

encoder.conv3.nn.0.weight f4 [128, 128]
-0.07990407 -0.021816675 0.01886688 -0.05209574 -0.080047704 0.035664786 -0.016460437 -0.075953126
0.011636387 -0.071261086 0.062008597 -0.065703504 -0.058948163 -0.05500412 0.016227407 0.07696901
0.026752105 0.064442955 -0.09828613 -0.052219916 0.06685688 0.0064860354 0.07651723 -0.060841978
-0.06774451 0.05187964 0.053719517 -0.049173743 0.00041910468 0.08158008 -0.032821268 -0.009325157
-0.0146395 0.024598427 -0.009454002 0.023256725 -0.038971823 0.082736745 -0.09933122 0.041015476
0.07477607 0.02684837 0.015597857 -0.03505147 -0.0048473463 -0.06261994 -0.009468053 0.07932598
-0.051339693 -0.04563021 -0.04175175 -0.020362912 -0.016132073 -0.025319545 -0.018609194 0.034441005
0.04358938 -0.008253804 -0.009328636 -0.065493144 -0.067600034 -0.08466202 -0.102573805 0.033702437
-0.041740917 -0.075797945 -0.033865444 0.07833919 0.004708041 -0.011258064 0.072040655 0.03582777
-0.085874155 0.019802641 0.038403664 -0.07325048 -0.08984173 -0.073105685 0.0044354587 -0.08061147
-0.055735465 0.01802802 -0.001046199 0.06311887 -0.03892784 0.020446736 0.016607765 -0.015207486
-0.024121495 -0.0031928776 -0.071191534 -0.004621578 0.020181898 0.06356903 0.009930839 0.07839594
-0.017541846 0.037107363 0.081951484 -0.01873258 -0.061276574 0.026622755 0.05192481 0.04681098
0.049248632 0.077998936 -0.015506701 0.06916239 0.029095834 -0.07941033 -0.046050232 0.05921304
0.005503946 -0.03725712 -0.081124306 -0.009659132 0.05713649 0.093931794 -0.03199484 0.03274741
0.027642276 0.0870629 0.006576512 0.05343124 -0.079314694 -0.08462341 -0.08829369 0.052584115
0.06271585 -0.045745637 -0.029416593 -0.057221085 0.009616859 -0.09621848 -0.08518368 0.038823783
0.04756506 0.0890937 -0.072606556 -0.0035246364 -0.0816934 -0.059651986 0.010452058 -0.08878951
-0.03876689 -0.0038921407 0.006206102 0.061588388 0.026699988 0.00587061 -0.02076106 -0.004755936
0.059463553 0.07131797 -0.051629066 -0.02993017 -0.08063693 0.0670552 0.029882804 -0.06145341
-0.05307444 0.05440328 0.040456273 0.049080376 0.052417677 -0.004425922 0.057733048 0.060880996
0.09854812 -0.083219804 -0.078041784 -0.053265143 0.031364646 -0.008912138 -0.04697165 0.047226258
0.020727977 -0.03835402 -0.08102971 -0.06045677 -0.08001603 -0.09489989 -0.06119417 -0.09911077
0.030033361 0.067531295 -0.0360906 -0.075466745 -0.0060822563 -0.002603336 -0.015465791 0.02068789
0.04544382 0.02946239 -0.087510966 0.03288729 -0.03930373 0.05696161 0.06616176 0.06137912
0.019766843 0.025291232 0.086530656 0.0579334 0.10167551 -0.03616693 0.056497622 0.092016295
0.05626038 0.049491327 0.056221124 -0.0030824977 -0.05623474 -0.0449072 0.06382669 -0.06498666
0.015792778 0.050500337 0.07293761 0.08404643 -0.049476285 0.02257616 0.0019620352 -0.03860258
0.014777982 -0.082285516 0.018827684 0.030420814 0.01590098 -0.033416897 0.0884088 0.025477279
0.06060318 -0.0042281044 0.004245292 -0.008117681 0.0074445107 0.089239396 -0.008626662 0.061880264
-0.07096238 0.04470881 0.003942343 0.04324912 -0.014757662 0.041410208 0.06987359 0.08616544
0.06355435 0.041231487 -0.0029654012 -0.08207656 -0.06933027 0.05259228 -0.055071555 0.027517717
00000000: bfa4 a3bd e2b8 b2bc b78e 9a3c 5862 55bd
00000010: 0df0 a3bd 3d15 123d 0ad8 86bc 508d 9bbd
00000020: 8ba6 3e3c 55f1 91bd bafc 7d3d 8f8f 86bd
00000030: a173 71bd 004c 61bd 57ef 843c eea1 9d3d
00000040: 3b27 db3c abfa 833d 3d4a c9bd 8de4 55bd
00000050: 43ec 883d cf88 d43b 11b5 9c3d 7035 79bd
00000060: a2bd 8abd bf7f 543d ff08 5c3d 686a 49bd
00000070: 47bb db39 7513 a73d 986f 06bd 8bc8 18bc
00000080: 83da 6fbc a482 c93c f5e4 1abc e384 be3c
00000090: eba0 1fbd e271 a93d 2b6e cbbd d8ff 273d
000000a0: 3224 993d 1df1 db3c 278e 7f3c 2192 0fbd
000000b0: 7dd6 9ebb e23e 80bd e41f 1bbc a975 a23d
000000c0: 9249 52bd bee6 3abd e203 2bbd 1fd0 a6bc
000000d0: 6927 84bc ef6a cfbc 4f72 98bc 0312 0d3d
000000e0: c78a 323d f73a 07bc 23d7 18bc 4521 86bd
000000f0: e371 8abd 4863 adbd 3712 d2bd 910b 0a3d
00000100: 86f8 2abd f43b 9bbd 7eb6 0abd 4c70 a03d
00000110: e945 9a3b be73 38bc 0d8a 933d 24c0 123d
00000120: cade afbd 2639 a23c 294d 1d3d 5904 96bd
00000130: f1fe b7bd 6fb8 95bd 5357 913b a017 a5bd
00000140: df4a 64bd 80af 933c 9d20 89ba 7744 813d
00000150: cc72 1fbd ea7f a73c 020d 883c d228 79bc
00000160: 719a c5bc 993f 51bb decc 91bd 9b70 97bb
00000170: 8254 a53c 7b30 823d f5b4 223c 0d8e a03d
00000180: ebb3 8fbc e4fd 173d 2ed6 a73d 1175 99bc
00000190: 25fd 7abd f717 da3c 1caf 543d dfbc 3f3d
000001a0: efb8 493d e8bd 9f3d d10f 7ebc 03a5 8d3d
000001b0: 635a ee3c e2a1 a2bd 2b9f 3cbd 5f89 723d
000001c0: 725a b43b ec9a 18bd 8024 a6bd 5641 1ebc
000001d0: f407 6a3d 505f c03d 050d 03bd 2622 063d
000001e0: 0e72 e23c 094e b23d c87f d73b b7da 5a3d
000001f0: be6f a2bd 0a4f adbd 52d3 b4bd 7162 573d
00000200: 2b71 803d c75f 3bbd 11fb f0bc a860 6abd
00000210: 0890 1d3c 320e c5bd c874 aebd b005 1f3d
00000220: 95d3 423d c276 b63d bfb2 94bd 96fd 66bb
00000230: df4e a7bd a455 74bd 1c3f 2b3c 46d7 b5bd
00000240: 08ca 1ebd 4913 7fbb 8f5c cb3b 1b44 7c3d
00000250: efb9 da3c 3f5e c03b 1913 aabc afd7 9bbb
00000260: 0e90 733d 280f 923d 0079 53bd 1e30 f5bc
00000270: fa24 a5bd 3d54 893d c8cc f43c 92b6 7bbd
00000280: 9664 59bd f9d5 5e3d 7ab5 253d 8108 493d
00000290: ebb3 563d 5307 91bb 7d79 6c3d 5a5e 793d
000002a0: 99d3 c93d 256f aabd 5fd4 9fbd 8d2c 5abd
000002b0: 3778 003d 3704 12bc 5865 40bd 5270 413d
000002c0: b8cd a93c 1b19 1dbd e8f2 a5bd 85a1 77bd
000002d0: 72df a3bd e05a c2bd bda6 7abd 96fa cabd
000002e0: 8608 f63c d94d 8a3d bdd3 13bd 4f8e 9abd
000002f0: aa4d c7bb bb9c 2abb 3b64 7dbc a679 a93c
00000300: 4d23 3a3d 1c5b f13c f338 b3bd d3b4 063d
00000310: f3fc 20bd 9450 693d d17f 873d ac68 7b3d
00000320: 13ee a13c 8f2f cf3c fc36 b13d 934b 6d3d
00000330: 403b d03d c623 14bd 0d6a 673d 0a73 bc3d
00000340: 4971 663d 6bb7 4a3d 1f48 663d bb03 4abb
00000350: 6656 66bd 9df0 37bd 91b7 823d ba17 85bd
00000360: db5f 813c 71d9 4e3d 5060 953d 8920 ac3d
00000370: a5a7 4abd a4f1 b83c 7d95 003b bd1d 1ebd
00000380: 591f 723c 4f85 a8bd 843c 9a3c 1235 f93c
00000390: c642 823c 28e0 08bd ac0f b53d bab5 d03c
000003a0: 0a3b 783d e98b 8abb 171c 8b3b 0600 05bc
000003b0: 15f1 f33b 25c3 b63d d856 0dbc 2976 7d3d
000003c0: b954 91bd 9620 373d c52e 813b fd25 313d
000003d0: 1fca 71bc c09d 293d e219 8f3d 8277 b03d
000003e0: c828 823d 59e2 283d 2d57 42bb c117 a8bd
000003f0: 07fd 8dbd 016b 573d b692 61bd d66c e13c

encoder.conv3.nn.0.bias f4 [128]
-0.03527868 0.046169348 0.022434559 0.046771247 0.022350935 -0.06411945 -0.07665935 0.024320299
0.062499784 -0.06973826 -0.018520435 -0.025183365 -0.053294983 0.04206746 -0.009951069 -0.04580493
0.03452926 0.0655929 0.007951454 0.06627744 -0.035521712 -0.04385625 0.02482806 -0.06041964
-0.003655466 -0.05750765 0.008729773 -0.0494643 0.08525744 -0.015495233 -0.07110708 0.06146377
-0.09288936 -0.039876346 0.06619983 0.0041743177 0.0372087 0.057664663 -0.032417394 -0.07950265
-0.050062098 0.029929262 0.0084342 -0.06568556 0.106168784 0.038764097 0.010146484 0.06246666
-0.00697231 -0.022885822 0.025820553 -0.032420903 0.05019591 0.0009134088 -0.031235639 0.038017202
-0.03691578 -0.07010642 -0.09356452 0.017100368 0.087696694 0.05924935 -0.065449774 0.080745205
-0.01952271 0.006308466 0.06877069 -0.017750816 -0.05001556 0.09116807 -0.044480003 -0.019493267
-0.012797984 -0.05600349 -0.007178131 -0.022785107 -0.05398013 0.0727784 -0.03239233 0.04060845
0.022342023 0.02939984 -0.029450443 -0.050790988 -0.051017947 -0.09526589 0.06278905 -0.010872566
0.009126272 -0.053796027 0.07957036 -0.043301634 -0.06258974 0.068084285 -0.081640415 -0.089781195
0.024224982 -0.04748626 0.069185816 -0.025460823 0.02580733 0.06775527 0.07303488 -0.019336104
-0.09351089 0.023780385 -0.009384488 -0.05190371 0.011440418 -0.06650421 0.04964548 -0.016663894
-0.021628937 0.01628088 -0.034339756 -0.036503367 0.024164995 -0.036879838 -0.044569843 -0.05213694
0.061672665 -0.05781669 0.05411379 -0.019893426 0.07872838 -0.016551847 -0.023431947 0.026844006
00000000: 6180 10bd 121c 3d3d aec8 b73c 3593 3f3d
00000010: 4f19 b73c 0f51 83bd 94ff 9cbd 5d3b c73c
00000020: c6ff 7f3d efd2 8ebd 2bb8 97bc 584d cebc
00000030: d74b 5abd ee4e 2c3d cf09 23bc f39d 3bbd
00000040: 8e6e 0d3d 9255 863d d146 023c 77bc 873d
00000050: 377f 11bd 9ca2 33bd 3764 cb3c 967a 77bd
00000060: 8b90 6fbb 248d 6bbd 5207 0f3c 149b 4abd
00000070: 749b ae3d b8df 7dbc 97a0 91bd 6fc1 7b3d
00000080: c73c bebd 6155 23bd c793 873d b7c8 883b
00000090: 2668 183d c831 6c3d 1ac8 04bd 49d2 a2bd
000000a0: ea0d 4dbd 362e f53c 992f 0a3c 2786 86bd
000000b0: 056f d93d 1ac7 1e3d 703d 263c 0add 7f3d
000000c0: fa77 e4bb 0c7b bbbc a085 d33c c8cb 04bd
000000d0: 3a9a 4d3d d471 6f3a e2e1 ffbc edb7 1b3d
000000e0: 0035 17bd f493 8fbd c19e bfbd 1216 8c3c
000000f0: 539a b33d 72af 723d 880a 86bd be5d a53d
00000100: 17ee 9fbc 40b7 ce3b a6d7 8c3d 296a 91bc
00000110: 1edd 4cbd 53b6 ba3d aa30 36bd 58b0 9fbc
00000120: a3ae 51bc ea63 65bd 8736 ebbb d5a7 babc
00000130: 451a 5dbd d70c 953d d2ad 04bd 0c55 263d
00000140: 9e06 b73c efd7 f03c 0e42 f1bc 360a 50bd
00000150: 32f8 50bd c31a c3bd 8c97 803d d922 32bc
00000160: 5c86 153c 3959 5cbd c9f5 a23d 0e5d 31bd
00000170: 0d2f 80bd c66f 8b3d 1733 a7bd 34df b7bd
00000180: 7873 c63c f480 42bd 4bb1 8d3d 3793 d0bc
00000190: e569 d33c 46c3 8a3d 5093 953d c066 9ebc
000001a0: a382 bfbd 15cf c23c 65c1 19bc fc98 54bd
000001b0: 9770 3b3c 5c33 88bd 0f59 4b3d b882 88bc
000001c0: 2b2f b1bc 7b5f 853c d8a7 0cbd 8e84 15bd
000001d0: abf5 c53c 500f 17bd de8e 36bd 8b8d 55bd
000001e0: 7a9c 7c3d 32d1 6cbd 6ca6 5d3d 8af7 a2bc
000001f0: 583c a13d bd97 87bc 5bf4 bfbc f6e7 db3c

encoder.conv3.nn.1.weight f4 [128]
0.9989063 0.9829901 1.000674 1.0043027 0.9966231 0.99180055 0.987398 1.010503
1.0029774 1.0055934 1.0255263 1.0719073 1.0380597 0.98573893 0.9659647 0.995087
0.9787975 0.9975502 0.99544024 0.9881925 1.0119826 0.9902985 1.0084392 1.0002809
0.98493797 1.0022743 0.99050343 0.9808706 0.992646 1.009194 0.9782773 0.996404
1.0065161 1.0057334 0.99858403 0.9819465 0.9860095 1.0034782 1.0002604 1.0119832
0.9878202 1.0183616 0.9995221 1.0278809 1.0011479 0.99228555 1.0093845 1.0029831
0.9922329 1.0304465 1.0232033 0.9884527 0.9917979 0.9706688 0.99433094 1.0096843
1.0082647 1.0093871 0.9994163 0.99385774 0.9840609 0.9955686 0.99159575 1.0008684
0.99978155 1.0013751 0.9992409 0.9875497 0.9996961 0.9893415 0.99897265 1.0042949
0.9992184 1.0020308 0.9939128 1.0076728 1.0041332 0.99474984 1.01054 0.9864631
1.003615 0.99235916 1.0613924 0.9837093 1.00911 0.99910194 0.99008465 1.0088071
0.9890453 1.0020939 1.0226319 0.98787045 1.0335208 0.98418707 0.99775654 1.0065107
1.0671177 1.0070128 1.0026265 0.95438844 1.0105803 0.99114144 1.0010383 1.0163748
1.0264043 1.0031258 1.0007069 0.9786295 1.0047377 0.98245424 0.99862075 0.9801286
1.0057472 1.0030028 0.9959758 1.0125192 0.98500896 1.0100622 0.98215735 0.9970085
0.9721371 0.9947876 1.0169277 1.0338907 0.99902767 0.9907173 0.98953056 1.0098478
00000000: 53b8 7f3f 3da5 7b3f 1616 803f fe8c 803f
00000010: b122 7f3f a4e6 7d3f 1ec6 7c3f 2a58 813f
00000020: 9061 803f 49b7 803f 7244 833f 4234 893f
00000030: 24df 843f 6359 7c3f 7649 773f 06be 7e3f
00000040: 7992 7a3f 735f 7f3f 2cd5 7e3f 2ffa 7c3f
00000050: a588 813f 3484 7d3f 8914 813f 3409 803f
00000060: e524 7c3f 864a 803f a291 7d3f 561a 7b3f
00000070: 0c1e 7e3f 452d 813f 6270 7a3f 5514 7f3f
00000080: 85d5 803f dfbb 803f 34a3 7f3f d960 7b3f
00000090: 1e6b 7c3f f971 803f 8808 803f aa88 813f
000000a0: c9e1 7c3f ac59 823f aee0 7f3f 9a91 833f
000000b0: 9d25 803f 6d06 7e3f 8333 813f c061 803f
000000c0: fa02 7e3f ace5 833f 53f8 823f 3c0b 7d3f
000000d0: 78e6 7d3f c07d 783f 798c 7e3f 563d 813f
000000e0: d10e 813f 9933 813f bfd9 7f3f 766d 7e3f
000000f0: 6aeb 7b3f 95dd 7e3f 38d9 7d3f 751c 803f
00000100: aff1 7f3f 0f2d 803f 40ce 7f3f 0fd0 7c3f
00000110: 15ec 7f3f 7c45 7d3f acbc 7f3f bc8c 803f
00000120: c7cc 7f3f 8c42 803f 1271 7e3f 6cfb 803f
00000130: 7087 803f eda7 7e3f 6059 813f d988 7c3f
00000140: 7576 803f 400b 7e3f b5db 873f 5fd4 7b3f
00000150: 842a 813f 25c5 7f3f 3076 7d3f 9720 813f
00000160: 1332 7d3f 9d44 803f 9ae5 823f 14e5 7c3f
00000170: 694a 843f aff3 7b3f f96c 7f3f 58d5 803f
00000180: 5097 883f cce5 803f 1156 803f cd52 743f
00000190: b25a 813f 72bb 7d3f 0622 803f 9218 823f
000001a0: 3761 833f 6d66 803f 2a17 803f 7787 7a3f
000001b0: 3f9b 803f 1f82 7b3f 9ca5 7f3f b5e9 7a3f
000001c0: 53bc 803f 6562 803f 45f8 7e3f 3b9a 813f
000001d0: 8c29 7c3f b849 813f aa6e 7b3f f33b 7f3f
000001e0: fadd 783f 66aa 7e3f b02a 823f 8856 843f
000001f0: 47c0 7f3f a69f 7d3f e051 7d3f b142 813f

encoder.conv3.nn.1.bias f4 [128]
0.07562076 -0.031669665 0.06083271 0.00676944 0.018125322 0.0046088286 0.03689621 0.031931378
-0.020005858 0.024359638 0.014927846 0.13676919 0.07677489 0.027046604 0.016223263 -0.016854338
-0.019798573 -0.034821086 0.029464964 -0.014175168 0.03762711 0.007937282 0.14593512 0.05866395
-0.01877561 0.047046408 0.061799776 0.0036385357 -0.001848903 0.0029514122 -0.016023817 -0.010583043
0.006580284 0.03967395 0.05341137 -0.017178494 -0.0033023949 -0.019212848 0.014359626 0.02094901
0.030314343 0.07563854 0.03595294 0.013183203 0.021199163 0.0041955537 0.06675443 -0.02047095
-0.0012810362 0.09785815 0.012126968 0.046927378 0.074890755 0.05758871 -0.009855866 -0.007900588
-0.012671852 0.027782213 0.018994309 0.016205058 -0.028894296 0.031402957 0.014438692 0.0408952
0.06445939 0.06352184 0.059143722 0.0050494345 0.014802193 0.014697971 0.00507537 -0.020075219
0.019191315 0.004253584 -0.013817789 0.0033844751 0.002817017 0.06507392 -0.012508899 -0.030360341
0.06514565 0.0021064538 0.07182492 -0.012522026 0.09183444 0.09979973 0.032816876 0.010617118
-0.001150714 -0.011806236 0.027657658 0.0019314488 0.06200495 0.06903361 0.005309387 0.091745004
0.17816101 0.06728721 0.035736207 0.022983285 0.052841943 0.00538437 0.021539832 0.11808747
0.0023079147 0.036317132 0.13596712 0.004165804 -0.004083142 -0.011257158 0.019354563 0.0074258335
0.06986045 0.0672053 -0.013525123 0.02506616 0.024936425 0.04532747 0.011439014 -0.0068926015
-0.0018828698 0.073504254 0.12821017 0.14105675 -0.030852463 -0.027861586 0.025598722 0.06525457
00000000: 0fdf 9a3d 0db8 01bd b82b 793d 2ed2 dd3b
00000010: 8e7b 943c a805 973b 7b20 173d 7aca 023d
00000020: 53e3 a3bc dd8d c73c ed93 743c 390d 0c3e
00000030: 273c 9d3d d790 dd3c a6e6 843c 1c12 8abc
00000040: 9e30 a2bc 8ea0 0ebd 8260 f13c f73e 68bc
00000050: e21e 1a3d 600b 023c 0470 153e 9c49 703d
00000060: 4fcf 99bc bcb3 403d c321 7d3d 8074 6e3b
00000070: e456 f2ba 7b6c 413b 6144 83bc 8064 2dbc
00000080: 6c9f d73b 2781 223d e1c5 5a3d eab9 8cbc
00000090: fe6c 58bb 4364 9dbc a344 6b3c 429d ab3c
000000a0: c955 f83c 61e8 9a3d 6443 133d 5cfe 573c
000000b0: dea9 ad3c db7a 893b 8cb6 883d b2b2 a7bc
000000c0: 71e8 a7ba db69 c83d 31b0 463c ec36 403d
000000d0: 5360 993d 24e2 6b3d 807a 21bc 7871 01bc
000000e0: 999d 4fbc 8697 e33c f499 9b3c 78c0 843c
000000f0: bbb3 ecbc 63a0 003d 4390 6c3c ba81 273d
00000100: 4903 843d bd17 823d b040 723d ba75 a53b
00000110: e684 723c c2cf 703c 4a4f a63b c974 a4bc
00000120: 1b37 9d3c a661 8b3b 0264 62bc 12ce 5d3b
00000130: b49d 383b 7a45 853d 20f2 4cbc 40b6 f8bc
00000140: 156b 853d 6e0c 0a3b f218 933d 2f29 4dbc
00000150: b213 bc3d cd63 cc3d fd6a 063d 6cf3 2d3c
00000160: 8ed3 96ba f16e 41bc 5092 e23c ab28 fd3a
00000170: e7f8 7d3d 7e61 8d3d 5efa ad3b cee4 bb3d
00000180: d76f 363e e0cd 893d 2160 123d 7147 bc3c
00000190: cb70 583d 5f6f b03b 4d74 b03c d8d7 f13d
000001a0: 6240 173b 46c1 143d f73a 0b3e 4c81 883b
000001b0: e1cb 85bb f16f 38bc 768d 9e3c 6854 f33b
000001c0: ff12 8f3d efa2 893d 7a98 5dbc 8c57 cd3c
000001d0: 7947 cc3c 4ca9 393d b46a 3b3c 55db e1bb
000001e0: a0ca f6ba 6689 963d 8749 033e 2e71 103e
000001f0: 4ebe fcbc fb3d e4bc 69b4 d13c 30a4 853d

encoder.conv3.nn.1.running_mean f4 [128]
-0.2951314 -0.19220565 -0.12825939 -0.2291653 -0.15483679 -0.111597486 -0.037420377 0.20709887
0.30856133 0.27485347 -0.20116593 -0.26510373 -0.06813047 -0.099824406 -0.03256627 -0.23763509
0.11119412 0.13875395 -0.39432123 0.028484417 -0.091365 -0.30521673 -0.12936904 -0.17151937
0.15795599 -0.2559851 0.2537183 -0.047326814 -0.2437426 0.13573287 -0.25332597 0.3027343
0.20561734 0.097596705 0.10405134 0.013534354 0.027452074 0.17949298 -0.23042862 -0.39245766
-0.10396519 -0.39565206 -0.20654711 0.19608264 0.1605222 0.16031495 -0.12260304 0.18821292
-0.067363836 -0.21972075 -0.08820131 -0.17554682 -0.06527848 -0.19857123 -0.0030518097 -0.020011151
0.62799096 -0.002386375 -0.004385695 0.1294281 0.009125674 0.027971065 -0.05378846 -0.03199771
0.03577499 -0.31438658 -0.18423977 0.07241148 -0.108238354 0.07598792 0.09371131 0.2725198
0.021830399 0.16733095 -0.08436925 -0.18436006 -0.08797615 0.14970434 -0.25264743 0.22741395
-0.008217821 0.12680738 -0.41434196 0.132728 0.11309898 -0.03297318 -0.24040635 -0.15383323
0.19153069 0.11013457 0.2451676 0.07934607 -0.42886418 -0.038670514 -0.10693349 -0.056795508
-0.27363536 0.14857556 -0.31283447 -0.12911704 -0.13225117 0.0065185465 -0.29379722 -0.118553095
-0.51507556 -0.20818527 -0.05511889 -0.108493984 0.15576106 -0.023695221 0.013519588 0.23277007
0.18086457 0.08764312 -0.055131063 -0.16751228 0.108472325 0.017817022 -0.063061446 -0.22987592
0.38004842 -0.30635104 -0.3759786 -0.12080574 0.11593921 -0.11889471 0.24124369 0.2024588
00000000: 761b 97be 8fd1 44be 6e56 03be 4faa 6abe
00000010: 898d 1ebe 398d e4bd 1c46 19bd ba11 543e
00000020: c0fb 9d3e 98b9 8c3e 71fe 4dbe adbb 87be
00000030: fd87 8bbd bd70 ccbd 3664 05bd 9d56 73be
00000040: beb9 e33d 8415 0e3e 79e4 c9be 2758 e93c
00000050: 931d bbbd 5e45 9cbe 5179 04be c6a2 2fbe
00000060: 37bf 213e 7b10 83be 5de7 813e c3d9 41bd
00000070: a997 79be 8ffd 0a3e f1b3 81be fdff 9a3e
00000080: 5a8d 523e c8e0 c73d de18 d53d 32bf 5d3c
00000090: 2ce3 e03c 02cd 373e 7bf5 6bbe 36f0 c8be
000000a0: b4eb d4bd e892 cabe 1681 53be e3c9 483e
000000b0: ee5f 243e 9a29 243e 4d17 fbbd e3ba 403e
000000c0: 0df6 89bd 7afe 60be e3a2 b4bd 8cc2 33be
000000d0: b9b0 85bd 4256 4bbe df00 48bb 6dee a3bc
000000e0: 04c4 203f bb64 1cbb e0b5 8fbb cd88 043e
000000f0: da83 153c 9323 e53c 4a51 5cbd 0810 03bd
00000100: cc88 123d 47f7 a0be 5aa9 3cbe 784c 943d
00000110: 12ac ddbd 8e9f 9b3d b7eb bf3d b787 8b3e
00000120: aad5 b23c ce58 2b3e c9c9 acbd e2c8 3cbe
00000130: d72c b4bd 184c 193e 015b 81be 34df 683e
00000140: 0aa4 06bc cbd9 013e a124 d4be d9e9 073e
00000150: 70a0 e73d e30e 07bd 152d 76be 7586 1dbe
00000160: 9f20 443e 3c8e e13d 370d 7b3e 3180 a23d
00000170: 1694 dbbe f964 1ebd f2ff dabd 68a2 68bd
00000180: ef19 8cbe 3124 183e d72b a0be 4237 04be
00000190: da6c 07be 8899 d53b 976c 96be f7cb f2bd
000001a0: fedb 03bf 852e 55be 58c4 61bd 1832 debd
000001b0: d47f 1f3e 7b1c c2bc 4381 5d3c 475b 6e3e
000001c0: 9034 393e 3c7e b33d 1cd1 61bd 5788 2bbe
000001d0: bd26 de3d 01f5 913c 5c26 81bd 9864 6bbe
000001e0: b595 c23e 0bda 9cbe 4480 c0be 0069 f7bd
000001f0: 8971 ed3d 127f f3bd 9608 773e 5c51 4f3e

encoder.conv3.nn.1.running_var f4 [128]
0.14050266 0.11181216 0.14337656 0.099568166 0.15836598 0.14587566 0.10344964 0.27498877
0.12340859 0.19277476 0.09915625 0.092585094 0.09797762 0.08139662 0.12238571 0.08179532
0.24526913 0.09266534 0.21018784 0.12359102 0.26141164 0.2610575 0.13726687 0.10400499
0.22739393 0.12968536 0.11197302 0.14879361 0.13749571 0.12312551 0.2133977 0.15213303
0.12835437 0.10272685 0.23796229 0.12596525 0.19480243 0.111518204 0.34327942 0.120093204
0.05964741 0.13515308 0.10614672 0.061742406 0.13872826 0.124951154 0.18573485 0.09225155
0.28336778 0.13198751 0.30739552 0.22175838 0.11847081 0.09599985 0.07347149 0.099577025
0.24845354 0.09055176 0.15745355 0.1894617 0.12111708 0.18231225 0.42697293 0.111691
0.13882542 0.098132685 0.116870694 0.1678229 0.1528958 0.20738052 0.1942334 0.17076994
0.2403429 0.11566792 0.21785489 0.24690585 0.119997345 0.19308773 0.12064494 0.1113661
0.07881487 0.342903 0.16738278 0.2626424 0.12699674 0.088277295 0.20361881 0.10522329
0.21761858 0.06874337 0.05530781 0.06704665 0.13671501 0.14170827 0.1818101 0.08218497
0.07710228 0.1667719 0.29119897 0.051685337 0.18506868 0.18821211 0.09632081 0.13916074
0.17548302 0.1387528 0.22592796 0.12761581 0.16445756 0.083800554 0.10398253 0.12837431
0.19462982 0.110099666 0.1742371 0.1167124 0.09706238 0.06503494 0.1647339 0.34414136
0.14445283 0.13405198 0.29329792 0.10222912 0.06771885 0.13917491 0.15439533 0.15284033
00000000: eedf 0f3e c6fd e43d 4ed1 123e 65ea cb3d
00000010: b12a 223e 6e60 153e 68dd d33d 54cb 8c3e
00000020: a5bd fc3d bf66 453e 6f12 cb3d 419d bd3d
00000030: 7ea8 c83d 45b3 a63d 5ca5 fa3d 4e84 a73d
00000040: d527 7b3e 53c7 bd3d 7b3b 573e 4a1d fd3d
00000050: bfd7 853e 54a9 853e b08f 0c3e 9100 d53d
00000060: f4d9 683e 3dcc 043e 1c52 e53d 5a5d 183e
00000070: adcb 0c3e 3a29 fc3d ed84 5a3e c3c8 1b3e
00000080: 546f 033e 7462 d23d 63ac 733e 09fd 003e
00000090: 4a7a 473e a863 e43d 52c2 af3e 6df3 f53d
000000a0: d850 743d 9265 0a3e 7463 d93d 9be5 7c3d
000000b0: c80e 0e3e 64e6 ff3d 4731 3e3e 61ee bc3d
000000c0: 9515 913e bc27 073e f262 9d3e a114 633e
000000d0: d3a0 f23d 929b c43d 3878 963d 0aef cb3d
000000e0: 9b6a 7e3e 3373 b93d 813b 213e 3f02 423e
000000f0: 3b0c f83d 10b0 3a3e 329c da3e 40be e43d
00000100: 4028 0e3e caf9 c83d e759 ef3d c4d9 2b3e
00000110: b790 1c3e 8f5b 543e 1fe5 463e 51de 2e3e
00000120: 731c 763e 4de3 ec3d 5a15 5f3e e3d4 7c3e
00000130: 2bc1 f53d cab8 453e b214 f73d e913 e43d
00000140: b169 a13d fb90 af3e 6466 2b3e 1179 863e
00000150: 6f0b 023e baca b43d 7381 503e 4f7f d73d
00000160: 68d7 5e3e 53c9 8c3d 718a 623d c14f 893d
00000170: 05ff 0b3e f91b 113e 6d2c 3a3e 9850 a83d
00000180: cde7 9d3d 41c6 2a3e 0818 953e 01b4 533d
00000190: a582 3d3e adba 403e d843 c53d 2780 0e3e
000001a0: d2b1 333e 3715 0e3e a959 673e b8ad 023e
000001b0: 9067 283e a09f ab3d cbf4 d43d 8e74 033e
000001c0: 0a4d 473e ef7b e13d 366b 323e e906 ef3d
000001d0: a4c8 c63d 0a31 853d 01b0 283e 4c33 b03e
000001e0: 71eb 133e ec44 093e 252b 963e 805d d13d
000001f0: 2eb0 8a3d de83 0e3e cf19 1e3e 2d82 1c3e
