models/roof_segmentation_dgcnn_best.pth (torch, 377692 bytes, 42 tensors)

encoder.conv1.nn.0.weight f4 [64, 12]
-0.14450152 0.2855309 0.3322982 0.09912415 -0.25147036 0.35153043 -0.20963846 0.2694143
-0.2690999 0.31063145 -0.25029907 0.20830534 0.21255203 0.16141899 0.10043532 0.103001826
0.114456095 -0.34853747 -0.017677434 0.31252256 -0.28451613 0.107938506 0.106969275 -0.0021748464
0.055979542 0.3349382 -0.08046907 -0.16805337 -0.013964298 -0.26131684 -0.07260202 0.31363577
0.08098767 -0.103058636 -0.14668232 -0.084763266 -0.2815612 0.14724916 -0.29228473 -0.23133948
0.08095049 0.29841676 0.08324557 -0.098352954 -0.20352264 0.13017394 0.2473076 0.22855404
0.13085115 0.047866326 -0.052528493 0.053023253 -0.13587841 0.23383579 0.19585037 0.28634876
0.26931074 0.26292962 -0.10519493 -0.18045641 0.1078927 -0.058792558 0.07828947 0.14249592
-0.2884833 0.13821574 0.19012363 0.087895304 -0.0021454764 -0.20493501 0.013248575 0.092567235
-0.08280108 0.030954927 0.21925777 0.03002251 0.27851093 -0.22765067 -0.18788913 -0.18144561
-0.22419249 -0.33903074 0.19581942 -0.083063595 -0.32071257 0.09026775 0.13034981 -0.19645935
-0.023980081 0.10114063 -0.040807538 0.11573348 0.011891751 -0.09955106 -0.099792436 0.06957703
-0.017677708 -0.19447283 -0.18871164 0.21341294 0.17981534 0.014357954 -0.040117368 -0.04902953
0.2259783 -0.12106258 -0.24072827 0.23500963 0.14533387 0.23830222 -0.10093637 -0.1672565
0.20659211 0.21800484 0.12523723 0.07645187 0.25989407 -0.13717864 0.043506123 0.28191742
-0.21509853 0.097798064 -0.17088425 0.12501155 0.2554626 0.011769427 0.015835132 -0.22101128
0.12329924 0.058453597 -0.020521492 0.29559168 -0.22259088 0.17583358 0.12197221 -0.051857475
-0.270628 0.06647916 0.29847896 0.19236977 -0.20006104 0.03035481 -0.022651339 -0.26142278
-0.13980563 0.14101851 0.197028 0.2330454 0.18070641 0.25818014 0.1165937 -0.11714927
-0.014502086 -0.24443877 -0.046848614 0.07730903 0.1358842 0.098544724 -0.21125299 -0.22964737
0.1953287 -0.016592132 -0.2742867 0.15500003 -0.25385937 0.21526933 0.20868032 -0.2849009
0.088901296 0.14716992 -0.056302223 0.08449885 -0.2872341 -0.03521266 0.4206578 0.25258678
0.15744622 0.153829 -0.07272608 0.17228429 -0.25023454 -0.019665226 -0.276168 0.071945295
-0.041467454 -0.052933455 0.19483973 0.034934003 0.08684352 -0.2026842 -0.2510186 -0.09658573
0.04652322 -0.1408857 0.074296355 -0.20863175 0.11622608 -0.071744315 0.002899253 -0.04953335
0.09037917 0.07970409 -0.14195937 0.028196143 -0.029291458 0.14398725 0.22422063 -0.16604254
0.30310693 0.25624147 -0.03385206 0.1748005 0.058324035 -0.03059572 0.17681837 0.13231291
-0.1898608 0.18523477 -0.1911934 -0.06617947 0.21417156 0.17497006 -0.1315625 -0.095407635
0.007900509 0.058994543 0.09808776 0.07694289 -0.26265052 -0.13401882 0.20606577 -0.23648931
0.25361082 0.018058278 0.16211821 0.12628788 -0.022739919 -0.14409605 0.18338598 0.24029055
-0.14568803 0.16162096 -0.09480823 -0.012031464 -0.119106494 -0.18212262 0.010707168 0.1758782
-0.094763346 0.26330632 0.029971238 -0.19650948 0.24835847 -0.0008935237 -0.1689651 0.29135308
00000000: 35f8 13be 1b31 923e fd22 aa3e 9a01 cb3d
00000010: b9c0 80be ccfb b33e 77ab 56be acf0 893e
00000020: 76c7 89be 160b 9f3e 3327 80be ff4d 553e
00000030: 3da7 593e 054b 253e 08b1 cd3d 9ff2 d23d
00000040: f567 ea3d 8173 b2be 44d0 90bc f502 a03e
00000050: 19ac 91be dd0e dd3d b512 db3d de87 0ebb
00000060: ce4a 653d 057d ab3e f8cc a4bd 2f16 2cbe
00000070: 83ca 64bc 52cb 85be 5eb0 94bd de94 a03e
00000080: dddc a53d 6810 d3bd e433 16be 5d98 adbd
00000090: ca28 90be 7cc8 163e 58a6 95be 42e4 6cbe
000000a0: 5fc9 a53d 15ca 983e a77c aa3d 466d c9bd
000000b0: 3d68 50be 514c 053e 343e 7d3e 120a 6a3e
000000c0: d8fd 053e 7b0f 443d 1e28 57bd e92e 593d
000000d0: b623 0bbe a672 6f3e 008d 483e 4e9c 923e
000000e0: 19e3 893e b69e 863e 7170 d7bd 91c9 38be
000000f0: d9f6 dc3d 77d0 70bd 3b56 a03d 73ea 113e
00000100: 15b4 93be 6d88 0d3e c5af 423e 7402 b43d
00000110: 1f9b 0cbb 7cda 51be 8d10 593c e493 bd3d
00000120: 9d93 a9bd 3095 fd3c 1c85 603e c4f1 f53c
00000130: fc98 8e3e 421d 69be 0266 40be e1cc 39be
00000140: b792 65be 7095 adbe e384 483e 3f1d aabd
00000150: 7034 a4be 4cde b83d 6c7a 053e a42c 49be
00000160: e071 c4bc d222 cf3d ce25 27bd ad05 ed3d
00000170: 9ed5 423c 6de1 cbbd fa5f ccbd 677e 8e3d
00000180: d7d0 90bc e323 47be a03d 41be ec88 5a3e
00000190: 8321 383e a03d 6b3c 1c52 24bd 30d3 48bd
000001a0: db66 673e a8ef f7bd 7981 76be 5da6 703e
000001b0: 67d2 143e 7f05 743e bab7 cebd 4a45 2bbe
000001c0: e28c 533e a93c 5f3e 303e 003e cc92 9c3d
000001d0: d610 853e 8f78 0cbe 7a33 323d 7b57 903e
000001e0: ca42 5cbe 5a4a c83d 48fc 2ebe 0703 003e
000001f0: fecb 823e 8ed4 403c aeb8 813c c850 62be
00000200: 5084 fc3d 0a6d 6f3d b01c a8bc cb57 973e
00000210: ddee 63be b80d 343e 91cc f93d 8168 54bd
00000220: c18f 8abe 3a26 883d 3cd2 983e 95fc 443e
00000230: cddc 4cbe a7aa f83c 4d8f b9bc 35d9 85be
00000240: 3529 0fbe 2867 103e b5c1 493e 74a3 6e3e
00000250: 1a0b 393e 3030 843e aec8 ee3d f5eb efbd
00000260: 289a 6dbc 284e 7abe 55e4 3fbd 3254 9e3d
00000270: 3a25 0b3e d1d1 c93d b452 58be ae28 6bbe
00000280: 3f04 483e 39ec 87bc 4e6f 8cbe 54b8 1e3e
00000290: dbf9 81be 906f 5c3e 4bb0 553e 88de 91be
000002a0: e211 b63d b6b3 163e 299d 66bd bc0d ad3d
000002b0: 5910 93be 263b 10bd 7660 d73e 0e53 813e
000002c0: 9539 213e 5985 1d3e 69f1 94bd 4b6b 303e
000002d0: be1e 80be f818 a1bc e465 8dbe 0e58 933d
000002e0: c7d9 29bd c0d0 58bd 1184 473e f516 0f3d
000002f0: 04db b13d 728c 4fbe 8385 80be bdce c5bd
00000300: 228f 3e3d 5744 10be b028 983d 90a3 55be
00000310: f007 ee3d afee 92bd 6501 3e3b 7be3 4abd
00000320: b718 b93d e63b a33d cc5d 11be 99fb e63c
00000330: a4f4 efbc 6571 133e 189a 653e 0e07 2abe
00000340: d530 9b3e 1532 833e 75a8 0abd e7fe 323e
00000350: 2fe5 6e3d e0a3 fabc e00f 353e 097d 073e
00000360: df6a 42be 2fae 3d3e 34c8 43be 1a89 87bd
00000370: ca4f 5b3e 5a2b 333e 52b8 06be 1465 c3bd
00000380: 2371 013c 43a4 713d 3ce2 c83d 3c94 9d3d
00000390: 217a 86be 3b3c 09be e802 533e 412a 72be
000003a0: 47d9 813e f4ee 933c 5102 263e 9c51 013e
000003b0: 1149 babc ea8d 13be 89c9 3b3e ba0e 763e
000003c0: 3e2f 15be f77f 253e d12a c2bd 9e1f 45bc
000003d0: 1bee f3bd 5a7e 3abe 1e6d 2f3c 6a19 343e
000003e0: 4913 c2bd 16d0 863e 3e86 f53c c839 49be
000003f0: af51 7e3e 5c3b 6aba 3005 2dbe 3b2c 953e

encoder.conv1.nn.0.bias f4 [64]
0.09108567 -0.16265284 0.03771549 -0.26320532 -0.02164918 0.10350884 -0.16910084 -0.17558925
0.16223553 -0.18792407 0.18651396 0.2855622 -0.17051876 0.029793983 0.22605754 -0.17851746
0.17405327 0.12551296 -0.119897276 -0.2577864 0.1968015 -0.13995937 0.076541424 0.22691602
-0.28582823 0.18475772 -0.19228236 0.25054282 0.101453386 -0.13029164 -0.055879403 0.076256566
-0.020317387 -0.009300701 -0.015353885 0.18433468 0.03698877 0.0025666163 0.13151562 -0.0190639
0.1931984 -0.18938336 -0.24220754 -0.15504393 0.005809922 0.24058142 0.05614245 0.25366354
0.24205934 -0.04159698 0.07333773 -0.29041684 -0.0047029746 0.16441116 0.2780655 -0.16925469
-0.12346868 0.27463996 0.11871264 -0.038517296 -0.11309715 0.17842118 0.28861085 0.18386683
00000000: 208b ba3d 778e 26be 8f7b 1a3d d9c2 86be
00000010: 9f59 b1bc 71fc d33d c528 2dbe abcd 33be
00000020: 1221 263e 2b6f 40be 84fd 3e3e 3535 923e
00000030: 789c 2ebe 8312 f43c a17b 673e 48cd 36be
00000040: 053b 323e 7886 003e b48c f5bd 94fc 83be
00000050: 5586 493e 8251 0fbe c0c1 9c3d ac5c 683e
00000060: 1458 92be 2131 3d3e abe5 44be 2647 803e
00000070: cbc6 cf3d 2c6b 05be cde1 64bd 672c 9c3d
00000080: a670 a6bc f861 18bc dc8e 7bbc 3bc2 3c3e
00000090: 8981 173d ad34 283b 08ac 063e e52b 9cbc
000000a0: cdd5 453e b6ed 41be 4105 78be d6c3 1ebe
000000b0: 2861 be3b fa5a 763e a0f5 653d 30e0 813e
000000c0: 67de 773e 9861 2abd 1732 963d 84b1 94be
000000d0: 691b 9abb 665b 283e 9a5e 8e3e 1a51 2dbe
000000e0: 26dd fcbd 9c9d 8c3e 9d1f f33d 50c4 1dbd
000000f0: 7b9f e7bd 0bb4 363e cdc4 933e 9647 3c3e

encoder.conv1.nn.1.weight f4 [64]
1.0766993 0.9431387 0.98111045 0.962812 0.96108425 1.0648954 0.9263889 0.96872944
1.0321819 0.99492437 1.007006 1.0391308 0.9288332 0.9587209 0.9813987 1.0098568
1.0061369 0.95793647 0.9494122 0.9545335 0.9648615 0.99952763 1.0212321 1.0602543
1.0400345 0.93821836 1.0367506 0.94663197 1.0204116 1.0056754 1.0536836 0.954305
1.0800283 0.92141974 0.9576882 0.9881713 0.9985811 0.95452195 1.0336195 0.9979661
0.9411828 1.0775697 1.0341581 1.012402 1.0585681 0.9984236 0.9480896 0.9653099
0.9991852 0.99075484 1.0638794 1.0797293 1.0679263 1.0603648 1.1004738 0.9681764
0.9930285 0.95905226 1.0618418 1.0072931 1.0035304 1.0451865 1.0148768 1.0101007
00000000: 48d1 893f 8a71 713f 0e2a 7b3f d97a 763f
00000010: 9e09 763f 7e4e 883f d327 6d3f a7fe 773f
00000020: 891e 843f 5db3 7e3f 93e5 803f 3d02 853f
00000030: 03c8 6d3f bc6e 753f f23c 7b3f fd42 813f
00000040: 18c9 803f 533b 753f ae0c 733f 4f5c 743f
00000050: 2a01 773f 0be1 7f3f bcb7 823f 6ab6 873f
00000060: da1f 853f 142f 703f 3eb4 843f 7956 723f
00000070: d99c 823f f9b9 803f 1bdf 863f 554d 743f
00000080: 5e3e 8a3f 2ae2 6b3f 0e2b 753f cbf8 7c3f
00000090: 03a3 7f3f 8d5b 743f a54d 843f b57a 7f3f
000000a0: 5bf1 703f ceed 893f 4b5f 843f 6496 813f
000000b0: 297f 873f b098 7f3f 00b6 723f 8d1e 773f
000000c0: 9aca 7f3f 1ca2 7d3f 332d 883f 9234 8a3f
000000d0: cfb1 883f 09ba 873f 53dc 8c3f 69da 773f
000000e0: 1e37 7e3f 7384 753f 6fea 873f fbee 803f
000000f0: af73 803f acc8 853f 7ce7 813f fb4a 813f

encoder.conv1.nn.1.bias f4 [64]
0.112697154 0.042823613 0.04440279 0.027227303 -0.041059613 0.046401028 0.0020590944 0.032783262
-0.043212708 0.006313199 -0.04501534 0.053342674 0.044748824 -0.047234084 0.045371898 0.017419593
-0.00927999 0.00507771 -0.012660767 -0.017625405 0.0037994017 0.022765337 -0.023825422 0.013163119
0.11331905 -0.08885462 0.10354485 -0.06543526 0.042767327 -0.0067482125 0.0040010554 0.024892075
-0.009589864 -0.043189786 -0.046166155 -0.035192426 0.07781592 -0.025983592 -0.016292358 -0.103690274
0.02485377 0.021352308 -0.030172143 0.0032696077 0.034703035 -0.08991972 -0.020060023 0.015368931
-0.007373713 -0.008954135 0.07674422 0.10221871 0.011035606 0.06471459 0.13696216 0.0863821
-0.00823435 0.025008256 0.116054505 0.06665986 0.038990267 0.011523155 -0.047094803 0.057659794
00000000: c4cd e63d d067 2f3d b3df 353d cb0b df3c
00000010: 202e 28bd 010f 3e3d dff1 063b be47 063d
00000020: cfff 30bd f4de ce3b 0162 38bd d97d 5a3d
00000030: 8b4a 373d 8778 41bd e2d7 393d 89b3 8e3c
00000040: 190b 18bc eb62 a63b 1b6f 4fbc 2763 90bc
00000050: 62ff 783b 5f7e ba3c 882d c3bc 1faa 573c
00000060: d113 e83d 69f9 b5bd 530f d43d ec02 86bd
00000070: cb2c 2f3d 1c20 ddbb 491b 833b 77ea cb3c
00000080: ce1e 1dbc c6e7 30bd b918 3dbd ef25 10bd
00000090: f45d 9f3d 8bdb d4bc 8d77 85bc 915b d4bd
000000a0: 229a cb3c 09eb ae3c 922b f7bc ea46 563b
000000b0: c524 0e3d d527 b8bd eb54 a4bc f8cd 7b3c
000000c0: 309f f1bb 5db4 12bc 132c 9d3d 0b58 d13d
000000d0: b0ce 343c 1589 843d cf3f 0c3e 19e9 b03d
000000e0: 5ee9 06bc 1dde cc3c fcad ed3d f784 883d
000000f0: 42b4 1f3d 9dcb 3c3c 7be6 40bd ad2c 6c3d

encoder.conv1.nn.1.running_mean f4 [64]
0.41428268 -0.48398706 -0.20330063 0.01322814 0.19406113 0.2295626 -0.3781922 -0.08210973
0.17613211 0.014876315 0.19834411 0.34532326 0.06877193 0.01624725 0.19182508 -0.2274698
0.10857398 0.36389327 0.042961787 -0.23950438 0.027858648 -0.18535845 -0.09577519 0.32240713
-0.16828139 -0.008687097 -0.38369226 0.010575939 0.050489362 -0.01567851 -0.07820539 0.11600275
-0.08941136 -0.117365934 -0.0001368712 -0.04269434 -0.0389521 -0.21355794 0.10270761 0.21401367
0.3268908 0.054157436 -0.39836055 -0.4305805 0.11710942 0.471129 0.08925308 0.34826466
0.17943996 -0.112613894 0.3323484 -0.077803314 -0.19412388 0.22955035 0.39978525 -0.26064336
-0.1848852 0.45300525 0.049576893 0.21885033 -0.06310222 -0.07371077 0.32278797 0.04190437
00000000: dc1c d43e 27cd f7be 0a2e 50be d7ba 583c
00000010: f6b7 463e 7512 6b3e 68a2 c1be 2529 a8bd
00000020: fa5b 343e cabb 733c b81a 4b3e 36ce b03e
00000030: 4cd8 8c3d f418 853c cb6d 443e d8ed 68be
00000040: 095c de3d 3850 ba3e b3f8 2f3d a340 75be
00000050: d237 e43c 9bce 3dbe c825 c4bd 8c12 a53e
00000060: f551 2cbe 5354 0ebc 5073 c4be b446 2d3c
00000070: efcd 4e3d 3870 80bc 262a a0bd da92 ed3d
00000080: 4e1d b7bd 8d5d f0bd 1585 0fb9 43e0 2ebd
00000090: 3d8c 1fbd efae 5abe 5e58 d23d 6626 5b3e
000000a0: 3b5e a73e 30d4 5d3d eaf5 cbbe 0c75 dcbe
000000b0: 10d7 ef3d d237 f13e 52ca b63d bf4f b23e
000000c0: 1cbf 373e 1da2 e6bd 9229 aa3e 5857 9fbd
000000d0: 69c8 46be 3f0f 6b3e a7b0 cc3e 0c73 85be
000000e0: 8c52 3dbe 4ef0 e73e 2411 4b3d 4d1a 603e
000000f0: bd3b 81bd acf5 96bd 7744 a53e eba3 2b3d

encoder.conv1.nn.1.running_var f4 [64]
0.012708456 0.014744257 0.016950283 0.022012917 0.004124061 0.011461316 0.0077949446 0.019407777
0.0077915257 0.01779259 0.01254024 0.012397412 0.011588655 0.009293333 0.0073223845 0.0068644118
0.0046355184 0.01578727 0.016431134 0.020253055 0.0055970666 0.020070191 0.00632469 0.022279201
0.012205494 0.015254324 0.005077859 0.0139848655 0.009297128 0.0130937975 0.0056795697 0.005946499
0.0041893935 0.009989823 0.012460364 0.001654616 0.0066119707 0.009564481 0.0059561413 0.00975533
0.013086209 0.0076961997 0.026083928 0.016383655 0.012014281 0.021923013 0.014708608 0.023041252
0.008026523 0.013303596 0.0065068286 0.015778432 0.004263863 0.016602788 0.008806176 0.0115979435
0.0058709206 0.016228871 0.01995556 0.010258373 0.009172328 0.008672172 0.007410936 0.008532716
00000000: 2137 503c e591 713c 52db 8a3c 6f54 b43c
00000010: 2223 873b 3ec8 3b3c bc6c ff3b 0ffd 9e3c
00000020: 0e50 ff3b c4c1 913c 9475 4d3c 841e 4b3c
00000030: 58de 3d3c 1043 183c 9df0 ef3b dcee e03b
00000040: 8ce5 973b 4e54 813c 969a 863c bce9 a53c
00000050: 9967 b73b 3e6a a43c 583f cf3b df82 b63c
00000060: 8df9 473c 46ed 793c 2b64 a63b c720 653c
00000070: fb52 183c 5e87 563c af1b ba3b d9da c23b
00000080: 2e47 893b 5bac 233c 8e26 4c3c b3df d83a
00000090: 3ba9 d83b 57b4 1c3c bc2b c33b d2d4 1f3c
000000a0: 8a67 563c 6730 fc3b f6ad d53c 0437 863c
000000b0: 8cd7 443c e497 b33c 60fc 703c 02c1 bc3c
000000c0: ad81 033c 53f7 593c 3c37 d53b c541 813c
000000d0: e0b7 8b3b 9202 883c c747 103c 4d05 3e3c
000000e0: da60 c03b 69f2 843c d879 a33c bc12 283c
000000f0: 8847 163c ba15 0e3c 70d7 f23b cecc 0b3c

encoder.conv2.nn.0.weight f4 [64, 128]
0.01223108 -0.07008058 -0.014737384 -0.022879072 -0.09646549 -0.0037360203 0.03507313 0.06320267
-0.092268676 -0.076096416 -0.1118861 0.06074502 -0.06472119 0.021349568 -0.09421459 0.01550408
-0.03312965 0.025164552 -0.09756186 -0.04567478 0.052902304 -0.083939165 -0.034557153 0.068740204
-0.010460829 0.060143534 -0.021452367 0.055192836 -0.0289558 0.0565794 -0.013566984 0.06418943
-0.02354036 -0.029058525 -0.07331783 0.0038213432 -0.013212812 0.08225149 0.03835412 0.020644385
-0.0078011435 0.069100745 0.10641881 0.027249878 -0.045892484 0.07016131 -0.056882445 0.035377037
0.055509407 -0.08345409 0.01821364 -0.06880251 0.1006829 -0.020156788 0.0794434 0.07149577
-0.027830236 0.019706745 0.07486817 -0.014491683 0.093845405 0.07690003 -0.030598136 -0.010811535
0.0051877717 -0.027647829 -0.0842093 -0.002231179 0.082790084 0.047331855 -0.06704838 -0.006936763
-0.039910782 -0.07485704 0.06416835 0.10915946 -0.012700116 -0.10313879 -0.04044748 0.014917072
0.061895136 -0.102674685 -0.06807139 0.02960378 -0.06071378 -0.08254504 0.07180533 0.03395452
0.0783826 0.07651517 0.09217512 -0.05811341 -0.039779127 -0.01349284 0.090507485 -0.022135245
-0.033678718 0.1269897 -0.01990276 -0.09229827 -0.0003694874 -0.09773766 -0.058883246 0.06693085
-0.02307542 0.09939452 -0.1068768 -0.08864772 -0.12393996 -0.054995578 0.029347384 -0.08153314
0.013721947 0.061732505 0.0019968108 -0.05322165 -0.023006687 0.10767405 -0.0042222883 -0.06574182
0.075070925 -0.035570674 0.070970856 0.038194183 -0.076039165 -0.051413573 -0.0067428695 -0.036131717
-0.039540395 -0.016119333 0.064737044 0.10720021 0.009590224 -0.043507095 -0.07697172 -0.0061609037
-0.019206261 -0.07457847 0.010134209 0.07491515 -0.06696726 0.09538681 -0.046540476 0.08587872
-0.040169515 -0.06289267 0.0846189 0.059237093 0.08428477 0.102640465 -0.023550699 -0.028149603
0.041717093 0.048169985 0.065314375 0.07723567 0.075001344 -0.026239825 0.050099686 0.046543453
0.0131392265 0.008513272 0.046546947 0.05960568 0.015602097 0.09261418 -0.01488181 -0.03381696
-0.05888183 -0.066683285 0.112920314 -0.0021193093 -0.010970339 0.1157124 -0.014604378 0.0046197246
0.061223377 0.13194461 0.06422722 -0.041775107 0.118923835 0.0637202 0.0970119 -0.0065823104
0.1339671 -0.025948053 0.09219765 -0.059664983 0.0746204 0.128665 0.019579846 -0.06852608
-0.1752316 -0.01531543 0.012511184 -0.04550551 -0.0728641 -0.055779822 -0.017662626 0.07799328
-0.017493227 -0.033498514 -0.0068549234 -0.055381253 0.038765352 -0.027958903 -0.13588959 0.07804527
0.12708801 0.011057155 -0.04174404 -0.008687647 -0.09581271 -0.07439396 -0.035414398 0.036603976
0.044080608 0.050872725 0.040069662 0.024932222 0.017388465 0.03683342 -0.012104599 -0.035779584
-0.10648526 -0.07695665 0.11026108 0.007913546 0.004860511 -0.121895365 0.08868257 -0.12804273
0.0069876667 -0.02157238 -0.1145074 -0.066298746 -0.105853476 -0.033604566 0.029692356 0.03576771
0.122334644 -0.12518892 0.043199673 -0.11040675 -0.040503506 0.0012181624 -0.03735551 -0.07391973
-0.020334266 0.04947541 -0.07359835 -0.050825734 -0.09037521 -0.044707254 -0.009111599 0.12391037
00000000: de64 483c 6886 8fbd 1275 71bc e46c bbbc
00000010: b38f c5bd 05d8 74bb d8a8 0f3d 6770 813d
00000020: 5cf7 bcbd 70d8 9bbd 8a24 e5bd c5cf 783d
00000030: 8b8c 84bd 4ae5 ae3c 94f3 c0bd d304 7e3c
00000040: f5b2 07bd e425 ce3c 83ce c7bd 7a15 3bbd
00000050: 16b0 583d 4ce8 abbd cd8b 0dbd aac7 8c3d
00000060: e663 2bbc 1159 763d e0bc afbc e211 623d
00000070: b734 edbc cdbf 673d 0e48 5ebc bf75 833d
00000080: b7d7 c0bc 250c eebc a927 96bd 806f 7a3b
00000090: 8d7a 58bc 7873 a83d 3619 1d3d 6a1e a93c
000000a0: bca0 ffbb b184 8d3d 1bf2 d93d 233b df3c
000000b0: c2f9 3bbd bcb0 8f3d 91fd 68bd 83e7 103d
000000c0: d55d 633d fae9 aabd c634 953c 55e8 8cbd
000000d0: d632 ce3d d91f a5bc 39b3 a23d 606c 923d
000000e0: 3cfc e3bc 0a70 a13c 7c54 993d 866e 6dbc
000000f0: 0532 c03d c37d 9d3d f1a8 fabc dd22 31bc
00000100: 2ffe a93b b37d e2bc ed75 acbd f938 12bb
00000110: d98d a93d 0cdf 413d a950 89bd c94d e3bb
00000120: 7d79 23bd a64e 99bd b26a 833d ff8e df3d
00000130: 2614 50bc 6e3a d3bd 42ac 25bd bc66 743c
00000140: c185 7d3d 1b47 d2bd 0369 8bbd a083 f23c
00000150: 03af 78bd 600d a9bd ac0e 933d e513 0b3d
00000160: 0e87 a03d fcb3 9c3d 4fc6 bc3d 5408 6ebd
00000170: 70ef 22bd 1311 5dbc fd5b b93d f954 b5bc
00000180: b2f2 09bd 9709 023e 1d0b a3bc e006 bdbd
00000190: c2b7 c1b9 af2a c8bd 8f2f 71bd 0b13 893d
000001a0: aa08 bdbc 5b8f cb3d 39e2 dabd f08c b5bd
000001b0: 3cd4 fdbd 0b43 61bd ed69 f03c d9fa a6bd
000001c0: 04d2 603c 39db 7c3d eddc 023b f2fe 59bd
000001d0: 8578 bcbc 3684 dc3d 1f5b 8abb a6a3 86bd
000001e0: c9be 993d 8eb2 11bd 2b59 913d 8171 1c3d
000001f0: 6cba 9bbd 0a97 52bd 4af3 dcbb dafe 13bd
00000200: 1cf5 21bd b10c 84bc db94 843d c98b db3d
00000210: 5120 1d3c 7f34 32bd 59a3 9dbd 68e1 c9bb
00000220: 7356 9dbc 99bc 98bd f409 263c 1d6d 993d
00000230: 2126 89bd 295a c33d 3aa1 3ebd 2fe1 af3d
00000240: ca88 24bd dfcd 80bd ad4c ad3d 98a2 723d
00000250: 7e9d ac3d 2a35 d23d 65ed c0bc ff99 e6bc
00000260: 8bdf 2a3d e44d 453d 8bc3 853d bc2d 9e3d
00000270: 4e9a 993d e7f4 d6bc 5435 4d3d 59a4 3e3d
00000280: e945 573c 407b 0b3c 03a8 3e3d 1625 743d
00000290: f09f 7f3c 81ac bd3d d6d2 73bc a783 0abd
000002a0: 132e 71bd 3f91 88bd c442 e73d 1ce4 0abb
000002b0: f0bc 33bc 9ffa ec3d 3347 6fbc 0f61 973b
000002c0: 5dc5 7a3d 7d1c 073e 9089 833d 601c 2bbd
000002d0: 578e f33d bc7f 823d 2dae c63d 6cb0 d7bb
000002e0: ac2e 093e 0391 d4bc 1fd2 bc3d 4563 74bd
000002f0: 95d2 983d c2c0 033e ea65 a03c 6757 8cbd
00000300: ea6f 33be 92ed 7abc b6fb 4c3c fc63 3abd
00000310: c639 95bd 6279 64bd 36b1 90bc f1ba 9f3d
00000320: f54d 8fbc bd35 09bd 449f e0bb 74d7 62bd
00000330: 6bc8 1e3d 120a e5bc a426 0bbe 33d6 9f3d
00000340: 5c23 023e 1229 353c ccfb 2abd a256 0ebc
00000350: 7439 c4bd dc5b 98bd b00e 11bd 0dee 153d
00000360: de8d 343d eb5f 503d 1620 243d a93e cc3c
00000370: 4172 8e3c a4de 163d 5e52 46bc 9d8d 12bd
00000380: f214 dabd 739b 9dbd 90d0 e13d d1a7 013c
00000390: ec44 9f3b 47a4 f9bd 359f b53d a21d 03be
000003a0: ccf8 e43b 8fb8 b0bc db82 eabd a3c7 87bd
000003b0: b5c9 d8bd f1a4 09bd 623d f33c 2a81 123d
000003c0: 968a fa3d 8631 00be 24f2 303d ef1c e2bd
000003d0: 01e7 25bd bfaa 9f3a 1702 19bd 3a63 97bd
000003e0: 0c94 a6bc baa6 4a3d bbba 96bd a52e 50bd
000003f0: a316 b9bd f41e 37bd d148 15bc b8c4 fd3d

encoder.conv2.nn.0.bias f4 [64]
-0.0033393034 0.0122690145 -0.09646602 0.04412212 -0.07299884 0.078237675 0.072884284 -0.07625903
-0.10255943 -0.04416382 -0.037864175 -0.062835716 0.04369518 0.027783431 -0.01273455 0.02711149
0.044631407 0.043657426 0.029970702 -0.05433873 -0.026138237 0.07083363 -0.080011114 0.009098258
0.009660646 0.055467837 -0.011846776 0.019084446 -0.077796444 -0.005390522 -0.060463425 0.0409023
0.061679643 0.024906332 0.014282439 -0.022471989 -0.022890294 -0.117118925 -0.0013702414 -0.01925409
-0.02611211 -0.062542014 -0.00935605 0.04335449 -0.07128093 -0.0068368143 -0.029301347 -0.0143919205
0.083600074 0.059787743 0.036284424 -0.10141088 -0.05956441 0.05477307 -0.09117293 0.011978773
0.061793074 0.0007953107 -0.086161196 -0.03133804 -0.029341215 0.0436845 -0.031240301 -0.0043833074
00000000: 37d8 5abb fa03 493c fa8f c5bd 65b9 343d
00000010: 6a80 95bd 133b a03d 5b44 953d b22d 9cbd
00000020: ae0a d2bd 1fe5 34bd 7717 1bbd 03b0 80bd
00000030: b8f9 323d 149a e33c 93a4 50bc ea18 de3c
00000040: 6ccf 363d 21d2 323d 1e85 f53c 4a92 5ebd
00000050: db1f d6bc 3911 913d dedc a3bd dc10 153c
00000060: b047 1e3c 3e32 633d fb18 42bc fc56 9c3c
00000070: be53 9fbd faa2 b0bb 7fa8 77bd 2c89 273d
00000080: cba3 7c3d 5d08 cc3c e400 6a3c 2d17 b8bc
00000090: 6d84 bbbc 0cdc efbd ac99 b3ba c1ba 9dbc
000000a0: 10e9 d5bc 0716 80bd 1e4a 19bc 7a94 313d
000000b0: bcfb 91bd 5b07 e0bb 6109 f0bc 17cc 6bbc
000000c0: 8436 ab3d fee3 743d fa9e 143d 82b0 cfbd
000000d0: d0f9 73bd ba59 603d e0b8 babd 9e42 443c
000000e0: bc1a 7d3d 667c 503a 4875 b0bd 515c 00bd
000000f0: fd5c f0bc 85ee 323d a9eb ffbc d9a1 8fbb

encoder.conv2.nn.1.weight f4 [64]
0.99725205 1.0446055 1.0095911 0.9371808 1.0046725 0.9944565 1.012549 0.9972941
1.0849515 1.0386411 1.022784 0.93971765 0.9804852 0.9562063 0.9994054 1.0487099
0.953141 0.9958367 1.0559739 0.9846653 0.905244 0.9677283 1.1607366 0.9207731
1.0004414 0.9888547 1.0477118 1.0042132 1.0459021 1.0083203 1.0250564 1.0246284
0.98213285 1.0115505 1.0313851 0.9664028 1.0906245 1.064862 0.9858274 1.0343602
0.9935135 1.0011787 0.97546965 1.0812281 0.9791274 0.966547 1.0689027 1.0026675
1.0175514 0.98039573 1.0417718 1.0031167 1.0360159 0.97956365 1.012839 0.9507219
1.0248969 0.99590737 0.99967164 1.0156897 1.0431203 0.9990922 1.1059773 1.0309489
00000000: e94b 7f3f a2b5 853f 483a 813f 15eb 6f3f
00000010: 1c99 803f b494 7e3f 359b 813f ab4e 7f3f
00000020: b1df 8a3f 31f2 843f 96ea 823f 5691 703f
00000030: 1401 7b3f f0c9 743f 08d9 7f3f 203c 863f
00000040: 0c01 743f 27ef 7e3f 272a 873f 0613 7c3f
00000050: 12be 673f 0bbd 773f 0493 943f c9b7 6b3f
00000060: 770e 803f 9525 7d3f 6c1b 863f 0f8a 803f
00000070: 1fe0 853f a410 813f 0c35 833f 0627 833f
00000080: 0f6d 7b3f 7d7a 813f 6d04 843f 2d66 773f
00000090: 9599 8b3f 664d 883f 2f5f 7c3f ea65 843f
000000a0: e756 7e3f a026 803f 61b8 793f af65 8a3f
000000b0: 18a8 7a3f a06f 773f ced1 883f 6957 803f
000000c0: 203f 823f 37fb 7a3f c758 853f 2166 803f
000000d0: 2b9c 843f afc4 7a3f b5a4 813f 8362 733f
000000e0: d22f 833f c9f3 7e3f 7bea 7f3f 1f02 823f
000000f0: f784 853f 82c4 7f3f aa90 8d3f 22f6 833f

encoder.conv2.nn.1.bias f4 [64]
0.048631568 0.07376126 0.11159451 -0.029477762 0.09494035 0.062331617 0.12198073 0.018287394
0.05649666 0.14591432 0.08173027 -0.0012816975 -0.021809153 -0.023554044 -0.039759703 -0.022272697
-0.012263647 0.051671322 0.16768536 0.07780102 0.009790425 0.08602701 0.10103487 0.023794407
-0.001620154 0.12917386 0.109676965 0.04996715 0.06980983 0.025734901 0.12680827 0.029186238
0.10692316 0.0056060217 0.119566664 -0.05285134 0.031220358 0.069007225 0.08273648 0.0076533086
0.050702874 -0.027491175 -0.011842288 -0.064257346 0.04883133 0.09227446 0.07791604 0.10809334
-0.04567622 0.054855224 0.104366325 0.0940542 0.16211297 0.074729934 0.014735884 -0.066399194
0.066343844 0.037046924 0.10919956 -0.023260003 0.0032020349 0.084344715 0.12516548 0.082154304
00000000: e531 473d 2510 973d aa8b e43d 597b f1bc
00000010: 1670 c23d 704f 7f3d 08d1 f93d 72cf 953c
00000020: 0b69 673d 906a 153e 3362 a73d a2fe a7ba
00000030: 1ca9 b2bc 69f4 c0bc 12db 22bd 3b75 b6bc
00000040: 77ed 48bc 4fa5 533d b6b5 2b3e 2456 9f3d
00000050: 0568 203c ee2e b03d 5feb ce3d 7dec c23c
00000060: 595b d4ba 2746 043e 519e e03d 5baa 4c3d
00000070: 75f8 8e3d 00d2 d23c 07da 013e fa17 ef3c
00000080: 88fa da3d b8b2 b73b 5edf f43d a67a 58bd
00000090: d6c1 ff3c a953 8d3d be71 a93d 9bc8 fa3b
000000a0: d1ad 4f3d 2c35 e1bc 2806 42bc 5b99 83bd
000000b0: 5c03 483d 64fa bc3d 7292 9f3d 0b60 dd3d
000000c0: fd16 3bbd dfaf 603d 03be d53d 7d9f c03d
000000d0: f100 263e 020c 993d c76e 713c 4dfc 87bd
000000e0: 48df 873d 84be 173d 05a4 df3d c38b bebc
000000f0: 3bd9 513b ecbc ac3d 612b 003e 8440 a83d

encoder.conv2.nn.1.running_mean f4 [64]
0.059549443 0.71947956 0.35514408 0.6344328 0.8605539 0.026746603 0.6578447 -0.5123768
-0.91146165 -0.6900251 -0.7190206 -0.25250536 -0.41603723 0.05241998 -0.41221324 -0.072596766
-0.20567814 0.5181362 0.45092615 -0.26000676 -0.70734525 -0.09714561 0.018736612 0.1687487
-0.21810782 0.18775167 -0.09100473 0.18970998 -0.13288264 -0.044404265 -0.13566045 -0.15279889
0.3837931 -0.3477957 0.24672182 -0.65321577 -0.6994904 -0.35527545 0.7979663 -0.5283481
0.0077213175 -0.3108022 0.651332 0.052197192 -0.85975236 0.5155898 0.227254 0.21648635
0.18703277 0.23091084 0.124592304 0.29497564 0.28554332 -0.14742255 -0.20072095 -0.7981545
0.18543367 0.7026651 0.42235658 -0.56024396 -0.6285477 -0.42646137 0.19396102 -0.40376925
00000000: 1eea 733d d02f 383f 72d5 b53e 306a 223f
00000010: 434d 5c3f b11b db3c 8368 283f 202b 03bf
00000020: 8d55 69bf 7ca5 30bf bc11 38bf 6248 81be
00000030: d502 d5be 55b6 563d 9d0d d3be 9dad 94bd
00000040: 4a9d 52be 93a4 043f cbdf e63e 9b1f 85be
00000050: 9414 35bf 47f4 c6bd 867d 993c 76cc 2c3e
00000060: a857 5fbe f941 403e b060 babd 5543 423e
00000070: 6312 08be 3fe1 35bd 93ea 0abe 5077 1cbe
00000080: 8780 c43e 4712 b2be a5a4 7c3e 2639 27bf
00000090: ce11 33bf aae6 b5be 8547 4c3f d241 07bf
000000a0: 1b03 fd3b 7721 9fbe b2bd 263f b9cc 553d
000000b0: bb18 5cbf b1fd 033f 46b5 683e 99ae 5d3e
000000c0: 8585 3f3e e473 6c3e 402a ff3d 0c07 973e
000000d0: bc32 923e f0f5 16be cb89 4dbe da53 4cbf
000000e0: 53e2 3d3e dce1 333f 1f3f d83e 266c 0fbf
000000f0: 81e8 20bf 2559 dabe b89d 463e d8ba cebe

encoder.conv2.nn.1.running_var f4 [64]
0.20966616 0.33757508 0.6085498 0.50659645 0.44795942 1.0838403 0.91303664 0.53421026
0.560383 0.45003974 2.0362384 0.25109905 0.70731246 0.54336476 0.83407235 0.7298283
0.3755315 0.36831975 0.79852396 0.4267205 0.52453244 0.3815663 0.19302861 0.757022
0.70649654 0.31178227 0.57703096 0.31313953 0.98708856 0.53381014 0.17391652 1.0845487
0.58859456 0.63402325 0.59951645 0.66524893 0.5470741 0.14039315 1.2289209 0.59679693
1.3337566 0.20415369 0.3240625 0.32350853 0.38436857 0.267217 0.63809854 0.9138588
0.77016693 0.61818284 1.0000355 1.1785207 0.99796885 0.55665094 0.55909556 0.75340337
0.7232546 0.61562794 0.4754368 0.5021688 0.3399241 0.6046268 0.90670913 0.51024985
00000000: bab2 563e a4d6 ac3e ebc9 1b3f 4eb0 013f
00000010: f05a e53e 47bb 8a3f c5bc 693f 01c2 083f
00000020: 4375 0f3f 9c6b e63e bb51 0240 0e90 803e
00000030: 6e12 353f f419 0b3f c485 553f 07d6 3a3f
00000040: aa45 c03e 6894 bc3e 116c 4c3f 1c7b da3e
00000050: c247 063f a85c c33e 4ba9 453e 32cc 413f
00000060: f5dc 343f eda1 9f3e 4db8 133f d353 a03e
00000070: d6b1 7c3f c8a7 083f 2c17 323e 7ed2 8a3f
00000080: 22ae 163f 594f 223f e979 193f c14d 2a3f
00000090: 0c0d 0c3f 39c3 0f3e 484d 9d3f afc7 183f
000000a0: 89b8 aa3f aa0d 513e 85eb a53e e9a2 a53e
000000b0: f5cb c43e abd0 883e 6d5a 233f a6f2 693f
000000c0: a929 453f 3b41 1e3f 2a01 803f c4d9 963f
000000d0: e37a 7f3f ad80 0e3f e320 0f3f 0bdf 403f
000000e0: 3727 393f cb99 1d3f 746c f33e 228e 003f
000000f0: 880a ae3e d2c8 1a3f 171e 683f bc9f 023f

encoder.conv3.nn.0.weight f4 [128, 128]
-0.07167365 -0.11102096 0.07062852 -0.008185394 -0.034683406 -0.029307881 -0.037754215 0.010933359
0.04744933 0.06416085 -0.018800057 0.098229155 0.11742012 0.050416518 -0.06102737 -0.07599184
0.013163972 0.05267643 -0.13900758 0.0011811712 0.012288571 0.0491031 -0.057329744 0.021373618
0.06666587 -0.08391734 0.07944924 0.021471057 -0.12696221 -0.00850622 -0.064480506 -0.010700473
0.04954124 -0.020785054 0.021184403 -0.00045643435 -0.00698185 -0.018210873 -0.08615176 -0.0033686396
0.05174296 0.08411407 -0.046880987 -0.03286167 0.085396364 0.010834345 -0.054000366 -0.09705894
0.025363285 0.040253583 0.00934061 0.042586654 -0.04036703 0.08398844 -0.012673074 -0.039907537
0.015523457 -0.06629686 -0.048689775 0.041780047 0.033012625 0.05921505 -0.03362849 0.049157366
0.0053781853 -0.06398096 0.07342395 0.046941936 -0.0019023767 0.045766715 -0.08362091 0.048704334
0.02302613 -0.008308591 -0.024223937 -0.02175122 -0.027158385 0.08783455 0.028107528 0.11390281
0.016064972 0.020222856 -0.047016464 -0.057607666 0.017537005 0.020857042 0.059687506 0.08954796
0.06360832 0.079164855 -0.034806117 0.028845927 0.03041524 -0.022116888 -0.025655335 -0.06840607
0.021432966 -0.048551165 0.014824649 0.009134986 -0.038163524 -0.119429044 0.01232073 -0.11011702
0.008806164 0.0147180185 -0.07279089 0.07636411 -0.062472377 0.05487973 0.060931206 -0.045203924
-0.06999831 -0.08984322 -0.03268705 -0.046930555 0.08480426 -0.02005549 -0.07150298 -0.06222565
-0.028979387 0.0432486 0.051091757 -0.060051713 -0.06308951 0.0029211647 -0.07777597 -0.012888328
-0.041751977 0.0871149 -0.014634431 -0.013148758 -0.025682935 0.09502186 0.100963674 0.0060065547
0.061984867 -0.055579796 -0.041224793 -0.10258375 0.008815201 0.07896847 0.008845053 -0.081121385
0.03847347 -0.024259295 0.13566077 0.06910316 0.06709262 0.003443344 0.11914074 0.08131341
-0.011696249 0.014351641 0.043630064 -0.02596903 -0.054710332 0.11878711 -0.0034449634 -0.03970192
-0.047880337 0.104508966 -0.03763504 0.0047277687 0.045273945 -0.011352759 0.060081914 -0.037064064
0.030103274 0.03491095 -0.022211261 0.14508979 -0.0565977 0.0075173154 -0.04714873 -0.042527333
0.13399501 0.053966437 -0.0005491785 -0.0933633 0.05570441 0.029438632 -0.03656437 0.037838545
-0.04401011 -0.032164995 0.034530982 0.122951314 0.015657661 0.035821244 0.102408715 -0.10049263
-0.027126897 -0.04539674 -0.1163211 -0.028664773 -0.10583441 -0.028112607 -0.06204713 0.1216262
0.08705976 0.022150865 0.032643005 -0.008723057 -0.063918866 -0.050617587 -0.0033553815 -0.036263067
0.054901943 -0.03925636 0.040658165 -0.08444905 -0.08558082 -0.08777259 0.13880178 -0.09813047
0.023562925 0.031927165 0.09491594 0.060170952 0.15785918 0.0008348314 -0.008276117 -0.051239476
0.08468639 -0.036423758 0.025838502 0.0005898687 0.011247455 -0.044321388 0.03673456 0.010541412
-0.083336525 0.036775615 0.058054708 0.038039494 0.027398305 -0.024657765 -0.0019744863 0.03889887
-0.11131915 0.023420863 0.011526814 0.020660326 0.047507733 0.12894054 0.03314632 -0.05153162
-0.079567485 -0.004421792 0.11990458 0.03939846 -0.13718463 0.05969773 -0.09912062 0.02019185
00000000: a2c9 92bd f55e e3bd afa5 903d 081c 06bc
00000010: 3010 0ebd 1517 f0bc 2aa4 1abd d521 333c
00000020: 3b5a 423d c466 833d 9402 9abc 5e2c c93d
00000030: f679 f03d 8d81 4e3d d6f7 79bd 9ca1 9bbd
00000040: b3ad 573c 3ec3 573d 0158 0ebe 87d1 9a3a
00000050: 0156 493c 5520 493d 98d2 6abd ba17 af3c
00000060: 1e88 883d dbdc abbd 48b6 a23d 12e4 af3c
00000070: 6202 02be ac5d 0bbc 5b0e 84bd 0951 2fbc
00000080: c1eb 4a3d 6b45 aabc ea8a ad3c 954d efb9
00000090: 01c8 e4bb f82e 95bc 5570 b0bd 65c4 5cbb
000000a0: 6df0 533d ff43 ac3d 4706 40bd f599 06bd
000000b0: 4ae4 ae3d 8982 313c 7d2f 5dbd d6c6 c6bd
000000c0: aac6 cf3c f1e0 243d 5c09 193c 586f 2e3d
000000d0: e657 25bd 2202 ac3d baa2 4fbc 1676 23bd
000000e0: 1956 7e3c a6c6 87bd ee6e 47bd 8e21 2b3d
000000f0: 3f38 073d 7b8b 723d 07be 09bd 3c59 493d
00000100: 7d3b b03b 7308 83bd 4c5f 963d 3046 403d
00000110: 2b59 f9ba e175 3b3d 7141 abbd 327e 473d
00000120: 4ba1 bc3c c220 08bc 4771 c6bc 9d2f b2bc
00000130: 437b debc 9ae2 b33d c241 e63c e045 e93d
00000140: b09a 833c 67aa a53c 5694 40bd 04f6 6bbd
00000150: c4a9 8f3c 63dc aa3c e37a 743d ec64 b73d
00000160: 1445 823d 2f21 a23d dc90 0ebd 4b4e ec3c
00000170: 6229 f93c 7a2e b5bc 232b d2bc 7b18 8cbd
00000180: 3094 af3c 96dd 46bd 16e3 723c e9aa 153c
00000190: 5b51 1cbd 3797 f4bd e3dc 493c 0885 e1bd
000001a0: bb47 103c d823 713c 6413 95bd c964 9c3d
000001b0: 09e3 7fbd 91c9 603d 0093 793d c027 39bd
000001c0: 465b 8fbd b9ff b7bd dbe2 05bd 413a 40bd
000001d0: dbad ad3d 694b a4bc 2870 92bd 53e0 7ebd
000001e0: 2e66 edbc 7225 313d 9745 513d c9f8 75bd
000001f0: 1335 81bd 0371 3f3b 0249 9fbd 9129 53bc
00000200: 1f04 2bbd 4c69 b23d 41c5 6fbc e36d 57bc
00000210: 0565 d2bc d29a c23d 0bc6 ce3d a2d2 c43b
00000220: d8e3 7d3d a4a7 63bd 54db 28bd 6e17 d2bd
00000230: a26d 103c 39ba a13d d7ea 103c f822 a6bd
00000240: 5b96 1d3d 6ebb c6bc a8ea 0a3e f585 8d3d
00000250: db67 893d baa9 613b 0f00 f43d a587 a63d
00000260: a0a1 3fbc 2523 6b3c 70b5 323d 01bd d4bc
00000270: f117 60bd a846 f33d e5c4 61bb 7b9e 22bd
00000280: 2c1e 44bd cc08 d63d 3327 1abd 66eb 9a3b
00000290: 2c71 393d ec00 3abc 7418 763d 7dd0 17bd
000002a0: 249b f63c c9fe 0e3d 64f4 b5bc 6b92 143e
000002b0: fdd2 67bd d053 f63b 071f 41bd 2431 2ebd
000002c0: fd35 093e e90b 5d3d bff6 0fba 4235 bfbd
000002d0: 4f2a 643d 4929 f13c 85c4 15bd 97fc 1a3d
000002e0: f243 34bd 71bf 03bd 5c70 0d3d e6cd fb3d
000002f0: 7f44 803c 4cb9 123d a9bb d13d 14cf cdbd
00000300: 3a39 debc eff1 39bd c239 eebd 63d2 eabc
00000310: b6bf d8bd 694c e6bc 2225 7ebd 2817 f93d
00000320: 634c b23d bb75 b53c acb4 053d 27eb 0ebc
00000330: e5e7 82bd 6354 4fbd f6e5 5bbb 9588 14bd
00000340: dce0 603d 47cb 20bd 2d89 263d a0f3 acbd
00000350: ff44 afbd 1ec2 b3bd 0e22 0e3e a1f8 c8bd
00000360: 0907 c13c 0fc6 023d 4a63 c23d d175 763d
00000370: d6a5 213e 96d8 5a3a 8d98 07bc 7ce0 51bd
00000380: 0f70 ad3d 1431 15bd 44ab d33c 6ba1 1a3a
00000390: 3f47 383c 588a 35bd fa76 163d e3b5 2c3c
000003a0: 57ac aabd 07a2 163d c6ca 6d3d 4dcf 1b3d
000003b0: 6972 e03c 15ff c9bc 6266 01bb 6c54 1f3d
000003c0: 4bfb e3bd 1cdd bf3c f6da 3c3c d83f a93c
000003d0: 7897 423d fd08 043e 70c4 073d d212 53bd
000003e0: 47f4 a2bd aee4 90bb 8890 f53d 4860 213d
000003f0: 217a 0cbe 9b85 743d c0ff cabd 6169 a53c

encoder.conv3.nn.0.bias f4 [128]
0.046831407 -0.029182602 0.07329557 0.06770498 0.012754478 0.048316367 -0.081668295 0.053751804
-0.08162971 -0.02074178 0.07084638 -0.009386383 -0.0011629144 0.03890185 -0.01803964 -0.012737212
0.041267823 0.06350911 0.0011653715 -0.03668579 0.06512007 -0.0070323767 -0.0638534 0.023017518
0.06876017 0.032205217 0.025897134 -0.063877694 0.039035417 -0.08191358 -0.06487425 -0.028719598
0.011284274 0.0008104305 -0.056416076 0.052075982 -0.044533648 -0.012771624 -0.05514842 -0.004273464
-0.017978294 -0.033783365 -0.048219092 -0.07285491 0.011525827 0.013929794 0.053686354 0.01158873
0.041091118 -0.032731723 -0.057120282 0.022765374 0.026254717 0.0766369 0.063593805 -0.04708736
-0.089939035 0.051605575 0.034256496 0.070659444 0.08665359 0.056640834 0.09528434 0.017442722
-0.024066046 -0.039237324 0.033206906 -0.049233723 -0.032256726 0.037154935 -0.043736037 0.042534254
-0.03210275 -0.084018804 -0.08886333 0.052304924 -0.06958741 -0.013019588 0.069771126 -0.0018322758
-0.034455813 -0.038203444 -0.047281 -0.030558795 0.052165903 0.05676653 0.013552475 -0.004802862
0.049199108 -0.016904207 -0.0508135 0.078241885 0.07964225 -0.0400757 -0.048533596 -0.07677428
-0.054579563 0.08811992 0.08914987 0.07340512 -0.028439824 -0.032089602 -0.08888401 0.004462465
-0.04455289 -0.025511343 0.00396928 0.008262416 -0.010686547 -0.030819377 -0.054509297 0.050243333
0.01947242 0.011135105 0.076116234 -0.034133207 0.018485673 -0.09781933 0.07929999 -0.08741082
-0.04266423 -0.04125465 0.012765994 -0.059846252 0.02855861 -0.05958999 -0.04100617 -0.023253607
00000000: 4ad2 3f3d 5a10 efbc fd1b 963d e9a8 8a3d
00000010: 28f8 503c 62e7 453d b541 a7bd da2a 5c3d
00000020: 7a2d a7bd aaea a9bc e817 913d 58c9 19bc
00000030: ef6c 98ba 8c57 1f3d dec7 93bc bdaf 50bc
00000040: 7308 293d 1011 823d 61bf 983a d743 16bd
00000050: ac5d 853d da6f e6bb 92c5 82bd 3c8f bc3c
00000060: 22d2 8c3d 9ee9 033d 3a26 d43c 4fd2 82bd
00000070: 9ae3 1f3d 4fc2 a7bd cadc 84bd 5d45 ebbc
00000080: ade1 383c 1273 543a 8b14 67bd a04d 553d
00000090: ea68 36bd 1340 51bc 4fe3 61bd 6a08 8cbb
000000a0: 3747 93bc 6d60 0abd 6281 45bd f434 95bd
000000b0: d3d6 3c3c ca39 643c 39e6 5b3d a8de 3d3c
000000c0: 294f 283d b311 06bd f5f6 69bd 737e ba3c
000000d0: 2214 d73c cff3 9c3d 783d 823d adde 40bd
000000e0: f531 b8bd 5e60 533d 8a50 0c3d e6b5 903d
000000f0: 7077 b13d 3800 683d 7024 c33d 0ae4 8e3c
00000100: 2826 c5bc 51b7 20bd f703 083d 4da9 49bd
00000110: a11f 04bd c62f 183d 8f24 33bd 6638 2e3d
00000120: 2c7e 03bd 0d12 acbd fafd b5bd b03d 563d
00000130: d883 8ebd 1c50 55bc 2ae4 8e3d f928 f0ba
00000140: 8a21 0dbd 377b 1cbd b9a9 41bd 7056 fabc
00000150: eaab 553d 0584 683d 330b 5e3c 5461 9dbb
00000160: 0185 493d b17a 8abc d121 50bd 483d a03d
00000170: 7a1b a33d 6b26 24bd 2acb 46bd d53b 9dbd
00000180: d28e 5fbd 3778 b43d 3594 b63d 6c55 963d
00000190: a2fa e8bc 6370 03bd d208 b6bd df39 923b
000001a0: 177d 36bd 2afd d0bc bc10 823b 165f 073c
000001b0: a016 2fbc eb78 fcbc 2445 5fbd f4cb 4d3d
000001c0: a084 9f3c 0470 363c d4e2 9b3d 43cf 0bbd
000001d0: 446f 973c 8055 c8bd 0868 a23d 7204 b3bd
000001e0: b0c0 2ebd a3fa 28bd 7628 513c 5821 75bd
000001f0: bff3 e93c a214 74bd 16f6 27bd 597e bebc

encoder.conv3.nn.1.weight f4 [128]
0.9803625 1.0243666 0.9923133 1.0093521 1.0313371 0.96155286 0.95296675 0.9786489
1.0259398 1.0289276 1.0366421 1.0454046 0.97456026 0.9958092 0.96288836 1.0790167
1.0144022 1.0484884 1.0044407 0.9923058 0.98160464 1.0297046 1.0236024 0.9699941
0.9170081 0.9692304 0.97572833 1.1095052 1.0206534 0.9912647 1.0775231 1.0114876
0.9914209 1.035606 0.9927515 1.0051913 0.99974287 1.0074329 1.0036361 0.9846751
1.021151 1.0629716 1.0096511 0.9498807 1.0400836 1.0175407 0.97106385 0.9374165
1.0190178 1.0531975 1.0187893 1.0030049 0.93508554 1.0078715 1.012037 1.024987
1.0279194 1.0120093 1.1523914 1.0190787 0.9826821 1.0083396 0.97546864 1.0251241
1.0367291 1.1109548 1.0215958 1.0223348 1.1244879 0.9898817 1.0536906 0.9846165
1.0466654 1.0035294 1.0869045 1.0201813 0.96739155 0.9478987 0.9856202 1.0301703
0.9900391 1.0257164 1.0635337 0.98828375 1.0023679 0.98119783 1.0313613 1.0375056
1.0050786 1.013047 0.9877395 0.9842271 0.98988783 0.9246605 1.0672991 1.0322937
1.063477 1.0143268 1.0157678 1.0011846 0.9932738 1.0512819 0.92344564 1.0164618
1.0182847 0.9742703 1.0204898 0.99459434 1.0559278 0.9742061 0.9635236 0.98948586
0.96608245 0.94457346 1.0316724 1.0039779 0.9817645 0.9590715 1.021442 1.0266823
0.94644123 0.99175245 1.0377415 0.97889507 1.0056716 0.95885354 0.93806905 0.9897716
00000000: 09f9 7a3f 721e 833f 3f08 7e3f 7332 813f
00000010: db02 843f 5428 763f a1f5 733f bc88 7a3f
00000020: ff51 833f e6b3 833f b0b0 843f d1cf 853f
00000030: c87c 793f 5aed 7e3f da7f 763f 381d 8a3f
00000040: eed7 813f de34 863f 8391 803f c107 7e3f
00000050: 714a 7b3f 5ccd 833f 6705 833f 8951 783f
00000060: 0bc1 6a3f 7c1f 783f 55c9 793f 4404 8e3f
00000070: c5a4 823f 86c3 7d3f 47ec 893f 6d78 813f
00000080: c3cd 7d3f bd8e 843f f624 7e3f 1caa 803f
00000090: 26ef 7f3f 90f3 803f 2677 803f ab13 7c3f
000000a0: 13b5 823f 740f 883f 3f3c 813f 622b 733f
000000b0: 7621 853f c63e 823f a497 783f 87fa 6f3f
000000c0: 2d6f 823f 2dcf 863f b067 823f 7762 803f
000000d0: c461 6f3f ef01 813f 6e8a 813f c632 833f
000000e0: dd92 833f 8589 813f 9081 933f 2c71 823f
000000f0: 0e91 7b3f 4611 813f 50b8 793f 4437 833f
00000100: 8ab3 843f c433 8e3f a7c3 823f dedb 823f
00000110: 38ef 8f3f e368 7d3f 55df 863f d40f 7c3f
00000120: 22f9 853f a773 803f b01f 8b3f 4d95 823f
00000130: f9a6 773f 7da9 723f 9b51 7c3f 9fdc 833f
00000140: 3473 7d3f ad4a 833f df21 883f 2a00 7d3f
00000150: 974d 803f c82f 7b3f a603 843f fccc 843f
00000160: 6aa6 803f 86ab 813f 7fdc 7c3f 4ff6 7b3f
00000170: 4a69 7d3f 8db6 6c3f 429d 883f 3322 843f
00000180: 0420 883f 76d5 813f ae04 823f d126 803f
00000190: 3147 7e3f 6890 863f ef66 6c3f 6c1b 823f
000001a0: 2757 823f c769 793f 699f 823f bc9d 7e3f
000001b0: a428 873f 9265 793f 7ca9 763f f24e 7d3f
000001c0: 2e51 773f 91cf 713f d70d 843f 5982 803f
000001d0: eb54 7b3f b685 753f 9dbe 823f 536a 833f
000001e0: f949 723f 7de3 7d3f b7d4 843f de98 7a3f
000001f0: d9b9 803f 6d77 753f 4b25 703f ac61 7d3f

encoder.conv3.nn.1.bias f4 [128]
0.05465116 0.06692636 -0.008996587 0.14727111 0.037696447 0.06294691 0.075846694 0.0043604514
-0.014587978 0.12829305 0.07791113 0.13353215 0.034316678 -0.014277347 0.07343323 0.04377349
0.12714362 -0.024249304 0.043721464 0.12038758 0.06228918 0.08331663 0.044797353 0.0032848925
0.12491709 0.09632407 0.0038297034 0.10537468 -0.015456564 0.0018603057 0.05172489 0.021438986
0.08592521 0.0054449206 -0.0065199644 0.11405674 0.08805669 0.08960588 0.039152008 0.018194761
0.023507887 0.11948299 0.081807636 -0.032442693 0.12675089 -0.00675058 -0.057434797 -0.00523767
0.01368111 0.0208484 0.006455234 0.0053155436 0.03416497 0.06326723 0.08605011 0.08254043
0.10171246 -0.018077265 0.17920981 0.051085502 0.08639496 0.030354174 0.033638593 0.07050929
0.057073757 0.10881953 0.056319926 0.09803217 0.076408185 -0.002322692 -0.027962536 0.02854882
-0.01812834 0.041199442 0.11928524 0.07990897 0.05929988 0.060443927 0.046366304 0.07336871
0.0558923 0.07705167 0.13830547 0.098885134 0.038718067 0.12863714 0.041222416 0.07702697
0.056973726 0.098000154 -0.06836184 0.05455771 0.118156776 0.07635968 0.14075439 0.02061646
0.12684983 -0.022646962 0.047158815 0.0021614642 0.018113 0.18229304 -0.018127797 0.08226775
0.026255153 -0.00069263665 -0.01069112 0.031888437 0.069180116 0.106116205 0.04044149 -0.035490707
0.024607744 0.013460859 0.079384275 0.10461135 0.016504368 -0.050753687 0.083606996 0.1638217
0.07486322 0.0075553055 -0.003628897 0.021239158 0.048530348 0.0017882576 0.024647634 0.051720202
00000000: e5d9 5f3d b010 893d 6c66 13bc 3dce 163e
00000010: 9767 1a3d 4fea 803d 8355 9b3d 1ee2 8e3b
00000020: 6a02 6fbc 415f 033e df8f 9f3d a7bc 083e
00000030: a58f 0c3d 89eb 69bc 2964 963d d54b 333d
00000040: f031 023e 7aa6 c6bc 4715 333d c38d f63d
00000050: f022 7f3d e9a1 aa3d 6e7d 373d 5a47 573b
00000060: 88d4 ff3d 8e45 c53d c3fb 7a3b aece d73d
00000070: 873d 7dbc 80d5 f33a 7add 533d d0a0 af3c
00000080: 8ef9 af3d 4e6b b23b 6da5 d5bb 9596 e93d
00000090: 1157 b43d 4a83 b73d db5d 203d 2e0d 953c
000000a0: 9d93 c03c 7fb3 f43d c38a a73d a1e2 04bd
000000b0: fcca 013e f833 ddbb c040 6bbd c3a0 abbb
000000c0: bc26 603c 44ca aa3c 6d86 d33b 032e ae3b
000000d0: 91f0 0b3d 4092 813d 0a3b b03d f50a a93d
000000e0: 9f4e d03d c616 94bc c782 373e 083f 513d
000000f0: d7ef b03d 51a9 f83c 9fc8 093d 2d67 903d
00000100: 2cc6 693d c6dc de3d b9af 663d 17c5 c83d
00000110: e57b 9c3d 4e38 18bb b011 e5bc 37df e93c
00000120: e281 94bc bfc0 283d d24b f43d 50a7 a33d
00000130: 6ee4 723d 0d94 773d 98ea 3d3d 5642 963d
00000140: 53ef 643d 44cd 9d3d f39f 0d3e 4a84 ca3d
00000150: d696 1e3d 74b9 033e d6d8 283d 51c0 9d3d
00000160: 485d 693d 4eb4 c83d 4b01 8cbd e877 5f3d
00000170: 2efc f13d 7762 9c3d eb21 103e dae3 a83c
00000180: ece4 013e 1f86 b9bc 9a29 413d 5aa7 0d3b
00000190: b761 943c 07ab 3a3e bf80 94bc fe7b a83d
000001a0: 0c15 d73c 0f92 35ba cf29 2fbc 739d 023d
000001b0: 4eae 8d3d 7453 d93d faa5 253d b45e 11bd
000001c0: 2e96 c93c ef8a 5c3c 3994 a23d 7a3e d63d
000001d0: 2b34 873c 19e3 4fbd 253a ab3d e0c0 273e
000001e0: e351 993d 7f92 f73b cad2 6dbb befd ad3c
000001f0: c2c7 463d f863 ea3a d6e9 c93c 90d8 533d

encoder.conv3.nn.1.running_mean f4 [128]
-0.08541715 0.44126683 -0.3528002 0.18239744 0.10160528 0.645347 -0.38348866 -0.18919328
-0.0054628537 -0.15702888 0.48370335 -0.16214062 0.55022705 -0.4055987 0.4427014 -0.20933835
0.25090328 -0.52437 0.08915746 -0.057054937 0.31935966 -0.3539943 -0.04411648 0.19424714
0.18307582 -0.05847581 0.41228056 0.028913358 0.3806982 0.049552765 -0.4450221 -0.38055244
-0.1810588 -0.35634044 -0.032506853 -0.09358789 0.1565309 -0.3621226 -0.49002397 -0.6500756
-0.5371437 -0.2356237 0.35177287 -0.04579931 -0.2456619 0.19105545 -0.62020737 0.45121032
-0.3822711 -0.24408136 -0.32926658 0.08977002 0.3628346 0.4206461 -0.10871603 -0.08471915
0.32043934 0.058755577 -0.7178994 0.2107511 0.7933587 0.10403522 0.45325854 0.00984046
0.09401548 -0.48976704 -0.39179108 0.34183857 -0.5047535 -0.21042444 -0.67884105 -0.9187367
-0.3773447 -0.08917222 -0.14920536 0.5902068 0.38976216 0.1558604 -0.080124 0.33119455
-0.029657809 -0.08497996 0.08508298 0.22990872 -0.12166917 -0.022494297 0.03062287 -0.030038921
-0.40411168 0.43845093 0.5197045 -0.28649896 0.7796136 0.53695726 0.30187535 -0.049786724
-0.3446592 -0.43890366 0.4522778 -0.14084622 -0.77476937 0.19824497 0.31781211 -0.16304834
-0.5616832 -0.15789673 -0.1760533 -0.11037685 -0.41332957 -0.090580635 0.31628314 -0.048076075
0.03261417 0.16491836 -0.30837607 -0.06314336 -0.08431619 0.5407845 -0.2294405 -0.26856312
-0.21159244 -0.3732783 -0.50480413 0.11854217 0.1962291 0.14042847 0.73459226 -0.056443866
00000000: 30ef aebd baed e13e 3aa2 b4be 65c6 3a3e
00000010: 6e16 d03d 7635 253f a058 c4be e2bb 41be
00000020: bd01 b3bb 2ecc 20be f7a7 f73e 3108 26be
00000030: aedb 0c3f a2aa cfbe c2a9 e23e cb5c 56be
00000040: 6576 803e 1d3d 06bf 3098 b63d 70b2 69bd
00000050: 1c83 a33e be3e b5be 7bb3 34bd b9e8 463e
00000060: 3a78 3b3e 5584 6fbd 7016 d33e b5db ec3c
00000070: e0ea c23e d7f7 4a3d f0d9 e3be c5d7 c2be
00000080: 7a67 39be 4172 b6be e825 05bd 02ab bfbd
00000090: a349 203e 2268 b9be 6ce4 fabe 5b6b 26bf
000000a0: 4082 09bf 5747 71be 931b b43e 0f98 3bbd
000000b0: cb8e 7bbe 0aa4 433e e9c5 1ebf 0a05 e73e
000000c0: 0ab9 c3be 77f0 79be a195 a8be 58d9 b73d
000000d0: 75c5 b93e ed5e d73e 83a6 debd 3c81 adbd
000000e0: a010 a43e b0a9 703d 41c8 37bf 23cf 573e
000000f0: 8e19 4b3f 6b10 d53d 8111 e83e e139 213c
00000100: 308b c03d bfc2 fabe d798 c8be 7705 af3e
00000110: 8637 01bf 8179 57be 87c8 2dbf 5432 6bbf
00000120: 5333 c1be ed9f b6bd 4ac9 18be cb17 173f
00000130: e88e c73e de99 1f3e 0d18 a4bd 5592 a93e
00000140: eff4 f2bc f909 aebd fc3f ae3d 316d 6b3e
00000150: b02d f9bd f645 b8bc d0dc fa3c 2f14 f6bc
00000160: bae7 cebe a47c e03e 5b0b 053f feaf 92be
00000170: c294 473f 0876 093f 688f 9a3e 2aed 4bbd
00000180: 2c77 b0be fbb7 e0be f590 e73e fe39 10be
00000190: 4957 46bf bb00 4b3e 45b8 a23e 25f6 26be
000001a0: 78ca 0fbf aeaf 21be 5147 34be 420d e2bd
000001b0: ef9f d3be 5782 b9bd ddef a13e 6beb 44bd
000001c0: 7096 053d 5ce0 283e 78e3 9dbe 4e51 81bd
000001d0: f7ad acbd da70 0a3f 73f2 6abe 1b81 89be
000001e0: b0ab 58be 551e bfbe d83a 01bf 3dc6 f23d
000001f0: 48f0 483e 7bcc 0f3e 3d0e 3c3f af31 67bd

encoder.conv3.nn.1.running_var f4 [128]
0.64214617 0.41526827 0.41335988 0.3543499 0.37965557 0.658848 0.777572 0.39337653
0.65385497 0.6240428 1.0097961 0.30074602 0.2134858 0.44608015 0.44047162 0.4752274
0.9633679 1.1907657 0.31028974 0.6356101 0.49524137 0.5538765 0.44014975 0.2682571
0.47643936 0.65392923 1.1873738 0.37727648 0.49600804 0.8662875 0.530174 0.60937804
0.54887927 0.5718226 0.26917318 0.41965798 0.37219205 0.45233947 0.50986224 0.4476514
0.6650368 0.23348942 0.57545704 0.35338706 0.5077014 0.46581912 0.85805666 0.4670011
0.48000294 0.5053624 0.29862022 0.2511338 0.551989 0.50767255 0.5986079 0.44600943
0.43714246 0.40374556 0.28287762 0.50326234 0.5890518 0.40375456 0.6484923 0.28289378
0.7237184 0.90364206 0.5010906 1.0049605 1.0462018 0.46720153 0.86153793 0.80636257
0.7593145 0.45836535 0.47242507 0.24730785 0.90682304 0.62660456 0.3057749 0.43174693
0.39224172 0.2330691 0.46418273 0.4129478 0.18885684 0.5995589 0.2210425 0.5546159
0.26072317 0.4760536 0.6717616 0.3284052 0.78321606 0.4872816 0.50217116 0.41661343
0.30429366 0.3296565 0.55883056 0.4563188 0.95218164 0.376241 0.881244 0.36802596
0.50906265 0.6067591 0.25458938 0.3763306 0.35656643 0.39393342 0.5179354 0.6160311
0.46221405 0.32378513 0.48036563 0.24435583 1.0522107 0.28215173 0.6034952 0.625326
0.47702053 0.42705658 0.6783999 0.40417573 0.6048834 0.48275593 0.72311306 0.4296885
00000000: b163 243f 0b9e d43e e8a3 d33e 5a6d b53e
00000010: 3762 c23e 43aa 283f f50e 473f a668 c93e
00000020: 0a63 273f 45c1 1f3f 0041 813f 62fb 993e
00000030: 069c 5a3e 9e64 e43e 7f85 e13e 0151 f33e
00000040: 479f 763f 036b 983f 4cde 9e3e 58b7 223f
00000050: 4790 fd3e daca 0d3f 4f5b e13e ff58 893e
00000060: dcef f33e e867 273f ddfb 973f 622a c13e
00000070: c4f4 fd3e 05c5 5d3f 7cb9 073f 3300 1c3f
00000080: 5a83 0c3f f762 123f 11d1 893e 69dd d63e
00000090: f58f be3e 0a99 e73e 5586 023f 9032 e53e
000000a0: da3f 2a3f da17 6f3e 2751 133f 26ef b43e
000000b0: b8f8 013f d87f ee3e 9aa9 5b3f c51a ef3e
000000c0: f2c2 f53e 6e5f 013f c0e4 983e 9c94 803e
000000d0: 274f 0d3f d4f6 013f 5e3e 193f 595b e43e
000000e0: 23d1 df3e bdb7 ce3e 56d5 903e cdd5 003f
000000f0: 19cc 163f ebb8 ce3e 9703 263f 74d7 903e
00000100: 9c45 393f 1655 673f 7947 003f 8ca2 803f
00000110: f1e9 853f 0a35 ef3e c08d 5c3f c76d 4e3f
00000120: 6f62 423f ddae ea3e b3e1 f13e 453e 7d3e
00000130: 8e25 683f 2869 203f 878e 9c3e ef0d dd3e
00000140: e8d3 c83e aba9 6e3e 5ca9 ed3e e56d d33e
00000150: b063 413e b17c 193f f758 623e 4ffb 0d3f
00000160: 827d 853e 4cbd f33e 91f8 2b3f ba24 a83e
00000170: d980 483f f97c f93e 4a8e 003f 5b4e d53e
00000180: 61cc 9b3e bdc8 a83e 850f 0f3f 9ea2 e93e
00000190: 2dc2 733f a9a2 c03e 3599 613f e66d bc3e
000001a0: ee51 023f 9054 1b3f 8a59 823e 68ae c03e
000001b0: e08f b63e a4b1 c93e 6a97 043f 37b4 1d3f
000001c0: 52a7 ec3e 2ac7 a53e 7cf2 f53e 6a38 7a3e
000001d0: d7ae 863f 3176 903e a97e 1a3f 5d15 203f
000001e0: 093c f43e 29a7 da3e 9eab 2d3f 1ff0 ce3e
000001f0: a3d9 1a3f c92b f73e f01d 393f 2200 dc3e
