models/roof_segmentation_dgcnn_20251209.pth (torch, 377904 bytes, 42 tensors)

encoder.conv1.nn.0.weight f4 [64, 12]
000000 e9 41 b3 bd ce cc 26 3e 85 04 5c 3e 6a 5c d6 bd
       -0.08752806 0.16289064 0.21486099 -0.10466845
000010 a0 96 64 3e c2 c6 3a 3c b7 fe 0f be 03 ee 31 bc
       0.22323084 0.011399927 -0.1406201 -0.010859969
000020 b5 84 3d be da 55 e0 3d fa 7a 7d 3e 0b f0 c0 bb
       -0.18507655 0.10953875 0.24753943 -0.0058879904
000030 2d a2 2d be 0d aa 51 3d a3 f0 d1 bd 9d 9c a9 bd
       -0.16956396 0.051187564 -0.10250976 -0.08281825
000040 87 cd 93 3d 95 d7 91 3e ca 8f 42 3e 10 36 76 3e
       0.072169356 0.2848479 0.19000164 0.2404406
000050 1f 1a 7f bc cf 4a 45 be 51 5d ac bd 71 43 61 3e
       -0.015570193 -0.19266818 -0.08416236 0.21998383
000060 8b f8 50 be e5 e7 98 be a9 bf 23 be da e9 42 be
       -0.20407312 -0.2986442 -0.15991081 -0.1903452
000070 1c 67 56 be 4b d2 1e be 7a 83 26 be 9a 39 1b 3e
       -0.2093777 -0.15509908 -0.16261092 0.15158692
000080 d6 2b b7 bd 22 de 31 be ac a7 2b 3e ba 1a 52 3e
       -0.08943908 -0.17369893 0.1676318 0.20518008
000090 fa bf 90 3e 73 00 01 be b6 1d 23 be b3 85 b4 3d
       0.28271466 -0.12597828 -0.15929303 0.088145636
0000a0 9d 98 6d 3e a8 cb d5 3c 6e 7e 9b bd 56 c5 55 be
       0.23202749 0.026098087 -0.07592474 -0.20876059
0000b0 e5 11 32 be a4 45 70 be 89 ac 1c be a0 67 91 be
       -0.17389639 -0.23464066 -0.15300192 -0.28399372
0000c0 30 f8 60 be 41 40 8c 3d 5e b0 8c 3e b9 0e 89 bd
       -0.21969676 0.06848193 0.27478307 -0.06692261
0000d0 eb 20 57 3d 2a 05 2c bd 80 bf 3b bd 7b 6d 0b be
       0.052521627 -0.041997112 -0.045836926 -0.13615982
0000e0 1c 4c 8d be 3c ea 2a be 13 3a e1 bd 16 1a 49 3d
       -0.2759713 -0.16690916 -0.10997405 0.049097143
0000f0 e6 e1 b2 bb 39 77 4b be 09 34 f6 3d e5 9f 86 3e
       -0.005459058 -0.19869699 0.12021644 0.26293865
000100 47 89 1f 3e 36 bf 8e be 3f ad f2 3d ce 54 ea bd
       0.15579711 -0.27880257 0.1184945 -0.114419565
000110 07 ad 35 bc df 76 b3 3d f8 3b 26 be 95 9a 88 3e
       -0.011088616 0.08762907 -0.16233814 0.26680437
000120 be 1d 74 3c 10 a0 7f ba a8 62 21 3e bf 3d 71 3e
       0.014899669 -0.0009751329 0.1576029 0.2355871
000130 03 76 0a 3e dc c0 bf 3d 5a 88 7b 3e 4f 8a 1f be
       0.1352158 0.09362957 0.24563733 -0.15580104
000140 72 e3 c0 3d 8f ca d1 3d 48 e5 74 3e 49 aa 0e 3e
       0.09418382 0.10243713 0.23915589 0.13932146
000150 56 83 13 be af 1e cf bd 35 4d 87 be 83 8b 45 bd
       -0.1440557 -0.10113274 -0.26426092 -0.048228752
000160 c4 6b 95 bd c9 d5 4e be 07 5e 19 3d 75 0f 29 be
       -0.07295945 -0.2019874 0.037443187 -0.16509803
000170 15 5e 54 3d 53 04 36 be 3a 93 48 be 2f 16 d2 bd
       0.051847536 -0.17775087 -0.19587412 -0.102581374
000180 96 35 84 3d 9d b3 00 3d ec 98 9d be 8e 8d 07 3e
       0.06455533 0.031421293 -0.30780733 0.13237593
000190 af 43 61 be d5 89 b3 3e 8e a1 43 be 41 c0 4e be
       -0.21998475 0.35066095 -0.19104597 -0.20190527
0001a0 4f 39 ab 3d 44 12 6d be 33 49 1e ba 93 47 1f be
       0.0836054 -0.23151499 -0.0006038129 -0.15554647
0001b0 1d da d5 bd 50 e6 6d bd c5 79 7b 3d ae 3d 04 3e
       -0.104419924 -0.05808097 0.061395425 0.12914154
0001c0 05 0b 02 3e 92 6f 6d 3e 46 db ce 3c 94 5e 79 bc
       0.12699516 0.23187092 0.025251042 -0.015220303
0001d0 af b6 33 be 16 d7 6f be ea 1b 34 3e e0 db a5 3c
       -0.17550157 -0.23421893 0.17588773 0.020246446
0001e0 79 e8 61 3d f8 06 6b 3c 0b c2 a4 3d 06 fc 58 3e
       0.055153344 0.014344923 0.08044823 0.2118989
0001f0 89 eb a1 3e a4 d9 90 3c b7 78 f7 3d 68 e3 52 3d
       0.31625012 0.017681904 0.120835714 0.051486403
000200 5f e3 cb 3d 2e 37 5e be 6e 5b 4d 3e 62 42 b3 bb
       0.09955477 -0.21700737 0.20054409 -0.00547056
000210 db d7 25 be b4 75 42 bd 3b 11 73 be e2 5f 91 3e
       -0.16195624 -0.04747553 -0.23737042 0.28393465
000220 d9 e1 be 3d 08 69 c7 3e 11 13 09 3e 17 74 55 3e
       0.09320421 0.3894732 0.1338618 0.20845066
000230 fb fe 9f be 3e be 01 3e e2 51 2c 3e cc 01 5d be
       -0.31249222 0.12670228 0.16828111 -0.21582717
000240 8a 4f 03 3c 4a 1b 5b be 94 dd 74 3e aa 20 0e 3e
       0.008014569 -0.21397129 0.2391265 0.13879648
000250 08 7a 68 be ab 8c 8c be a4 34 85 be 68 58 99 bd
       -0.22702801 -0.2745107 -0.26016724 -0.07487565
000260 d0 f8 71 be fa c1 31 3e bd 31 bd 3d 1b bf 4c be
       -0.2363007 0.17359152 0.092380024 -0.19994776
000270 f0 55 8c 3d f4 b6 51 3d 3d 22 a6 be 04 e8 85 be
       0.06852329 0.05119987 -0.32447997 -0.26153576
000280 6e 9a 0d be 68 8b 04 3d a2 a8 2e 3e 31 6f 8b be
       -0.13828442 0.03235951 0.17056516 -0.2723327
000290 2b e8 85 be 3b 66 cb bd f2 ad 70 be 21 bc 3e 3e
       -0.26153693 -0.09931608 -0.23503855 0.18626453
0002a0 ae 2f ca 3c 07 a8 33 3e 66 2b 86 3e 72 07 63 3d
       0.024680939 0.17544566 0.26204985 0.055427022
0002b0 20 b5 8f be 36 c6 47 3e 5a 82 6b 3e 43 29 8f bd
       -0.28067875 0.19509205 0.22998944 -0.06990292
0002c0 84 96 ad bc 63 1d 01 3e 74 12 43 bd 93 ca f9 3b
       -0.021189936 0.12608866 -0.04762502 0.0076230257
0002d0 97 54 f3 3d 9b 70 8c 3e e1 04 05 be 30 f5 29 be
       0.118813686 0.2742966 -0.12990142 -0.16597438
0002e0 2c bf 50 be 3c 0f 05 3e 24 19 a5 3d fc 27 a9 3d
       -0.20385426 0.12994093 0.08061436 0.082595795
0002f0 bb 22 71 3e 62 23 c9 bd 22 a5 63 bd 67 40 f3 bd
       0.23548405 -0.09821202 -0.055577405 -0.11877518
000300 be c4 5d 3c 7c 21 31 bd 0e 5d af 3e d3 86 df bc
       0.0135356765 -0.043244824 0.34250683 -0.027285969
000310 29 ec 52 3e b7 a1 54 bd 20 20 97 be a3 67 8c ba
       0.205979 -0.051912036 -0.29516697 -0.0010712038
000320 57 48 a8 3e 0f 1f 44 3e 7f 6f 1d be 0a d0 a9 bc
       0.3286769 0.19152473 -0.15374564 -0.020729084
000330 3c 16 39 be 80 6c 95 be db f2 88 bb 05 f7 3f be
       -0.18074888 -0.2918434 -0.0041793413 -0.18746574
000340 24 3e 7a be ca 1a 83 bc 23 95 87 be b4 8b 50 3c
       -0.24437767 -0.016003985 -0.2648097 0.01272862
000350 b0 54 12 be b5 86 4a 3d 1e d6 8d bc 8b 92 c7 bd
       -0.14290118 0.049444873 -0.017314013 -0.09744748
000360 87 06 bf 3d 8a ad 4a be 72 69 80 bd ae 3c 6f be
       0.09327417 -0.19792762 -0.06270112 -0.23362991
000370 23 2e 3a 3e 40 8f 7c be 66 47 db bd de c2 75 3e
       0.18181662 -0.2466402 -0.107069775 0.24000117
000380 00 98 2d be df 06 99 be 9f 9f 47 3e 44 20 68 be
       -0.16952515 -0.29888055 0.19494484 -0.22668558
000390 ea d8 51 3e 5d 00 66 3e c9 e4 0a bc 35 ed 04 3e
       0.20492902 0.22461076 -0.008477398 0.12981112
0003a0 ad 50 5a bd e3 a5 18 bc a0 32 e7 bc e3 83 90 bd
       -0.053299595 -0.009316894 -0.028222382 -0.070564054
0003b0 a9 90 91 be 62 ba 23 3e 8c ad 99 be 01 ab 5a be
       -0.2843068 0.15989068 -0.30015218 -0.21354295
0003c0 de 57 65 3e c0 51 59 bd 06 51 9e be 6c 4b 51 3e
       0.223968 -0.05305648 -0.3092119 0.20438927
0003d0 f8 33 6e 3e d8 6a 46 bd b5 1b a0 3e 52 bf 23 3e
       0.23262012 -0.048441738 0.3127114 0.15990952
0003e0 dd 07 49 3e 5a 4f 58 3c 2d 12 b5 3b 16 d5 10 3e
       0.19631906 0.013202513 0.0055258484 0.14143786
0003f0 f9 aa 6f 3e 09 b3 26 bd 9d 23 af 3e 13 d6 86 bd
       0.23405065 -0.040698085 0.34206858 -0.065838

encoder.conv1.nn.0.bias f4 [64]
000000 c0 ee 13 be ec 5c 05 bd c6 cf 0a bd 46 4b 05 be
       -0.14446545 -0.03255932 -0.033889554 -0.13016996
000010 86 29 5a bc a2 92 a0 3c 73 b4 30 be 0e 39 c6 3c
       -0.013315564 0.01960117 -0.17256336 0.024197128
000020 9b d9 3d be fd 9c ea bd 52 b7 b5 bd 37 9d a7 bd
       -0.18540041 -0.114557244 -0.08872856 -0.08184283
000030 79 f2 43 3e b6 44 95 3e 63 1b 5a be ff 5a bb bd
       0.19135465 0.29153985 -0.2129951 -0.091482155
000040 cd 01 2a 3b 1e e8 1d bb 31 39 b7 3d bc 84 80 be
       0.0025941015 -0.0024094651 0.08946455 -0.25101268
000050 90 3b 00 bc 0d 08 a0 3d 4a 24 f2 3c 26 8e 93 3d
       -0.007826701 0.078140356 0.02955832 0.07204847
000060 99 ae 81 3d bb 4b e0 bd c8 f9 ff bd ee 4a 40 be
       0.0633213 -0.109519444 -0.12498814 -0.18778583
000070 8f b3 61 be e7 56 5e be 48 c1 67 be 32 24 23 3e
       -0.22041152 -0.21712838 -0.22632325 0.15931776
000080 62 6f c9 3c 88 48 38 bd 85 9c b1 3d 8f 60 7e 3e
       0.024589244 -0.044991046 0.08672432 0.24841522
000090 0e 3a 1d 3e 1a b7 7e 3d 0a 50 2d be 36 4e fe bd
       0.15354177 0.062186338 -0.16925064 -0.12417261
0000a0 2a 35 0c 3e d2 15 34 be 2e e2 f5 3d b3 5e 41 3e
       0.13692155 -0.17586449 0.12006031 0.18883781
0000b0 61 40 01 3e e3 f9 11 3e 59 2d 2c be eb 32 15 3c
       0.12622215 0.1425548 -0.16814174 0.009106378
0000c0 fa 90 78 be 4d a7 53 3c ff ae e8 3d b6 62 a2 3d
       -0.24274054 0.012918306 0.11361503 0.07928984
0000d0 1e 3b 81 be 68 ea 9d bd c1 51 9f 3d e8 19 27 be
       -0.25240415 -0.07710725 0.07779265 -0.16318476
0000e0 4f ea 58 be 0b b8 98 3d 22 14 af 3d 19 e7 c4 3d
       -0.21183132 0.074569784 0.08548762 0.09614391
0000f0 ae df ef bc 49 94 ac 3d 33 27 71 3e 65 f6 4c be
       -0.029281463 0.08426721 0.2355011 -0.20015867

encoder.conv1.nn.1.weight f4 [64]
000000 fd 59 7b 3f 98 8f 7a 3f ca 35 7a 3f c1 f1 7e 3f
       0.98184186 0.97875357 0.97738326 0.9958764
000010 38 bf 7f 3f 1c c9 7f 3f e0 d7 85 3f af f8 7f 3f
       0.9990115 0.99916244 1.0456505 0.99988836
000020 37 3a 84 3f 6f 5d 7d 3f af 24 80 3f d3 67 8c 3f
       1.0330266 0.98970693 1.0011195 1.0969185
000030 e2 f0 80 3f 1a 53 86 3f e6 99 80 3f 25 16 7e 3f
       1.0073512 1.049411 1.0046966 0.9925254
000040 f1 fe 80 3f ef 5b 79 3f 85 f8 7d 3f e3 af 80 3f
       1.0077802 0.97405905 0.99207336 1.0053676
000050 fc a0 7f 3f 00 4c 80 3f f5 68 87 3f 71 73 82 3f
       0.9985502 1.0023193 1.0578905 1.019148
000060 ec 98 7d 3f 6f a4 80 3f 16 0f 79 3f 34 1d 82 3f
       0.99061465 1.0050181 0.97288644 1.0165162
000070 4d d9 7f 3f 23 4c 83 3f 7d 61 7e 3f 61 2f 81 3f
       0.9994095 1.025761 0.99367505 1.0092584
000080 dc be 80 3f 29 d9 7e 3f 87 a9 7c 3f bb 27 7b 3f
       1.0058246 0.9955011 0.9869618 0.981075
000090 c7 19 7c 3f b7 0f 79 3f 8d c1 79 3f d6 d7 82 3f
       0.98476833 0.97289604 0.9756096 1.0222118
0000a0 68 c3 7c 3f 94 59 81 3f 77 71 7c 3f f2 0a 7e 3f
       0.98735666 1.0105462 0.98610634 0.9923545
0000b0 34 5a 7a 3f 9f 62 7f 3f e0 7c 7c 3f 74 d1 82 3f
       0.9779389 0.9975986 0.98628044 1.022017
0000c0 00 1f 79 3f 54 40 83 3f 73 a4 7b 3f f6 14 89 3f
       0.9731293 1.0254006 0.98297805 1.0709522
0000d0 f3 48 77 3f 1e 21 79 3f 7f a5 7d 3f 64 82 87 3f
       0.96595687 0.9731616 0.9908065 1.0586667
0000e0 39 9d 77 3f c1 f0 79 3f e4 62 7d 3f 8c c9 80 3f
       0.9672428 0.97632986 0.9897902 1.0061507
0000f0 5d 8e 79 3f d5 08 80 3f ce 97 80 3f 2b dd 7f 3f
       0.97482854 1.0002695 1.0046327 0.9994685

encoder.conv1.nn.1.bias f4 [64]
000000 0a a1 09 3c 4a ea 1b bd e2 34 02 3d 81 fc 17 3c
       0.008400211 -0.038065232 0.031788714 0.00927651
000010 41 e7 37 3c 92 e9 c6 3b cf 1d 2e 3d 59 2e 2e 3b
       0.011224569 0.006070324 0.042508896 0.0026577918
000020 c5 a6 d7 3c ca 51 cf 3c a8 37 84 3d af 12 d4 3d
       0.02632464 0.025307555 0.06455928 0.10355126
000030 0f 7a 12 3c 85 63 df 3d 8b 02 a9 3d 8e 8b b1 bc
       0.008940234 0.10907654 0.08252438 -0.02167299
000040 ad 8d 89 3d 03 10 89 3c f5 88 02 3d 08 c0 25 bc
       0.06716476 0.016731268 0.031868894 -0.010116585
000050 2b 88 8f 3c d8 2b bb 3c 40 f6 55 bb 82 5b f1 3b
       0.017520985 0.022848055 -0.0032647997 0.007365645
000060 ed e7 04 3d 71 81 43 bb 06 49 c3 bb fe 35 84 bc
       0.032447744 -0.0029831792 -0.005959633 -0.016139027
000070 4d 22 c5 bc bd 01 ce 3d 09 3d 36 bc 22 2d 9c bc
       -0.024064207 0.10058925 -0.01112295 -0.01906449
000080 3f 72 b1 3d 46 a8 9c 3c 07 5d 17 bd fd 2f 54 3c
       0.08664369 0.019123208 -0.036953952 0.012950894
000090 e8 cc 5b 3c c1 a9 f4 bb 3f e7 7d 3c 44 62 64 ba
       0.013415553 -0.0074665253 0.015497028 -0.00087121525
0000a0 6d 37 15 bb 9d 5e 36 3c 61 86 4f bd ad d3 32 3c
       -0.0022768632 0.011130956 -0.050665263 0.010914725
0000b0 fc 32 df bb c5 1e b8 bb cf fc 21 bc 2a 6e 04 3e
       -0.0068114977 -0.0056189024 -0.009886934 0.12932649
0000c0 ae a0 8d bc d7 73 bf 3c fc 2b 94 bc 46 3c b5 3d
       -0.017288532 0.023370666 -0.01808738 0.08849387
0000d0 3b 8e fb 3c 16 5d 7c 3b ff 97 39 bc 4e 00 5e 3d
       0.03070747 0.0038507632 -0.011327743 0.05419951
0000e0 bc e5 21 bd 17 21 6e 3c 5c 30 6a bc e7 2d 31 3e
       -0.039525732 0.014534256 -0.014293756 0.17302667
0000f0 fb 4e 62 3c 58 90 ce 3b e7 d5 b9 3d f3 27 95 bc
       0.013812776 0.006303828 0.09074002 -0.018207526

encoder.conv1.nn.1.running_mean f4 [64]
000000 bf 48 09 be 60 24 75 3e 89 bc 39 be 54 f8 d4 bd
       -0.13406657 0.23939657 -0.18138327 -0.10398927
000010 13 25 53 bd 47 07 7b be fa 57 aa bd ad 79 2d be
       -0.05154903 -0.24514495 -0.083175614 -0.16940947
000020 44 a8 16 3e 42 54 dc 3d 2f 9b 8f bd ea 2e 94 3e
       0.14712626 0.107582584 -0.07012021 0.28942043
000030 cd 44 8f bd 12 72 a5 3e 77 eb df bc 1b 34 02 3d
       -0.069955446 0.3231359 -0.027333958 0.031787973
000040 1c 72 41 bd 7d 82 8e bc 26 20 14 be d3 f7 83 be
       -0.047227964 -0.017396206 -0.14465389 -0.25775012
000050 15 91 51 bd af 12 63 bd fd e8 55 bd b6 0e 8d 3d
       -0.05116375 -0.05543774 -0.052224148 0.068875715
000060 ea 73 42 3e ab 06 0f 3d 9a 05 01 3e 65 fa c9 be
       0.1898953 0.03491847 0.12599793 -0.39448848
000070 61 e4 4c bd 05 04 00 bf 57 17 d0 bb 08 08 44 3e
       -0.050022487 -0.50006133 -0.0063504386 0.19143689
000080 de 66 31 3e 85 91 96 be c6 8e b0 bd 5a d0 45 3e
       0.17324397 -0.29407898 -0.08620982 0.19317761
000090 19 74 2a 3e 5b 0d 3e be 59 da a8 be 81 67 45 bd
       0.1664585 -0.18559782 -0.32979086 -0.048194412
0000a0 79 47 47 3e ae 5c a4 be 40 e2 00 be 0c 4d 14 bd
       0.19460858 -0.3210196 -0.12586308 -0.03620629
0000b0 9c a8 e0 3d 3c d1 84 bc 9b 31 3a be af 33 4c 3e
       0.1096966 -0.016213052 -0.18182985 0.1994159
0000c0 f5 16 dd bd 06 cd 2e 3e ba eb ae bd ad 48 c0 3e
       -0.10795394 0.17070398 -0.08541055 0.37555447
0000d0 b5 e3 ea be fd 50 8c 3d f4 a3 a9 bd 12 29 92 be
       -0.45876852 0.06851385 -0.08283225 -0.2854696
0000e0 34 39 e4 be 49 9d 04 3d 1e e1 40 be d9 3d 3e 3d
       -0.44574893 0.03237656 -0.18835875 0.0464457
0000f0 26 e3 82 3d 86 3d ca 3c d0 10 f4 3c a8 21 c0 be
       0.063909814 0.02468754 0.029793173 -0.37525678

encoder.conv1.nn.1.running_var f4 [64]
000000 5a d9 e8 3b 52 fc 80 3b d5 c0 96 3c db 0c 23 3c
       0.0071059885 0.003936329 0.018402496 0.009951795
000010 b9 35 a5 3b be 45 bb 3b b4 9a 77 3b e9 ca 73 3b
       0.0050418046 0.005715101 0.003778142 0.0037199801
000020 ea eb 7e 3b 47 a0 ec 3a 55 90 06 3c 1a a1 8d 3b
       0.003889794 0.0018053137 0.008213122 0.0043221833
000030 5b 9b 12 3c 4f a8 6b 3b 1e 8f 7d 3b ee 6f b6 3b
       0.008948172 0.0035958474 0.003869004 0.0055675423
000040 aa 19 07 3b 09 02 95 3c c8 b2 9d 3b fa da fb 3b
       0.0020614662 0.018189447 0.004812572 0.007686016
000050 f1 c8 29 3c 2f 31 db 3b 60 0f b8 3b ed fb d0 3b
       0.01036285 0.0066892128 0.005617067 0.006377688
000060 a5 fc 4b 3c 28 66 4d 3b 64 7d 5e 3c 68 35 90 3b
       0.012450372 0.0031341407 0.0135797 0.004400898
000070 d9 27 04 3c 7a c7 b5 3b 93 b4 cc 3b 7c b5 03 3c
       0.008066141 0.005547461 0.006247112 0.008038875
000080 e2 58 87 3a e5 59 4e 3b 05 12 89 3b 54 a6 19 3c
       0.0010326172 0.0031486687 0.0041830563 0.009378035
000090 12 ef 42 3c c2 65 12 3b 6f 07 c8 3b 3a b9 ba 3b
       0.011897819 0.0022338484 0.006104402 0.0056983503
0000a0 42 cd ea 3b c1 0a 61 3c 47 b8 5f 3c aa a5 b7 3b
       0.007165582 0.013735474 0.013654775 0.0056044655
0000b0 65 1b e7 3b e5 e6 43 3c 57 92 05 3c 40 c3 f7 3b
       0.007052826 0.011956905 0.008152566 0.0075611174
0000c0 65 5c 77 3b ab 0c ad 3b 14 f0 70 3c 07 e7 2a 3b
       0.003774428 0.005281051 0.014705677 0.0026077644
0000d0 dd ea 57 3b ab b7 cc 3b 4b eb 52 3c 7b 3f 5c 3c
       0.0032946386 0.006247481 0.012873481 0.013442869
0000e0 73 84 dd 3b b7 37 a5 3b 7d fd 7b 3c 73 cf 50 3b
       0.006760174 0.005042042 0.015380261 0.003186193
0000f0 21 af 3f 3c a4 23 a7 3b 0e ca 73 3b 42 31 da 3b
       0.011699469 0.0051006842 0.0037199291 0.006658704

encoder.conv2.nn.0.weight f4 [64, 128]
000000 6c b8 c9 3d 37 0f 23 bd 6a eb 63 bb 22 ea b2 3c
       0.09849629 -0.039809432 -0.003477777 0.021840159
000010 29 de 50 bd 6e c2 53 bc 76 79 9b 3d 98 3e be 3d
       -0.05099312 -0.012924774 0.07591526 0.092892826
000020 cf 3e 41 3d 73 99 94 3d 7d ba 20 3d 2e ed 3f bd
       0.04717904 0.072558306 0.03924035 -0.04685705
000030 6a 95 6e bd ac cd f9 bc 47 ab ce bb 99 34 a7 3c
       -0.05824796 -0.03049358 -0.006307039 0.020410823
000040 7d bb ef 3c 5a f9 77 bd bb 40 82 bd 66 e5 93 bd
       0.029264206 -0.060540535 -0.063600026 -0.07221489
000050 7c 03 a6 bc 0b 0f 80 bd 43 b9 a7 bd 2e 34 71 bd
       -0.020265333 -0.06252869 -0.08189633 -0.058887653
000060 0c 42 c1 3d 02 01 ae 3c 56 9f fb bc 49 1b cd 3c
       0.094364256 0.021240715 -0.030715626 0.025037425
000070 66 f7 8b bd ca 47 cd 3b 25 ae 74 bc 23 ed e5 bc
       -0.06834297 0.0062646614 -0.014934097 -0.028067177
000080 0d 77 e7 bb 98 0b ac 3d 33 80 8f 3d f2 19 f8 bc
       -0.0070637525 0.08400649 0.07006874 -0.03028581
000090 05 ef 0c bd 65 57 65 bd 94 26 2b 3d 32 2b 98 3d
       -0.034407634 -0.05599155 0.041784838 0.07430114
0000a0 7e 31 2f 3c 4b 1a 84 bd 3a dc a3 3d 56 6a c4 3d
       0.010692952 -0.064503275 0.08000989 0.095905945
0000b0 d2 b1 b3 bd f1 d5 f1 3c 6a d2 af 3c 8b b6 bf 3d
       -0.08774151 0.02952096 0.021462638 0.09360989
0000c0 e7 86 3e bd c3 35 d2 3c 98 ee 58 3d bc fb c8 bd
       -0.04651537 0.025660401 0.052961916 -0.098136395
0000d0 d4 c9 84 bd 85 8b 57 3d 34 f1 93 3d 25 da 74 3d
       -0.06483808 0.05262329 0.0722374 0.05977835
0000e0 65 b4 3a 3c 9c 33 15 bd 38 0c a2 bd be 5a ac 3d
       0.0113955485 -0.03642617 -0.07912487 0.08415745
0000f0 38 99 1d 3c 35 38 c6 3c 4e 32 6a 3d b4 8f b3 bc
       0.00961905 0.024196723 0.05717688 -0.021919109
000100 e9 63 85 3d 58 b9 70 3d 5b 19 ce ba 76 83 92 bd
       0.06513197 0.058770508 -0.0015724109 -0.071539804
000110 29 23 38 bd 09 f6 84 bd 95 46 46 bd 67 2e 74 bd
       -0.044955406 -0.0649224 -0.048407156 -0.059614565
000120 ca a1 12 bd a0 80 d9 bc 23 07 53 3d 9f e1 dd bc
       -0.035798825 -0.026550591 0.051520478 -0.027085124
000130 3b 37 b5 bd 19 e4 20 bd eb db a6 3c 97 1f b7 3c
       -0.08848425 -0.03928003 0.020368537 0.02235393
000140 a4 c2 14 bd 34 1c 8a 3d 52 31 58 ba b7 be 32 bd
       -0.036318436 0.067436606 -0.00082470954 -0.04363891
000150 47 1c 4c bd 9d 2e 25 bc 8c 85 a9 bc 0e ae ba bd
       -0.049831655 -0.010081914 -0.020693563 -0.091152295
000160 63 1a 25 3d 3b b6 63 3c 32 2b 80 bd 01 c4 88 3d
       0.040308367 0.013898428 -0.06258239 0.0667801
000170 0f 34 cd bc ce 16 70 bd fc 56 b6 bb 0f 24 53 bc
       -0.025049238 -0.0586155 -0.0055645686 -0.012887015
000180 33 74 94 3d 51 42 89 bd ab 6c 87 3d 50 3b 8c bd
       0.07248726 -0.06702102 0.06612524 -0.068472505
000190 25 4a 74 bd 61 e0 0b 3d 1d 12 d0 3c 0d 16 a2 bd
       -0.059641022 0.03414953 0.025399262 -0.07914362
0001a0 8f e8 0b 3d a0 88 8a bd 89 d9 ad 3d 52 a0 8a 3c
       0.034157332 -0.067643404 0.08488757 0.01692215
0001b0 f8 65 f0 bc e4 1e 83 bd 06 43 b5 bd fe b5 09 bc
       -0.029345497 -0.06402376 -0.08850674 -0.008405207
0001c0 f5 16 59 3d cd 76 63 bc 63 79 27 3d 4e db a2 bc
       0.05300041 -0.013883305 0.040887248 -0.019879963
0001d0 dc 2c a3 bc dc 8f 05 bd 8e 2d b2 bd 23 2b 88 3b
       -0.019918852 -0.032607898 -0.08700095 0.004155533
0001e0 6d 11 b6 3d 7b 3a 5c 3d 6c ac 47 3d 08 53 3c bc
       0.088900425 0.05376671 0.04874842 -0.011494406
0001f0 a1 0e ed bb cd ad 54 bd 28 0e df bc 7a 02 71 bc
       -0.00723441 -0.05192356 -0.02722843 -0.014710063
000200 56 d7 82 3c b0 5b dc 3c f7 a0 0b bd cc b0 e9 3c
       0.01597182 0.026899189 -0.034089055 0.028526686
000210 68 31 c1 bd 4d bb 83 3d 4e 70 17 3d 98 2b f4 bc
       -0.094332516 0.06432209 0.036972336 -0.029805943
000220 2e cb c3 bc 1f 4f 53 3d 8f 27 92 3d cf 23 b3 bd
       -0.023900595 0.051589128 0.071364515 -0.08747064
000230 f9 1f af 3d 9e 51 e6 bb a4 4e 87 3d 7f 51 86 bd
       0.0855102 -0.0070287725 0.066067964 -0.06558513
000240 fc e8 c5 bd c5 de 82 3d 25 ff 43 3d ae 5c 52 3a
       -0.09663579 0.06390146 0.047850747 0.00080246746
000250 3c 7d 8a bd 28 74 e7 3c d8 90 cc bc 3a d7 a2 3d
       -0.06762168 0.02825363 -0.02497141 0.079512075
000260 90 6f 62 3d 3f 4c 9a 3c b1 b5 32 bd 49 b9 7f bd
       0.055282176 0.018835185 -0.043630306 -0.06243256
000270 98 ff 00 bd 6b ec 86 3d 84 c8 cc 3c ea c1 a6 3c
       -0.031493753 0.06588062 0.024997957 0.020356137
000280 bf be e3 bd 6d e2 17 bd ba b3 9d 3d 56 5b 40 bd
       -0.11120366 -0.03708117 0.07700296 -0.046962105
000290 55 28 38 bc 19 75 d3 3d 6b 33 a7 3d 00 4c a1 bc
       -0.011240085 0.10325069 0.08164104 -0.01968956
0002a0 fe 74 98 bd 70 16 1c bd 47 10 cb 3c 9c 07 a7 bd
       -0.074441895 -0.038107336 0.024788035 -0.08155748
0002b0 44 50 3e bc 09 87 83 bd a7 73 8d 3d e0 ee af bd
       -0.0116158165 -0.0642224 0.069068246 -0.08590484
0002c0 af 04 d4 3c 4b 31 2d 3d f4 05 ba 3c dc 40 41 bd
       0.02588114 0.042283338 0.022707917 -0.047180995
0002d0 a7 2f d0 bb 2e 31 c2 3c b1 ef 61 bd b3 11 61 3b
       -0.006353337 0.023705091 -0.05516023 0.0034342825
0002e0 19 c6 01 3d f2 c6 4c bd 9d ef 49 3d a1 f5 b9 bc
       0.03168306 -0.049994417 0.04930078 -0.022700133
0002f0 d8 71 40 3d a0 76 66 3d e9 2d 53 3c 39 08 18 3d
       0.04698357 0.056265473 0.012889364 0.037117217
000300 26 a7 a3 bd e7 d4 96 3d 5e 94 89 3d 63 b9 c9 3c
       -0.079908654 0.07364827 0.06717752 0.024624532
000310 94 dc 2a 3d c7 f0 85 bd b8 d8 28 3d a9 e3 7a 3d
       0.041714266 -0.06540065 0.041222304 0.06125227
000320 b3 8c 8e bc 1f 66 1c 3d 37 7b 38 3d 31 3a a8 3d
       -0.017401075 0.038183328 0.04503938 0.08214224
000330 37 f8 d2 3b f5 a4 2e bd b7 33 10 3b 07 2f 52 bd
       0.006438281 -0.042637784 0.002200348 -0.05131438
000340 30 cb bc bd ff 1c c5 bc 87 3c 3b bd 9d 18 9d 3d
       -0.092184424 -0.024061678 -0.04571202 0.0767071
000350 64 bd 26 bd 98 88 8e bd 66 ee e2 3c 80 fe ea 3c
       -0.04070796 -0.06959647 0.027701568 0.028685808
000360 42 ae d1 bc b5 31 ef bb 0d 3a 8c 3d 6b 82 a9 3c
       -0.025595788 -0.0072996267 0.0684701 0.020692071
000370 88 d7 f1 3c e1 9d 28 bd 5d e8 7b bc fa 73 9d bd
       0.029521719 -0.04116619 -0.015375224 -0.076881364
000380 11 94 03 bd d0 ee 5e 3b 9c ab a9 bd 8b cb b7 bd
       -0.03212363 0.0034016855 -0.08284685 -0.089743696
000390 48 ce 7e 3c 8a 70 46 3d 32 7f 8a 3d 02 2e 71 3c
       0.015552111 0.04844717 0.06762542 0.014720442
0003a0 b7 e7 a3 bd 4c d6 1d bd f0 7d 85 3d ce 0b ea 3c
       -0.080031805 -0.038534448 0.06518161 0.028570082
0003b0 34 2f 67 bd 92 34 28 3d 06 2d 12 3c 75 c6 92 3d
       -0.0564415 0.04106576 0.008921867 0.07166759
0003c0 71 8d ac 3c 44 06 b2 3b 60 15 6d 3d 16 ba 5f 3d
       0.021063538 0.005432876 0.057881713 0.054620825
0003d0 e7 05 18 bd cd f9 05 bd 70 a9 51 bd ac 99 b8 3d
       -0.037115004 -0.03270893 -0.05118698 0.090136856
0003e0 b5 06 2b bd ff da e3 3b 50 30 12 3c c1 af 90 ba
       -0.041754443 0.0069535966 0.008922651 -0.0011038707
0003f0 ff ac 03 bc 20 6b 81 3d 44 9a ef 3b e1 81 a1 bd
       -0.008036851 0.063192606 0.007312091 -0.078861006

encoder.conv2.nn.0.bias f4 [64]
000000 23 06 d7 3c f0 65 70 bd 5b a4 82 bd 5d 3a 89 3d
       0.026248043 -0.058690965 -0.063790046 0.06700585
000010 1a cc b6 bc 21 a4 92 3d 42 76 2b bc 23 b3 b1 3c
       -0.02231412 0.07160211 -0.010465207 0.021691864
000020 b8 30 2e 3c 4d 90 61 bd 9c c1 75 3d f6 9e 4d 3d
       0.010631733 -0.055069257 0.059999093 0.050200425
000030 d4 49 76 bd b1 26 02 bd 37 53 6f 3d 0a b0 f2 3c
       -0.060129 -0.03177518 0.05842897 0.029624958
000040 54 f0 79 bb fa fe 29 3c 27 3f 89 bd 28 4d c7 bc
       -0.0038137631 0.010375733 -0.067014985 -0.024328783
000050 76 b1 ed 3c db 94 64 3d 4d 02 8b 3c 44 e5 da 3c
       0.029015284 0.055806022 0.01696887 0.02672065
000060 50 1b c0 3d df 4b 65 bc 72 9e 6b bd 4f 04 53 bd
       0.093802094 -0.01399514 -0.057524152 -0.05151778
000070 d6 22 5f bd ef 19 9f 3b 76 2f 38 3d 06 be ee ba
       -0.05447658 0.0048553864 0.044967137 -0.001821459
000080 8d 3c bd bd e3 a7 61 bd a6 72 dc b8 ac 9f ea bb
       -0.09240065 -0.05509175 -0.000105117724 -0.0071601477
000090 af 32 7b 3a 46 44 90 3d a7 0a 24 bc 86 f1 a0 3c
       0.00095824426 0.07044272 -0.010012305 0.019646417
0000a0 17 34 9e 3d 9a b1 e0 3b a5 75 cc 3c a4 c8 ec 3c
       0.07724779 0.0068571093 0.024958441 0.028904267
0000b0 4e f4 20 3d 68 9b 69 bd eb 8e 83 3c 63 2b 93 3d
       0.039295487 -0.057032973 0.01605936 0.0718601
0000c0 cf 5e 84 bd ea d1 9a bd c2 b1 53 bd 81 1d 8c bc
       -0.06463396 -0.07559569 -0.051683195 -0.017103912
0000d0 31 43 ce 3c cc 03 2a bd f8 60 8c bb eb 0e 49 bd
       0.025178524 -0.041507527 -0.0042840205 -0.049086493
0000e0 38 60 7a 3d 3c 7d 51 3d cf 47 b2 3c db 19 26 ba
       0.061126918 0.051144823 0.021762757 -0.000633625
0000f0 7d dd cc 3c a1 ae 90 3d e7 b2 90 bd 75 d3 a6 3b
       0.025007958 0.07064558 -0.07065373 0.0050911256

encoder.conv2.nn.1.weight f4 [64]
000000 27 8c 81 3f dd e8 79 3f 17 45 82 3f eb b1 85 3f
       1.0120896 0.97620946 1.0177335 1.0444921
000010 ff 3a 7e 3f ae 47 81 3f e2 0e 7e 3f 1a 0f 7d 3f
       0.9930877 1.01 0.9924146 0.9885117
000020 3d 78 83 3f dd 0c 7b 3f f5 13 7a 3f bb 5f 7c 3f
       1.0271069 0.980665 0.976867 0.98583573
000030 35 bf 7c 3f e2 8a 80 3f dd 68 7e 3f 8d ac 80 3f
       0.9872926 1.0042384 0.9937876 1.0052658
000040 99 99 82 3f d1 38 7e 3f 2c 28 85 3f fd 74 83 3f
       1.0203124 0.99305445 1.0402884 1.0270077
000050 2e d9 7c 3f 49 0f 84 3f 83 4c 78 3f 6f 11 7f 3f
       0.9876889 1.0317165 0.9699175 0.99635977
000060 87 e7 80 3f ff e3 7c 3f fb 3e 83 3f 86 bc 7e 3f
       1.0070657 0.98785394 1.0253595 0.99506414
000070 ca 76 7f 3f df 6e 7f 3f 46 9f 81 3f bf 68 7d 3f
       0.9979063 0.9977855 1.0126731 0.98987955
000080 5b 03 80 3f 67 24 81 3f c1 b8 80 3f 89 16 80 3f
       1.0001024 1.0089234 1.0056382 1.0006877
000090 d0 34 80 3f 79 7c 7e 3f 15 79 79 3f 9c 2a 7e 3f
       1.0016117 0.9940868 0.9745038 0.99283767
0000a0 40 ef 7b 3f 2f f2 7d 3f 16 b3 81 3f bb 72 80 3f
       0.9841194 0.9919767 1.0132778 1.0035013
0000b0 87 59 75 3f d9 58 78 3f 97 f5 75 3f 77 ab 80 3f
       0.9583973 0.9701057 0.96077865 1.0052327
0000c0 ae 85 81 3f 9a 86 7e 3f a1 ac 80 3f b2 80 81 3f
       1.0118921 0.99424136 1.0052682 1.01174
0000d0 71 e1 82 3f 79 bf 82 3f 5f a4 83 3f e7 41 76 3f
       1.0225049 1.0214683 1.0284537 0.9619431
0000e0 cc 28 84 3f d9 33 7c 3f 76 b0 7e 3f 65 32 80 3f
       1.032495 0.98516613 0.9948801 1.0015379
0000f0 a1 86 7e 3f 02 dd 7b 3f 58 e8 80 3f 8a 9c 81 3f
       0.9942418 0.98384106 1.0070906 1.0125897

encoder.conv2.nn.1.bias f4 [64]
000000 b4 86 06 3b 07 20 f4 3b 6f 8d 3f 3d ab 10 b8 3d
       0.0020527067 0.007450107 0.04676574 0.08987554
000010 b2 3e 9b 3d de 51 2a 3d 77 d1 7c 3c bb b2 6e 3d
       0.075803176 0.04158198 0.0154308 0.05827592
000020 03 77 e0 3d f7 b6 86 bc 68 fc 7e 3b 1f 48 ac bc
       0.109602 -0.016444666 0.003890777 -0.021030484
000030 e1 11 bf bc f4 ea 7f 3d bb d6 ca bc e4 20 cd bc
       -0.023323955 0.062479928 -0.024760595 -0.025040098
000040 bf 2a 54 3d 43 bf 66 bd 68 ad 57 3d 56 1a 7a 3d
       0.05179858 -0.056334745 0.052655607 0.061060272
000050 a8 e1 0e bd 7d 1c c4 3d d7 cc 06 bc 64 0c 1a b9
       -0.03488317 0.09575746 -0.008227549 -0.000146912
000060 ac 12 51 3d ff 05 0a bd 03 02 a3 3c 53 fb c8 3b
       0.051043198 -0.033697125 0.01989842 0.006133476
000070 54 16 c7 3c f9 7f a4 bc 84 2f 9d 3c bb 88 5b bd
       0.024302639 -0.020080553 0.019187696 -0.053597193
000080 29 4e f6 bc ab f3 44 3d 2c 22 1f 3c b7 c4 e8 bc
       -0.030066567 0.048083942 0.009712737 -0.028414113
000090 4e ca 0c 3c 5d 2a 07 bc 08 d4 e9 3b 4d 47 98 3c
       0.008593155 -0.008249846 0.007135872 0.018588686
0000a0 f3 91 82 3c 31 37 ac bb 2a 39 d7 3a 33 a1 55 3c
       0.015938735 -0.0052556028 0.0016420234 0.013038921
0000b0 be cc ea bc f3 04 ea bb fc 50 09 3c e8 a0 e0 bb
       -0.028662082 -0.0071417033 0.008381125 -0.006855119
0000c0 88 38 31 3b a0 99 fa 3c 92 3b 76 3c c6 61 09 3d
       0.0027041752 0.030590832 0.015028851 0.03354051
0000d0 3a 81 8b 3d 0d 5b 22 3d 5e 9b 93 3c f8 2c 9f bb
       0.068117574 0.039637614 0.01801842 -0.0048576556
0000e0 3a 99 9f 3d 78 73 03 bd 5a b5 77 3b e2 20 00 3d
       0.077928975 -0.03209254 0.0037797303 0.03128136
0000f0 4c f0 10 bd a3 af 2f 3d 2b 32 b2 3c 9e fd 3d bd
       -0.035385415 0.04289211 0.021752438 -0.046384446

encoder.conv2.nn.1.running_mean f4 [64]
000000 0a 1e 05 3e a5 08 88 bd 29 db d2 3c fa 38 cd 3c
       0.1299974 -0.06642274 0.02573927 0.025051583
000010 4d f4 44 3e 8e 51 ad 3d 54 fe f3 bd 93 47 f8 3c
       0.19233818 0.08462821 -0.119137436 0.030307567
000020 dd 66 df 3d 47 14 32 bb 70 ee 70 3d e9 16 5d 3d
       0.109082915 -0.002717273 0.05882114 0.053976927
000030 14 cb ca be 4f ff 01 3e d7 2d e1 bd e7 a1 0b be
       -0.3960806 0.12695049 -0.109950714 -0.1363598
000040 fa 64 ff bd d9 89 f2 bd 97 b9 ca be 28 d5 f5 3d
       -0.124704316 -0.118426986 -0.3959472 0.12003547
000050 e0 b9 be bd db 2c 51 3d 4a ad c3 3e c8 fb 16 3e
       -0.093127966 0.051068168 0.38218147 0.14744484
000060 2a e9 2c 3e 1e 5c 22 3e 35 c4 78 be 58 60 44 be
       0.1688582 0.15855452 -0.24293597 -0.19177377
000070 cd b2 27 3d d7 eb 5d be eb 62 28 3e a3 08 cb 3d
       0.040942002 -0.21671997 0.16443984 0.09913757
000080 a9 9f a2 be 5f ab b6 bd 11 ab dc 3d ee 3f 87 bd
       -0.31762436 -0.08919405 0.10774816 -0.066039905
000090 28 df 5d 3e 93 87 ff bd 24 4b eb 3d 8f 72 b4 3e
       0.21667159 -0.124770306 0.11488941 0.3524365
0000a0 12 3a e8 3d 17 ae a9 3d 8e e8 4d be e7 bc 82 be
       0.11339201 0.08285158 -0.20108244 -0.25534746
0000b0 1f 70 7c be d6 e1 7e be c0 b7 39 be b3 08 a5 3d
       -0.24652146 -0.24890837 -0.18136501 0.080583
0000c0 69 d5 07 3e ba 0b 68 bd cf 3c 79 be 70 8a 5e be
       0.13265003 -0.05665181 -0.24339603 -0.21732497
0000d0 5b 79 92 be 40 a3 44 be 8a 4a 35 bd f6 18 0b bd
       -0.28608212 -0.192029 -0.04426054 -0.03395935
0000e0 8b 4a 32 be 40 19 6e 3d 45 bd 70 3e 21 e6 55 3e
       -0.17411248 0.05812955 0.235097 0.20888568
0000f0 54 b8 8a be 9d cd 66 3e 37 97 65 bc 2f 9a 19 3e
       -0.27093756 0.22539373 -0.014013103 0.15000223

encoder.conv2.nn.1.running_var f4 [64]
000000 c8 94 1a 3e 41 35 66 3e a7 b3 05 3e 0e 68 06 3e
       0.15095818 0.22481252 0.13056813 0.13125631
000010 d8 06 43 3e d3 9c 23 3e 7b 7a f5 3d 49 ff cf 3d
       0.1904558 0.15977792 0.11986252 0.10156114
000020 cc 52 bd 3d 2f 7e 38 3e c9 97 e5 3d ae f8 54 3e
       0.09244308 0.18016885 0.11210591 0.20797989
000030 92 6f 85 3e fa 9a a7 3d f8 5e 3f 3e 31 74 1c 3e
       0.26061684 0.08183856 0.18688571 0.15278699
000040 50 02 db 3d 3d b0 17 3e 19 fb 45 3e 10 f4 df 3d
       0.106938004 0.14813323 0.19334067 0.10935223
000050 1a 27 97 3e b5 25 ea 3d f5 22 66 3e c8 89 11 3e
       0.2952202 0.11432973 0.22474273 0.14212716
000060 e8 1f b4 3e db 84 00 3e e0 22 81 3e 37 a2 3b 3e
       0.35180593 0.1255068 0.2522192 0.18323599
000070 09 07 e7 3d f3 01 8e 3e 71 7f 06 3e 98 00 4e 3e
       0.11280639 0.27735862 0.13134553 0.20117414
000080 dc 57 39 3e b2 a1 83 3e b3 49 d6 3d e6 2c 70 3e
       0.18099922 0.257093 0.10463276 0.23454627
000090 85 74 fc 3d 00 5c c1 3d 78 da 27 3e 05 bf 4f 3e
       0.12326912 0.09441376 0.16391933 0.20287712
0000a0 35 b5 28 3e 7b ee 0c 3e bf 14 f0 3d 58 83 c3 3d
       0.16475375 0.13762848 0.11722707 0.09546536
0000b0 57 8c 78 3e c2 60 8a 3e 15 d8 04 3e 97 06 ad 3e
       0.24272285 0.27026945 0.12973054 0.3379409
0000c0 fe 5a ed 3d fb db ea 3d 9d 6a cb 3d a7 92 0a 3e
       0.11589621 0.11467739 0.09932444 0.13532506
0000d0 26 f0 28 3e fe f9 96 3d f3 a7 18 3e ca f6 56 3e
       0.1649786 0.07371901 0.14907818 0.2099258
0000e0 aa a5 68 3e ee 0f 0f 3e 67 3b 0f 3e 2f 82 9f 3d
       0.22719446 0.1397092 0.13987504 0.077885024
0000f0 4d 47 26 3e a3 fb 9e 3e 5f a7 c7 3d 31 3d 0b 3e
       0.16238137 0.3105136 0.097487204 0.13597561

encoder.conv3.nn.0.weight f4 [128, 128]
000000 4d 38 a0 bd f9 c2 45 bd 76 dd 77 3d 01 d8 00 3d
       -0.078232385 -0.048281644 0.060513936 0.031455997
000010 f8 cc d0 3d 5e 61 1f 3e 62 24 b7 bb 4c e7 36 bd
       0.10195345 0.15564486 -0.005589054 -0.044654176
000020 78 b9 8c bc d9 91 4a 3b 55 06 5b bc 88 02 26 bc
       -0.017178282 0.0030909686 -0.013368209 -0.010132439
000030 1b 77 7e bc 5a 4a 0a bc 5b e5 3c 3d fa 39 8f bd
       -0.015531327 -0.008440578 0.046117168 -0.0699348
000040 72 03 cc 3d c6 a6 d4 bc 7e fd b3 bd 3f 93 44 bd
       0.09961595 -0.02595843 -0.08788584 -0.047991987
000050 57 c0 8d 3d 4e 14 2d 3d ea 44 f3 3d cb d9 00 3d
       0.069214515 0.042255692 0.11878379 0.031457704
000060 01 c9 7c 3d 58 91 5c 3d 0e 09 09 3c 84 45 a5 3d
       0.06171513 0.053849548 0.008363975 0.080699
000070 20 cb af bc c6 b0 09 bd c4 18 e0 bc 28 8c 7f bd
       -0.021459162 -0.03361585 -0.02735556 -0.062389523
000080 ed 9d 19 3b 34 dc c5 bc 5c 33 d8 3c 4b 62 6c bd
       0.0023440078 -0.024152853 0.026391678 -0.057710927
000090 43 e7 6d 3d 64 6b 82 bd 37 7e a5 bc 4b 30 9f 3c
       0.058081876 -0.063681394 -0.020201785 0.019432208
0000a0 7a 64 3e bb f7 32 12 bc 46 fb 73 bc 2d de 07 3c
       -0.0029051588 -0.008923284 -0.014891451 0.008292717
0000b0 7e 9f f3 bc 20 bc ba 3d 18 f4 b2 3d 26 1e 0f bd
       -0.029739138 0.09117913 0.087379634 -0.03494086
0000c0 60 99 64 bd 17 10 60 bd 5d e2 b0 3d 61 85 ac 3d
       -0.055810332 -0.054702844 0.08636925 0.084238775
0000d0 fb 1d 51 bd b6 1c c6 3d 80 34 3f bd 01 77 da bc
       -0.051053982 0.09673445 -0.046680927 -0.026668074
0000e0 e1 6d 92 bd b1 e9 16 bc fb 4f 9f 3c f4 2e a0 bd
       -0.07149864 -0.00921099 0.019447317 -0.078214556
0000f0 77 24 2d 3d a6 c4 27 3d 4a f8 ee bc 23 76 fd bc
       0.042271104 0.040959023 -0.029171128 -0.030940121
000100 c3 84 e0 3c 6c 39 91 3c b1 2b 76 3d ab e3 61 3d
       0.027407056 0.017727576 0.06010026 0.05514876
000110 f1 d0 c5 bc 81 2c 55 bd 60 97 63 3d ae f6 a1 bc
       -0.024147483 -0.052044395 0.055564284 -0.019770946
000120 84 91 80 3d a0 b8 c6 3d c3 51 93 3d e5 ed 94 3d
       0.06277755 0.09703183 0.07193329 0.07271937
000130 0a 50 0e 3d c1 db a4 bc a9 eb da 3d d2 23 1f bd
       0.0347443 -0.020124318 0.1068948 -0.03885252
000140 0b 15 89 3d 54 e1 96 3d 16 45 49 3c 64 03 70 bd
       0.06693467 0.07367197 0.012284538 -0.058596984
000150 70 bc a4 3d 28 3a ad bc a4 c8 7f bd 72 50 0d bc
       0.08043754 -0.021145895 -0.062447205 -0.008625137
000160 f8 08 67 3d 18 11 2a 3d 56 42 21 bd d5 d0 21 bc
       0.056405038 0.041520208 -0.039369904 -0.00987645
000170 43 a0 d9 3b f6 1b 2e bc 0c 01 01 3d 2c 89 3d bc
       0.006641419 -0.010626784 0.03149514 -0.011568349
000180 e1 0c 56 bd e1 82 bd 3d a9 e3 04 bd c9 83 13 3d
       -0.052258376 0.09253479 -0.032443676 0.036014352
000190 94 6a 36 bd 99 bd 2f bd 22 16 9e bc 5e 06 b1 bc
       -0.044535235 -0.042905424 -0.019297663 -0.021609481
0001a0 cf fc 16 bd a3 53 43 3d 90 56 b2 bd 56 72 84 bd
       -0.03686219 0.047687184 -0.08707917 -0.0646712
0001b0 63 ba 96 3d 2b 2c ba bd 4f 05 82 bd 05 c9 1e bd
       0.07359769 -0.090904556 -0.06348669 -0.038765926
0001c0 c4 ad 0d 3d c4 60 06 bc 22 ec c6 3c 73 15 5f 3d
       0.034589544 -0.008201782 0.024282519 0.054463815
0001d0 bc da 87 3d 9d 52 04 3b d9 ec 1f 39 40 31 3e 3b
       0.06633517 0.0020190843 0.00015251654 0.0029021055
0001e0 4c ee cc bd 24 4c 3b 3d 19 b6 cd 3d 5e 1b 37 3d
       -0.10006389 0.04572691 0.10044498 0.044703834
0001f0 32 2c ff 3c 7f 55 84 bd 13 ea 1a bc f0 ab 53 3d
       0.031149004 -0.064616196 -0.009455222 0.051677644
000200 4b 3c 82 3d 3a 99 4f bd 71 12 8b bc 55 48 f4 3c
       0.06359156 -0.050683238 -0.016976567 0.029819647
000210 8c 10 d6 bb e4 9e 8e bd 17 5a 3a 3d 94 22 8b 3c
       -0.0065327343 -0.069639 0.045496073 0.016984262
000220 10 e2 a0 3d b2 93 64 3d 95 1b b1 3d b3 f9 0a 3d
       0.07855618 0.055804916 0.08647839 0.033929538
000230 4d 6c 8e bc ac 0c b3 bd 37 9c 6e bc 9d 3b 53 3b
       -0.017385626 -0.08742651 -0.014563612 0.0032231577
000240 9e 8a 06 3d 47 33 7c bd e4 21 ad 3c 08 64 99 bc
       0.03284704 -0.06157234 0.021134324 -0.018724456
000250 ba 31 7a bd 3e 58 af 3c eb 0f d4 3c 02 24 52 bd
       -0.06108258 0.021404382 0.025886497 -0.05130387
000260 2a 63 a6 bd fb b5 ae 3d 01 3b 9c 3d e9 37 ac bd
       -0.08124383 0.08530804 0.076284416 -0.084091015
000270 16 2e 06 bd a7 21 9a 3c 7c 86 20 3d 87 b5 98 bd
       -0.032758795 0.018814875 0.039190754 -0.074564986
000280 76 d2 81 3d 0c 3e bf bb 11 45 7d 3c 5d 73 7f bd
       0.0633897 -0.005836254 0.015458361 -0.06236588
000290 6e fb d9 bc d8 d8 22 3d 88 9d 84 3c a9 5a 07 3c
       -0.026609149 0.03975758 0.016188398 0.008261361
0002a0 7d 70 72 bc 2c 9b 41 3d 49 e8 ec 3d dc 05 fd bc
       -0.014797327 0.047267124 0.115677424 -0.030886583
0002b0 42 00 b1 3c cd 41 1d 3d 02 0e e6 bb 0f d0 b8 3b
       0.021606568 0.03839283 -0.007020713 0.005640037
0002c0 46 36 ae 3c f8 a9 4b bd 23 f0 09 3c 04 f0 32 3d
       0.021266114 -0.04972264 0.008419069 0.043685928
0002d0 e7 e5 8d 3c fa dd aa bd e0 68 e6 3c de 1d 50 3d
       0.01732154 -0.0834312 0.02812618 0.050809734
0002e0 45 c7 ba bd e7 5d a0 bd d9 bd 49 bd 82 0e ca 3c
       -0.09120039 -0.078304105 -0.04925332 0.024665121
0002f0 6a 21 ca bc f3 08 6b bd 91 a6 34 bb bf 62 6d 3d
       -0.024674136 -0.05738158 -0.0027565102 0.0579555
000300 c6 ea 20 3d 8b ba 90 3c 0a a9 a0 3d ac c3 88 3d
       0.039286397 0.017667076 0.07844742 0.066779464
000310 90 b6 4f 3d 0c 88 1b bd e0 60 80 bd 75 a3 bc 3d
       0.050711215 -0.03797154 -0.062684774 0.092108645
000320 78 f3 43 bc 86 3a ac bc 69 79 14 bd b9 07 37 bd
       -0.011959903 -0.021024 -0.0362486 -0.0446851
000330 e6 73 3d bc df 1c 87 bd 7f 0e 7d bb db 33 40 bd
       -0.011563277 -0.065973036 -0.0038613377 -0.046924453
000340 26 83 a0 bc c7 ed 8e bd 6f f3 12 3c c2 ae 61 bd
       -0.019593786 -0.06978946 0.008969172 -0.055098303
000350 63 04 6c 3d ef 39 a9 bd da 99 2c bd 3a 9b 12 3c
       0.05762137 -0.08263003 -0.04213891 0.008948142
000360 81 63 59 bd 88 2d 24 bd d3 78 4a 3d ce 8c aa bd
       -0.05307341 -0.040082484 0.049431633 -0.083276376
000370 83 0f 8b bc f2 76 17 3d c2 79 6e bd 12 a8 17 bd
       -0.01697517 0.03697867 -0.058221586 -0.03702552
000380 35 f8 18 3c 20 b7 a6 3d 5e ce 36 bd b6 37 87 3c
       0.009336521 0.08140397 -0.0446304 0.016506057
000390 0f 21 82 3c 29 65 b4 bc d9 cc 97 3d 7d 91 7b bc
       0.015884904 -0.022020893 0.074121185 -0.015354511
0003a0 3c fc 1a bc ea a4 af bc 8d 4f 02 3c 20 f6 b2 3d
       -0.009459551 -0.021440942 0.007953537 0.08738351
0003b0 08 fc b7 3c 70 f6 a3 3c 81 93 5d 3d 76 13 aa 3d
       0.022459045 0.020014971 0.05409575 0.08304493
0003c0 d9 fd 8e bd d2 b8 23 3d 26 b3 43 3d 3b 36 9f 3d
       -0.06982011 0.03997118 0.04777827 0.077740155
0003d0 71 f2 86 3d 93 08 40 bc 93 4f a3 3d 23 c7 82 3d
       0.06589211 -0.011720794 0.07974162 0.063856386
0003e0 11 51 65 3d dc 94 73 3d 83 da 83 bc 00 51 bb 3c
       0.055985514 0.059468135 -0.016095405 0.022865772
0003f0 45 3d 87 3d 11 bd 69 bd 36 bf 41 bc 91 52 9b 3d
       0.06603483 -0.057065073 -0.011825373 0.07584108

encoder.conv3.nn.0.bias f4 [128]
000000 bc eb 46 bd f4 b1 76 bd ca 83 08 3d bf 2b 8d 3c
       -0.048564658 -0.060228303 0.03332881 0.017232774
000010 3f 3b a5 bc 24 2a 02 bd fd 04 38 3d f6 b6 d6 bc
       -0.020169852 -0.03177847 0.044926632 -0.02621029
000020 28 91 d8 bc 03 86 87 3c 00 11 22 bd 1c b4 98 3d
       -0.026436403 0.016543394 -0.039566994 0.07456228
000030 72 b9 ab 3d e0 ee 87 bd 3a 6d 95 3d 31 37 ba bd
       0.0838498 -0.06637359 0.07296224 -0.09092558
000040 d9 c5 a4 3d 9b 78 45 bc 66 0b ae 3c ba 9c 81 bc
       0.08045549 -0.01205268 0.02124567 -0.015821803
000050 7d 64 14 3d a6 aa 82 3d 06 7e 0b bd fa 98 8f 3d
       0.036228646 0.06380205 -0.034055732 0.070116
000060 e5 36 2d bd 1b 45 94 3d 0f 95 b4 3c 5e 7f 47 bb
       -0.04228868 0.07239743 0.022043733 -0.0030440907
000070 17 a8 6a 3d 46 8b 6c bd bc 25 ad 3d 42 33 a8 3d
       0.05728921 -0.05775001 0.08454463 0.08212902
000080 9a e0 f2 bb 95 f1 df bb 6d 9e 26 bd c8 92 25 3d
       -0.0074120285 -0.0068342187 -0.04067843 0.040423185
000090 e8 fb 80 3d d3 b9 9c 3c 1f 87 9c bc f6 4b 0c 3d
       0.06298047 0.019131577 -0.0191074 0.03425213
0000a0 ac 6e e1 bc 60 6d 2b 3d d1 4c 36 3d 91 10 8b 38
       -0.027518593 0.041852355 0.04450685 6.631122e-05
0000b0 74 3b 0a 3d 6d e0 3b bd 1c fa 47 bd cc 49 34 bd
       0.033748105 -0.045868326 -0.048822507 -0.04401569
0000c0 65 cd 4c 3c 13 41 89 3d 0d 68 8f 3d 39 41 8c bc
       0.012500142 0.06701865 0.07002268 -0.017120944
0000d0 cf be 8e bd 7b 0b 1d bc a0 56 ab 3c 48 5d 9d 3d
       -0.069699876 -0.009585257 0.02091533 0.076838076
0000e0 3b fd c4 bc a9 aa 84 bd 8d 45 68 3d f8 19 83 3d
       -0.024046531 -0.06477863 0.056706954 0.064014375
0000f0 54 18 b4 bc 01 fe f8 bc a8 2e 63 3c 4b 74 d5 3b
       -0.021984257 -0.030394556 0.013866104 0.0065141073
000100 7f ae 7e bc 92 6c bf 39 c0 a9 72 bd 35 9c 2f 3d
       -0.015544533 0.0003651125 -0.059243917 0.04287358
000110 24 6f 93 bb 91 0c 8b bd ee a7 84 bd 4d c7 97 3d
       -0.004499333 -0.06789506 -0.064773425 0.074110605
000120 d0 58 f1 3c ae 85 6d 3d 59 0c 35 3d bd d1 3f bd
       0.029461294 0.057988815 0.04420123 -0.04683088
000130 18 40 54 3d 59 8e 18 bd 62 9d 8e bd 9c 52 82 3c
       0.051818937 -0.03724513 -0.06963612 0.015908532
000140 ae fb 58 bc 21 e8 8e bd c4 85 87 bc 1c de 58 3d
       -0.013243599 -0.06977869 -0.016543277 0.052946195
000150 6e 38 39 bd 2c b2 13 3c e7 55 47 3d 7a d0 d3 39
       -0.04521983 0.009014647 0.048665907 0.00040400383
000160 31 50 82 3d 3d 6d 05 3d 67 00 f0 3c 1b 10 e7 3c
       0.063629515 0.03257488 0.029297067 0.028205922
000170 cb 4c 2b bd 54 b8 85 bd 20 5e 90 3d 94 cc 4c bd
       -0.041821282 -0.065292984 0.07049203 -0.04999979
000180 9d 7e 14 3d 31 13 b4 bd 04 bd 7a bd 2c 6d 8a 3c
       0.03625356 -0.08792723 -0.061215416 0.01689776
000190 8c 7a 22 3d 5d 5d 81 3d ef d5 d0 bc d7 82 ce bc
       0.03966765 0.06316636 -0.025492636 -0.025208874
0001a0 26 29 97 3c b0 cb 2b 3d 83 c5 8b 3c a6 c2 ac bd
       0.018452238 0.0419423 0.017061954 -0.08435564
0001b0 30 b9 11 3d 13 6f 75 bd d4 3a 62 bd cc 4e 1e bd
       0.035577 -0.05992038 -0.055231884 -0.038649365
0001c0 b1 bd 99 3d 34 2c 9e 3d 32 79 3c 3d bb d4 18 bd
       0.07506884 0.07723275 0.04601402 -0.03731225
0001d0 4d b8 16 3d 8b 04 9d 3d d0 a7 91 bd f2 0c b8 bd
       0.036796857 0.07666882 -0.07112086 -0.08986844
0001e0 16 30 18 3d f3 86 38 bd 0b fd b1 bc 17 0b 3e bc
       0.037155233 -0.045050573 -0.021727106 -0.011599324
0001f0 53 b3 1d 3d bc d2 13 bc 63 e4 44 3d 24 da 72 3d
       0.038501095 -0.009022411 0.04806937 0.059290066

encoder.conv3.nn.1.weight f4 [128]
000000 ab 2a 81 3f b3 eb 80 3f c7 bf 80 3f 2b 08 78 3f
       1.0091146 1.007193 1.0058526 0.96887463
000010 99 a4 7e 3f 69 95 78 3f c6 e0 80 3f 79 7d 80 3f
       0.99469906 0.9710298 1.0068595 1.0038291
000020 36 c2 7f 3f c8 36 8c 3f ab 2e 81 3f 63 65 80 3f
       0.9990572 1.0954218 1.0092367 1.0030941
000030 e7 e9 80 3f ae f5 81 3f 16 6a 7d 3f ae 67 7d 3f
       1.0071381 1.01531 0.9899 0.9898633
000040 37 ac 7f 3f 9d eb 80 3f 13 68 7d 3f 3f d7 7f 3f
       0.99872154 1.0071903 0.9898693 0.99937814
000050 4a 70 7d 3f 0d f8 80 3f 06 c1 80 3f a2 2b 7e 3f
       0.98999465 1.0075699 1.0058906 0.9928533
000060 e1 17 81 3f ce 42 80 3f c0 89 7f 3f a5 6a 81 3f
       1.0085412 1.0020387 0.99819565 1.011067
000070 a5 e1 7e 3f 0d 92 7f 3f e9 df 7b 3f 9a e0 7c 3f
       0.99563056 0.9983223 0.98388535 0.98780215
000080 08 cf 80 3f 7c a7 87 3f 62 a3 83 3f b5 68 81 3f
       1.0063181 1.0597987 1.0284235 1.0110079
000090 50 70 82 3f dd 63 80 3f 9a 75 80 3f 15 19 7f 3f
       1.0190525 1.0030476 1.0035889 0.9964765
0000a0 dc c9 81 3f 4f 1f 7e 3f fc 33 78 3f 98 37 80 3f
       1.0139728 0.99266523 0.9695432 1.0016966
0000b0 09 d4 7f 3f 10 8f 81 3f 98 dd 7f 3f 3d a8 7f 3f
       0.99932915 1.0121784 0.999475 0.99866086
0000c0 eb 90 7e 3f 99 ec 7d 3f fd c0 80 3f 43 0f 7f 3f
       0.9943988 0.99189144 1.0058895 0.9963266
0000d0 79 ec 7b 3f b7 e3 7e 3f 96 c4 7d 3f a1 83 81 3f
       0.98407704 0.99566215 0.9912809 1.0118295
0000e0 30 bd 7d 3f 66 c0 82 3f ed 36 84 3f 76 36 80 3f
       0.991168 1.0214965 1.0329262 1.001662
0000f0 43 65 7f 3f 68 bb 80 3f 04 91 78 3f 6d 84 7b 3f
       0.9976389 1.0057192 0.97096276 0.9824894
000100 e4 ed 80 3f 80 34 7c 3f 92 52 86 3f bd 74 78 3f
       1.0072598 0.9851761 1.0493948 0.9705313
000110 1d 09 7f 3f 12 f5 83 3f e3 7e 80 3f ea f4 7c 3f
       0.9962328 1.0309165 1.0038723 0.9881121
000120 ab a7 79 3f f8 67 82 3f 19 39 80 3f a5 62 82 3f
       0.97521466 1.0187979 1.0017425 1.0186354
000130 98 84 82 3f d7 cc 7c 3f 7b fb 7c 3f 91 30 80 3f
       1.0196714 0.9875006 0.9882123 1.0014821
000140 cc 9d 7d 3f ba 68 7e 3f 2d 2c 7b 3f 38 19 7d 3f
       0.99068904 0.9937855 0.9811428 0.98866606
000150 5e 41 82 3f a6 89 79 3f 02 41 85 3f 94 6b 7f 3f
       1.0176198 0.9747566 1.0410464 0.99773526
000160 10 4e 78 3f af f2 7b 3f d7 1c 81 3f 93 0a 7a 3f
       0.96994114 0.9841718 1.0086926 0.97672385
000170 55 ba 81 3f 50 cd 80 3f d0 80 81 3f 5a 99 7e 3f
       1.0134989 1.0062656 1.0117435 0.99452746
000180 dd 44 80 3f 2c 11 81 3f 98 9c 79 3f 22 39 7d 3f
       1.0021015 1.0083365 0.9750457 0.989153
000190 91 45 83 3f 0f 8f 84 3f ff 42 80 3f 93 4e 81 3f
       1.0255605 1.0356158 1.0020446 1.0102104
0001a0 3b a7 80 3f 89 f7 80 3f 01 f3 7f 3f 6e 9a 80 3f
       1.0051035 1.0075542 0.9998017 1.0047128
0001b0 17 af 80 3f 0d c4 7d 3f bd 2e 7d 3f 34 6d 7f 3f
       1.0053433 0.99127275 0.9889944 0.99776006
0001c0 49 33 7f 3f c1 e6 7f 3f d8 2e 7a 3f bf a0 7b 3f
       0.9968763 0.9996148 0.9772773 0.98292154
0001d0 e5 6a 80 3f 79 cc 83 3f 04 1e 80 3f 62 74 7e 3f
       1.0032622 1.0296775 1.000916 0.99396336
0001e0 0e d9 7d 3f 79 34 7f 3f cb c2 7f 3f b8 6f 7f 3f
       0.99159324 0.9968944 0.99906605 0.99779844
0001f0 8b e5 7d 3f a2 f8 7f 3f 96 73 83 3f 0b dc 7e 3f
       0.9917838 0.9998876 1.0269649 0.9955451

encoder.conv3.nn.1.bias f4 [128]
000000 d8 92 86 bb d5 23 3d bb b0 a8 12 3d d7 ab 10 3d
       -0.0041068606 -0.002886047 0.035805404 0.03532013
000010 f1 3a 93 3d 84 54 88 bc 40 cf 50 3d ac 33 1d 3d
       0.071889766 -0.016641863 0.0509789 0.038379356
000020 b0 0d a6 3d 02 55 bc bc 03 4b ff 3c bd 2d f5 3c
       0.081080794 -0.022989754 0.031163698 0.029929036
000030 ad 20 30 3d a2 6b ac 3d ca 06 54 bc 2b f3 35 3d
       0.042999912 0.08418967 -0.012941072 0.044421356
000040 2e 52 40 bd b8 fe ea bb 99 48 e5 bc de 28 f7 3c
       -0.046953373 -0.007171478 -0.027988719 0.030170854
000050 39 6a c9 3d 54 03 c4 3c 85 a9 19 bd 3f 50 64 bc
       0.098347135 0.023927368 -0.037515182 -0.013935148
000060 b6 26 25 bd e0 07 07 3c 84 69 80 bc fc f7 43 3d
       -0.04032012 0.008241624 -0.015675314 0.04784392
000070 8c 9c 24 3d 95 20 e7 ba 7c 0f 9c bc ae 12 d0 3c
       0.040188357 -0.0017633612 -0.019050352 0.025399532
000080 42 a0 2d bd 53 af fa 3d e9 65 05 3e 1d 14 c7 3d
       -0.042389162 0.12240472 0.13027157 0.09720633
000090 a4 27 cf 3a 4f 37 ee 3c d7 f3 10 3d bf ab 20 bc
       0.001580466 0.029079108 0.035388794 -0.009806572
0000a0 7b 33 46 3d f0 de 4c 3d c4 fd 46 3d ce 48 46 3c
       0.04838894 0.050017297 0.048581854 0.012102319
0000b0 5b 40 69 bc 59 0c a1 3d d6 78 40 3d 52 15 aa bc
       -0.014236535 0.07863683 0.046990238 -0.02076212
0000c0 9b fe 8a 3d 1f f7 5c 3c 29 e4 31 3d 89 dc ab 3c
       0.067868434 0.013486653 0.04343048 0.020979183
0000d0 0f 73 38 3c 67 d3 a1 3c 99 39 1a 3d 81 26 dd 3d
       0.011257901 0.019754125 0.037652586 0.1079836
0000e0 1d 1e ca 3b df 27 42 3d 81 a8 a2 3d 07 45 a0 3c
       0.0061681406 0.047401305 0.07942296 0.019564165
0000f0 06 75 a8 3d de ad ff 3c 95 16 58 bc a6 ad 49 3d
       0.082254454 0.031210836 -0.013188978 0.04923787
000100 59 2e 9f ba c5 0e 16 3b 56 14 48 3d b1 56 40 3d
       -0.001214455 0.0022896987 0.04884752 0.046957675
000110 b3 47 0b bd f7 f5 48 3d 4a 20 fa 3c a2 8e 1e 3d
       -0.034003925 0.049062695 0.030532975 0.038710244
000120 1d d4 b4 3c 7d 8f 44 3d ed 71 80 3c f5 cc a3 3d
       0.0220738 0.047988404 0.015679324 0.07998077
000130 66 42 e6 3d b6 f4 f1 ba de 5b a7 bc 89 37 92 3d
       0.11243133 -0.001845977 -0.020429548 0.07139499
000140 18 df b0 ba 43 98 13 3d 3d 80 98 3b 6f ec 3c 3d
       -0.0013494221 0.03603388 0.004653959 0.04612392
000150 99 fd 60 3d df 14 01 3c e1 a6 eb 3c 22 ce 27 3c
       0.05492935 0.007878511 0.028766098 0.010242017
000160 08 fc 08 3d e7 41 98 3b e8 ed cb 3d 2f 52 d4 bb
       0.03344348 0.004646528 0.099574864 -0.0064795236
000170 94 45 d4 3c dc 82 60 bd 9f 57 57 3d 06 89 c3 bc
       0.025912084 -0.054812297 0.052573796 -0.023869049
000180 56 ed 8f 3d c6 ab 16 3d a8 27 a7 3d 82 60 8c bc
       0.0702769 0.03678491 0.08161861 -0.017135862
000190 ba 7b 67 3c 66 3b f9 3c b9 56 5b 3c 24 9b b2 3d
       0.01412862 0.030423831 0.0133873755 0.08720997
0001a0 da 16 6f 3d b3 69 2e 3d 42 b6 41 3b 28 d3 8c 3c
       0.058371402 0.04258127 0.0029558097 0.01719053
0001b0 bf 09 0d 3c 68 e3 4a bc a2 b0 71 bc 1c 8f 59 3d
       0.008608281 -0.012383319 -0.014751585 0.053114995
0001c0 85 9d 14 bd 63 7e 6b 3d c0 e2 13 3d 9c 63 be 3b
       -0.036283035 0.05749358 0.036104918 0.005810214
0001d0 f2 80 96 3d da 25 c5 3d 02 8e c3 3d bf 70 c5 3d
       0.07348813 0.0962636 0.0954857 0.09640645
0001e0 5a 2b 41 bb 06 9f b4 bc b2 10 dd bc 55 db e6 bb
       -0.0029475302 -0.022048485 -0.0269855 -0.0070451894
0001f0 a4 d7 17 bd 93 6b 26 3d 52 07 c3 3c 62 7b 20 3d
       -0.037070885 0.040629935 0.023807202 0.039180167
