models/roof_segmentation_dgcnn_20251209_da.pth (torch, 378063 bytes, 42 tensors)

encoder.conv1.nn.0.weight f4 [64, 12]
0.0049823434 -0.09199131 -0.25647497 -0.1795945 0.1838765 -0.24726647 0.13838881 0.2000256
0.14350522 0.12329208 0.06673464 0.21625353 0.24901411 0.014963874 0.32262856 -0.2620005
-0.009224427 -0.20097932 -0.28868094 0.07618541 -0.25095528 0.03501846 -0.12925006 0.16242948
0.19153057 -0.2093141 0.2862435 -0.13647614 -0.23696397 -0.23729344 0.074015915 0.1447217
0.23699586 0.0021318658 -0.17460297 -0.04480513 -0.3007635 0.04218623 -0.16564949 0.07134989
0.031852037 0.051728792 -0.05300805 -0.17232831 -0.12416779 -0.01178481 -0.27380732 -0.025672764
-0.22015083 0.20374282 0.14838248 -0.17746004 -0.017281333 -0.29136032 -0.05468696 -0.3001716
-0.23903608 -0.21701103 -0.08848293 0.050492767 0.2016854 0.113618314 -0.0640826 0.3029853
0.07099676 -0.23714992 0.28757694 0.19125438 -0.34269574 0.14947262 -0.094582595 0.15660277
0.08666472 0.034313273 -0.07397118 0.27967307 0.004971782 0.032578852 0.0019745706 0.15678221
-0.14178658 -0.03648655 -0.002275107 0.024461692 0.1390394 0.23955172 -0.0145711675 0.075775295
-0.24599549 0.22463016 -0.100603156 0.03704368 -0.23992945 -0.1899645 -0.10418212 -0.10663507
-0.12296742 -0.0935264 -0.11768939 0.06500048 0.2818147 -0.033471238 0.0017098464 0.25297567
0.007301961 0.25106812 0.315643 0.08472299 -0.03820294 0.1433749 0.2511096 0.06743717
-0.22131148 -0.116292365 0.038498744 0.048617452 0.21451579 -0.20911661 -0.069211386 -0.15084359
-0.16877785 0.17990895 0.062950864 0.24517165 0.08653798 0.23379484 0.15796627 0.23195893
-0.29433393 -0.2006361 0.021451425 -0.16251239 0.0355356 0.047906168 0.27279744 0.021644268
-0.2831014 -0.102973096 -0.21326523 0.016734663 -0.008828576 -0.05250875 -0.11674399 0.14568646
0.19376603 -0.030533783 -0.15489887 -0.24699606 0.2621809 0.07336542 -0.041601047 0.23029101
-0.33601344 0.089374855 0.17683133 -0.16785505 0.21122308 -0.2914947 -0.13281897 0.03926098
0.061407264 0.29387155 0.23482957 -0.09988361 -0.17261088 0.0454993 -0.1174782 0.23412596
0.08458993 0.101598956 0.13032055 -0.16867459 0.08072878 0.29503468 0.0391538 -0.15726328
-0.023508657 0.028933344 0.16785939 -0.037432533 0.07280093 -0.12579931 0.17564413 0.048277475
0.1789603 -0.22107242 -0.10779884 0.00880814 -0.27710706 0.28322926 -0.16246064 0.20814052
-0.13627483 0.0074324147 -0.08592893 0.19775362 -0.10871798 0.1384251 -0.17157985 -0.07151908
0.14104508 0.042394973 0.18716942 0.025057951 0.24140558 -0.22081873 -0.27719256 0.18708585
-0.32061538 -0.17476529 -0.20436673 0.09022221 0.24307019 -0.14819598 0.10287884 -0.10808513
0.108077765 -0.046585117 0.12306652 -0.10513879 -0.30984017 0.08428 0.219521 -0.29446113
-0.17464815 0.05444956 0.017980784 -0.008058332 -0.048104018 -0.09976099 -0.22060557 0.14762515
0.12445029 -0.13542055 0.076773666 -0.013961429 0.10797672 0.28121513 0.07660414 -0.12466709
0.010264286 -0.11872157 -0.16048937 0.0709646 -0.20302333 -0.12307646 0.14736779 -0.095320106
-0.0028043617 0.051645644 0.17224248 0.014430257 -0.17276713 0.121211655 0.25707093 -0.16007891
00000000: ed42 a33b f165 bcbd b050 83be 9fe7 37be
00000010: 1f4a 3c3e 6c33 7dbe ccb5 0d3e 83d3 4c3e
00000020: 08f3 123e 8f80 fc3d 2cac 883d 9171 5d3e
00000030: 8efd 7e3e 092b 753c 922f a53e ee24 86be
00000040: 0d22 17bc 86cd 4dbe fdcd 93be 1907 9c3d
00000050: 367d 80be 846f 0f3d 215a 04be ea53 263e
00000060: 9720 443e 6f56 56be 828e 923e 67c0 0bbe
00000070: afa6 72be 0dfd 72be a895 973d ed31 143e
00000080: 0baf 723e c6b6 0b3b 1fcb 32be 9685 37bd
00000090: acfd 99be 78cb 2c3d 05a0 29be e41f 923d
000000a0: 4877 023d 92e1 533d f81e 59bd d576 30be
000000b0: af4b febd 1315 41bc 7930 8cbe b04f d2bc
000000c0: 386f 61be f5a1 503e 94f1 173e 16b8 35be
000000d0: 9591 8dbc 2e2d 95be 6fff 5fbd 18b0 99be
000000e0: e0c5 74be 2438 5ebe 8a36 b5bd 81d1 4e3d
000000f0: 9e86 4e3e b8b0 e83d bd3d 83bd e420 9b3e
00000100: c066 913d 6ed7 72be 493d 933e 30d8 433e
00000110: d175 afbe 5a0f 193e 85b4 c1bd 7a5c 203e
00000120: 467d b13d 138c 0c3d 347e 97bd 4f31 8f3e
00000130: 55ea a23b 6771 053d cc67 013b 848b 203e
00000140: 8030 11be ec72 15bd f619 15bb e363 c83c
00000150: 5860 0e3e 0c4d 753e e8bb 6ebc 1430 9b3d
00000160: 3ee6 7bbe 7305 663e 0709 cebd 1dbb 173d
00000170: 11b0 75be 0e86 42be 6f5d d5bd 7d63 dabd
00000180: 58d6 fbbd c58a bfbd 2307 f1bd f91e 853d
00000190: 044a 903e 2319 09bd ed1c e03a 0786 813e
000001a0: 4a45 ef3b 008c 803e f69b a13e 3f83 ad3d
000001b0: b07a 1cbd dfd0 123e 7091 803e 801c 8a3d
000001c0: 7a9f 62be b12a eebd dcb0 1d3d 1823 473d
000001d0: 07aa 5b3e aa22 56be b3be 8dbd be76 1abe
000001e0: 1ad4 2cbe 0d3a 383e 62ec 803d 470e 7b3e
000001f0: d33a b13d ea67 6f3e e9c1 213e a486 6d3e
00000200: f0b2 96be 8d73 4dbe e6ba af3c a669 26be
00000210: c78d 113d 4239 443d 1bac 8b3e 524f b13c
00000220: abf2 90be 8fe3 d2bd 3362 5abe 2217 893c
00000230: bba5 10bc 6a13 57bd 7917 efbd d52e 153e
00000240: 9a6a 463e fc21 fabc cf9d 1ebe 89ec 7cbe
00000250: 933c 863e 9c40 963d dc65 2abd 68d1 6b3e
00000260: f409 acbe 2a0a b73d 4613 353e 32e2 2bbe
00000270: dd4a 583e cb3e 95be b201 08be 1fd0 203d
00000280: 2f86 7b3d 5576 963e 2a77 703e c78f ccbd
00000290: e8c0 30be 795d 3a3d 6998 f0bd b7be 6f3e
000002a0: 7c3d ad3d 1d13 d03d c072 053e 08b9 2cbe
000002b0: 2155 a53d c90e 973e bc5f 203d a009 21be
000002c0: 3a95 c0bc 9f05 ed3c 55e3 2b3e db52 19bd
000002d0: a718 953d 89d1 00be 0edc 333e 9abe 453d
000002e0: 5e41 373e cf60 62be a3c5 dcbd 0450 103c
000002f0: fae0 8dbe 6d03 913e 155c 26be ca22 553e
00000300: a18b 0bbe 9d8b f33b 82fb afbd ed7f 4a3e
00000310: 88a7 debd 4fbf 0d3e a1b2 2fbe 9878 92bd
00000320: 1f6e 103e 5aa6 2d3d 57a9 3f3e 5546 cd3c
00000330: 0633 773e 4e1e 62be 2fec 8dbe 6f93 3f3e
00000340: b327 a4be acf5 32be 8345 51be 6cc6 b83d
00000350: 64e7 783e b0c0 17be 24b2 d23d bd5b ddbd
00000360: e057 dd3d 09d0 3ebd 4d0a fc3d 0253 d7bd
00000370: 5fa3 9ebe fe9a ac3d 1dca 603e 9cc3 96be
00000380: f7d6 32be 8006 5f3d 704c 933c 1807 04bc
00000390: b808 45bd 7d4f ccbd 6de6 61be 0c2b 173e
000003a0: cbdf fe3d afab 0abe 833b 9d3d 7abe 64bc
000003b0: e622 dd3d 6efb 8f3e a2e2 9c3d 7651 ffbd
000003c0: 892b 283c 4b24 f3bd 5357 24be e355 913d
000003d0: 59e5 4fbe 830f fcbd 95e7 163e 3037 c3bd
000003e0: 62c9 37bb 628a 533d 5560 303e e26c 6c3c
000003f0: dee9 30be d13d f83d cd9e 833e baeb 23be

encoder.conv1.nn.0.bias f4 [64]
0.17037794 0.07238703 0.06500138 -0.07256486 0.19226572 0.0014717904 0.12741183 -0.025299668
0.11373858 0.27190465 -0.21619146 -0.0077027776 -0.0444752 0.00084113586 -0.13010025 0.073337644
-0.09746027 0.17852935 -0.2831031 -0.0007121748 -0.25146785 0.18329863 -0.28452215 0.20705815
-0.0741504 -0.19325314 0.078629114 0.1855308 0.14615852 0.092647955 -0.036559608 0.060506105
0.12737562 -0.32303894 0.21239689 0.1526939 -0.20963027 -0.10971438 0.303944 -0.00026470682
-0.11376298 0.13865304 -0.028657675 -0.14842775 -0.14489429 0.24209549 -0.2480779 -0.10154638
-0.29408115 -0.06661751 -0.038373128 0.21424462 0.13600442 0.14778098 0.043508604 0.014846399
0.0010676087 0.23695281 0.16157404 0.23409119 0.054885644 0.26928672 -0.18765776 -0.15744911
00000000: 8e77 2e3e a73f 943d 721f 853d e39c 94bd
00000010: 4ee1 443e 17e9 c03a 3f78 023e 4041 cfbc
00000020: c6ef e83d 1637 8b3e 4b61 5dbe 9567 fcbb
00000030: a12b 36bd ac7f 5c3a 0039 05be 0c32 963d
00000040: 4099 c7bd 66d0 363e e4f2 90be 3eb1 3aba
00000050: 65c0 80be a3b2 3b3e e3ac 91be 0d07 543e
00000060: 2adc 97bd 27e4 45be 4d08 a13d c9fb 3d3e
00000070: 94aa 153e 36be bd3d 87bf 15bd 40d5 773d
00000080: c16e 023e 5c65 a5be 927e 593e ca5b 1c3e
00000090: 51a9 56be efb1 e0bd 8c9e 9b3e 59c8 8ab9
000000a0: 91fc e8bd 10fb 0d3e 80c3 eabc 72fd 17be
000000b0: 2b5f 14be e1e7 773e 2208 7ebe 8cf7 cfbd
000000c0: ce91 96be c36e 88bd 242d 1dbd f162 5b3e
000000d0: be44 0b3e e653 173e 1436 323d 503e 733c
000000e0: 01ef 8b3a c2a3 723e aa73 253e 9ab5 6f3e
000000f0: c5cf 603d f3df 893e 5b29 40be 573a 21be

encoder.conv1.nn.1.weight f4 [64]
0.9647608 1.0040957 1.017521 0.95858973 0.9422963 0.97200227 0.96807534 0.98239774
1.035562 1.0027996 1.0242862 0.98852926 1.0360242 0.9184437 1.0140089 1.0083042
1.0274624 1.0050379 1.0212679 1.0628585 0.9743465 0.9824319 1.0270858 1.0017797
0.9676857 0.98218095 0.99375504 0.97785926 0.9807973 0.9683549 1.0086612 0.9626622
0.9884374 1.1410701 1.0094737 1.0045265 0.98017424 1.0144339 1.042941 0.958026
0.9576206 1.0191315 1.1449746 0.99497426 0.97156155 1.0200703 1.0190605 1.0371242
1.0406522 0.97459495 1.0141598 0.9767092 0.9945821 0.969234 0.9817844 0.99649066
1.0311939 0.96414083 0.9909017 0.9534512 0.9974567 0.9981381 1.0354818 0.9831742
00000000: 90fa 763f 3586 803f 213e 823f 2366 753f
00000010: 553a 713f 24d5 783f c9d3 773f 6b7e 7b3f
00000020: 4c8d 843f bd5b 803f cf1b 833f 4110 7d3f
00000030: 719c 843f 201f 6b3f 0bcb 813f 1d10 813f
00000040: e383 833f 15a5 803f e8b8 823f bf0b 883f
00000050: c66e 793f a880 7b3f 8c77 833f 513a 803f
00000060: 40ba 773f 3670 7b3f bb66 7e3f fc54 7a3f
00000070: 8815 7b3f 1be6 773f cf1b 813f 0871 763f
00000080: 3c0a 7d3f 960e 923f 6f36 813f 5394 803f
00000090: b3ec 7a3f f8d8 813f 177f 853f 3141 753f
000000a0: a026 753f e772 823f 878e 923f a2b6 7e3f
000000b0: 42b8 783f aa91 823f 9370 823f 7cc0 843f
000000c0: 1734 853f 0e7f 793f fdcf 813f 9d09 7a3f
000000d0: ef9c 7e3f b81f 783f 3956 7b3f 031a 7f3f
000000e0: 29fe 833f efd1 763f bcab 7d3f 6115 743f
000000f0: 5359 7f3f fb85 7f3f ab8a 843f 4eb1 7b3f

encoder.conv1.nn.1.bias f4 [64]
-0.04367361 -0.028064545 -0.035630286 -0.026499314 -0.019273773 0.0058888635 -0.02574026 -0.010073265
0.010468146 -0.025881186 0.027883884 0.11319558 -0.019828526 -0.017126758 -0.02497646 0.009194196
-0.011980662 -0.013079475 0.019344589 0.015529371 0.004004547 0.00660641 0.063638255 0.059571166
0.07542479 0.04566825 -0.035231855 -0.037946723 0.0065901787 -0.036598388 -0.012859478 0.006455007
-0.112053946 -0.05572181 -0.0025432454 0.010913751 -0.029936321 -0.048191402 0.0056211594 -0.025142651
-0.046424136 -0.010402076 0.0042583826 0.018254148 0.031708788 -0.004210207 0.02941278 0.062516004
0.031867474 -0.037500028 -0.0102005415 -0.0557715 -0.05657161 -0.034725413 -0.039489303 -0.008205924
0.03617741 0.0010379261 -0.0037964385 -0.021205977 -0.0044185277 -0.016291311 0.03198128 0.02809481
00000000: 19e3 32bd 9ee7 e5bc 10f1 11bd 1715 d9bc
00000010: 08e4 9dbc 5ef7 c03b 3ddd d2bc 560a 25bc
00000020: 9682 2b3c c804 d4bc be6c e43c 16d3 e73d
00000030: 6f6f a2bc 6a4d 8cbc 6f9b ccbc 41a3 163c
00000040: 8a4a 44bc 4b4b 56bc 8b78 9e3c e76e 7e3c
00000050: 9338 833b 957a d83b c654 823d e500 743d
00000060: 5078 9a3d a20e 3b3d 474f 10bd 066e 1bbd
00000070: 6df2 d73b 31e8 15bd 8fb0 52bc 8684 d33b
00000080: 8a7c e5bd 8d3c 64bd 94ac 26bb 97cf 323c
00000090: 043d f5bc 5964 45bd b431 b83b f6f7 cdbc
000000a0: 3c27 3ebd 786d 2abc e789 8b3b b989 953c
000000b0: 13e1 013d c7f5 89bb 12f3 f03c 6408 803d
000000c0: 7887 023d a199 19bd 2c20 27bc a870 64bd
000000d0: a2b7 67bd 3c3c 0ebd 89bf 21bd 2472 06bc
000000e0: c42e 143d 050b 883a abcd 78bb 28b8 adbc
000000f0: 4cc9 90bb 5b75 85bc cdfe 023d 1627 e63c

encoder.conv1.nn.1.running_mean f4 [64]
0.0022631234 -0.06411674 -0.096135974 -0.037179284 -0.00613017 -0.15774027 0.15097645 0.12729804
0.09150211 0.19291091 -0.05728371 -0.07793704 0.0047764173 0.20044447 0.070173755 -0.07577724
-0.002565635 0.05974354 -0.22640556 -0.093184195 -0.33443186 0.06958036 -0.35976788 0.14446682
-0.25400352 -0.32743058 -0.068392135 0.1797015 0.0435783 0.29032513 0.033940952 0.039560568
0.054274023 -0.18364356 0.2744076 0.059937607 -0.120666906 0.034376837 0.344338 0.06439602
-0.30869526 0.06350937 0.063864924 -0.30077684 -0.039150804 0.24048755 -0.22523022 0.0046139383
-0.20891398 -0.07136736 -0.16631179 0.369366 0.043565575 -0.021900987 0.01535554 0.16860321
0.08508533 0.08894707 0.3372376 0.14388226 0.010791172 0.11302159 -0.09339344 -0.31519172
00000000: e950 143b a34f 83bd f0e2 c4bd 4e49 18bd
00000010: 98df c8bb aa86 21be 9299 1a3e 6b5a 023e
00000020: 7565 bb3d 708a 453e 53a2 6abd 749d 9fbd
00000030: 7e83 9c3b 5141 4d3e 42b7 8f3d 1931 9bbd
00000040: 3624 28bb a4b5 743d dcd6 67be 5bd7 bebd
00000050: a73a abbe 2680 8e3d 7f33 b8be 1cef 133e
00000060: c00c 82be fba4 a7be 2d11 8cbd ac03 383e
00000070: 297f 323d 7fa5 943e ab05 0b3d 430a 223d
00000080: 704e 5e3d 0f0d 3cbe 277f 8c3e 2381 753d
00000090: 3620 f7bd bace 0c3d 124d b03e 0fe2 833d
000000a0: 4e0d 9ebe 3311 823d 9dcb 823d 6cff 99be
000000b0: 985c 20bd 5e42 763e c0a2 66be 8530 973b
000000c0: 8ced 55be 0d29 92bd a34d 2abe 8a1d bd3e
000000d0: d171 323d b369 b3bc ce95 7b3c 52a6 2c3e
000000e0: 3841 ae3d e229 b63d 68aa ac3e df55 133e
000000f0: 75cd 303c dd77 e73d 0f45 bfbd cf60 a1be

encoder.conv1.nn.1.running_var f4 [64]
0.02053489 0.02067186 0.028654754 0.0075259665 0.02368928 0.035301924 0.02023034 0.022626521
0.019365706 0.013227973 0.02335549 0.0190107 0.02964463 0.017324077 0.016268166 0.013123015
0.013044334 0.04868569 0.0261273 0.010241394 0.014264801 0.035123877 0.008762311 0.014428228
0.036112335 0.013675462 0.010944855 0.011705179 0.0049951645 0.012637826 0.029668624 0.012061848
0.032441247 0.014209852 0.02086551 0.025000291 0.022192752 0.032121625 0.006790531 0.035194736
0.015301945 0.028835082 0.008795536 0.010101265 0.019959763 0.030071957 0.018411601 0.007345966
0.019436847 0.03045139 0.040673323 0.018542318 0.030041646 0.019616092 0.02413746 0.01145296
0.034542684 0.019861866 0.008995536 0.01083521 0.0095105115 0.013355062 0.010157015 0.034629058
00000000: c938 a83c 0858 a93c 60bd ea3c 629c f63b
00000010: 0510 c23c c098 103d 19ba a53c 415b b93c
00000020: d4a4 9e3c 24ba 583c 0354 bf3c 54bc 9b3c
00000030: 4cd9 f23c 39eb 8d3c d144 853c ea01 573c
00000040: e7b7 553c a56a 473d eb08 d63c 85cb 273c
00000050: e9b6 693c 0ede 0f3d cc8f 0f3c 6064 6c3c
00000060: 87ea 133d 0c0f 603c 0d52 333c 14c7 3f3c
00000070: 7aae a33b e20e 4f3c 9d0b f33c 0f9f 453c
00000080: 1de1 043d 70d0 683c 25ee aa3c 69cd cc3c
00000090: 93cd b53c f791 033d 1a83 de3b 5b28 103d
000000a0: 02b5 7a3c 8d37 ec3c 271b 103c c77f 253c
000000b0: a882 a33c 7759 f63c edd3 963c 6eb6 f03b
000000c0: 063a 9f3c 3275 f93c 1299 263d 0fe6 973c
000000d0: e619 f63c edb1 a03c ecbb c53c 32a5 3b3c
000000e0: a17c 0d3d 5ab5 a23c 0362 133c 2a86 313c
000000f0: fad1 1b3c 31cf 5a3c 9c69 263c 33d7 0d3d

encoder.conv2.nn.0.weight f4 [64, 128]
0.07529779 0.030540012 -0.033439517 0.03534219 -0.09982057 -0.08350967 -0.078015834 -0.034013126
0.074806005 0.013774643 0.06737672 -0.042928644 0.081558116 0.07995474 0.09332552 -0.03025031
0.07083857 -0.0047299583 -0.059365332 -0.03345821 -0.09736103 0.036238916 0.01880723 -0.05561118
-0.075339556 0.0815035 -0.0073855943 -0.0034900107 0.033016726 0.07797073 -0.059614073 -0.07186837
0.004732667 0.08197826 -0.040000744 0.0868817 -0.066752404 0.09323662 -0.071036555 0.058132198
-0.060838573 -0.06561633 -0.0550081 0.076006256 -0.07851543 0.06322035 -0.02422387 0.06731978
-0.0283044 -0.024271842 -0.004323094 0.041638054 0.020361869 0.07684579 0.015816312 -0.011938534
0.08292947 -0.076413766 0.077632286 0.04829657 0.013766527 0.013889676 -0.071671665 0.09560085
-0.01967841 -0.004312554 0.056740265 -0.010515948 -0.033171028 -0.05949624 -0.06005918 0.04267341
0.022139447 -0.0049538235 0.0031908432 0.026195325 -0.09117022 0.10668871 -0.09107521 -0.0298789
0.055532567 -0.034857675 -0.062711425 0.077385895 0.030694935 -0.11823434 0.027580231 -0.08644873
-0.0356524 -0.042810656 -0.008390478 -0.10805023 0.034423973 -0.016490737 -0.07591154 0.026961155
0.0500426 0.047640376 -0.08243131 0.027709052 0.0111266365 0.030651951 -0.03921908 0.06548506
0.005047745 0.10114665 -0.06123298 -0.10658986 -0.025216924 0.03804872 0.050413538 -0.010637069
-0.06861521 0.06763686 -0.02490479 0.11380199 -0.07069833 -0.08621262 0.019295096 0.066329
0.08851306 0.01042252 0.050070867 -0.10388151 -0.0187152 -0.00140425 -0.044972982 -0.0620494
-0.07895858 -0.09867276 0.028406616 0.035483602 0.0073843766 -0.039785344 -0.031925492 -0.086161874
0.101801455 0.09423402 0.097312786 -0.033061244 0.0072834054 -0.056683864 0.02086918 0.0054218625
0.05906628 0.061471745 -0.039908092 -0.011706364 0.045339983 -0.109159544 -0.0025128757 0.038994417
0.044744894 -0.08249108 0.048577957 -0.0602293 -0.09841442 0.020592833 0.042396754 -0.0270338
-0.0013911985 0.10024279 -0.10741084 0.020734156 -0.09601998 -0.103333965 0.030189961 -0.021154284
-0.05192225 -0.02000625 -0.01421426 0.05696096 -0.07714843 0.033085298 0.03620321 0.03607248
-0.106685236 -0.07165227 0.061669115 0.027619954 -0.062694706 0.011796897 0.0317864 0.09559042
0.005149544 -0.005790769 -0.08190751 -0.10486775 0.06052963 -0.021881565 -0.048890363 0.066364035
-0.06348508 0.06309503 -0.048008554 0.05804748 -0.04546983 -0.015982183 0.041215762 -0.057780243
-0.018422183 0.07879184 0.011629728 0.040991884 -0.08513987 0.021782652 -0.04027772 0.10348611
-0.041318987 0.029733451 -0.04101568 0.03368201 -0.08847706 -0.04657754 -0.022147354 -0.10308828
0.0315643 0.044653233 0.08647841 0.024242036 0.0038475485 -0.038529176 0.06337532 0.012930911
-0.04405904 1.9300933e-05 -0.046125785 0.015203201 -0.095547095 0.05117608 0.08108288 0.02016419
0.029127544 0.062486835 0.023300374 0.07932904 -0.06327305 -0.017140761 -0.07648918 0.069735065
0.071030945 -0.05151125 0.009699647 0.0014680781 0.053621404 0.05879807 -0.028749617 -0.04501962
-0.014849835 0.01772049 -0.078613065 -0.022649677 0.07785935 -0.010339349 0.018467758 -0.0015307176
00000000: ba35 9a3d 0c2f fa3c e0f7 08bd f9c2 103d
00000010: ba6e ccbd 1e07 abbd c4c6 9fbd 5951 0bbd
00000020: e433 993d 0aaf 613c cefc 893d f2d5 2fbd
00000030: f107 a73d 50bf a33d 7321 bf3d 80cf f7bc
00000040: d013 913d c4fd 9abb 1029 73bd 7a0b 09bd
00000050: 3865 c7bd 426f 143d 9f11 9a3c 8cc8 63bd
00000060: a04b 9abd 4feb a63d db02 f2bb aab8 64bb
00000070: 8c3c 073d 1eaf 9f3d e32d 74bd b92f 93bd
00000080: 7d14 9b3b 38e4 a73d d2d7 23bd 08ef b13d
00000090: 7cb5 88bd d7f2 be3d 9d7b 91bd 071c 6e3d
000000a0: de31 79bd db61 86bd 2c50 61bd 2ba9 9b3d
000000b0: b3cc a0bd ac79 813d 2371 c6bc f4de 893d
000000c0: a1de e7bc bed5 c6bc bea8 8dbb aa8c 2a3d
000000d0: efcd a63c 5361 9d3d 3691 813c d799 43bc
000000e0: edd6 a93d d27e 9cbd adfd 9e3d a0d2 453d
000000f0: 008d 613c 8691 633c 98c8 92bd 61ca c33d
00000100: 9e34 a1bc 5350 8dbb 7b68 683d 154b 2cbc
00000110: 58de 07bd 54b2 73bd 9d00 76bd 50ca 2e3d
00000120: c95d b53c af53 a2bb 771d 513b 9497 d63c
00000130: 74b7 babd 9c7f da3d a485 babd 98c4 f4bc
00000140: 1e76 633d ecc6 0ebd d96e 80bd 7f7c 9e3d
00000150: f273 fb3c d824 f2bd f0ef e13c 080c b1bd
00000160: 4008 12bd 3a5a 2fbd 3778 09bc 7049 ddbd
00000170: 2700 0d3d 9517 87bc 8277 9bbd a4dd dc3c
00000180: 78f9 4c3d 8e22 433d bfd1 a8bd 18fe e23c
00000190: 7f4c 363c cd19 fb3c 30a4 20bd 081d 863d
000001a0: 8e67 a53b fa25 cf3d 6fcf 7abd c94b dabd
000001b0: b993 cebc fad8 1b3d 6d7e 4e3d 1a47 2ebc
000001c0: 2286 8cbd 3285 8a3d 2105 ccbc 0511 e93d
000001d0: 49ca 90bd 3e90 b0bd c010 9e3c 80d7 873d
000001e0: 5646 b53d 38c3 2a3c 1c17 4d3d d4bf d4bd
000001f0: 9e50 99bc d00e b8ba 9735 38bd 8327 7ebd
00000200: 09b5 a1bd f214 cabd feb4 e83c 4157 113d
00000210: a4f8 f13b f5f5 22bd 4ec4 02bd a375 b0bd
00000220: 487d d03d c4fd c03d ed4b c73d 3a6b 07bd
00000230: a2a9 ee3b 572d 68bd d8f5 aa3c e1a9 b13b
00000240: 7cef 713d ccc9 7b3d ab76 23bd 0dcc 3fbc
00000250: 6bb6 393d 0a8f dfbd 0faf 24bb 9cb8 1f3d
00000260: 6c46 373d 15f1 a8bd aef9 463d 00b3 76bd
00000270: 808d c9bd 4db2 a83c 38a8 2d3d fd75 ddbc
00000280: e058 b6ba 184c cd3d 37fa dbbd adda a93c
00000290: 20a6 c4bd c2a0 d3bd f050 f73c c04b adbc
000002a0: 6dac 54bd 26e4 a3bc ede2 68bc e54f 693d
000002b0: ffff 9dbd 7384 073d d149 143d bdc0 133d
000002c0: ca7d dabd 6dbe 92bd c198 7c3d 3e43 e23c
000002d0: 1566 80bd c647 413c 7532 023d e9c4 c33d
000002e0: 82bd a83b 7ec0 bdbb 20bf a7bd e7c4 d6bd
000002f0: ebed 773d f840 b3bc 4341 48bd dee9 873d
00000300: 7704 82bd f837 813d 9ea4 44bd 32c3 6d3d
00000310: 933e 3abd 11ed 82bc dcd1 283d faaa 6cbd
00000320: 1eea 96bc 9e5d a13d 9d8a 3e3c 1be7 273d
00000330: d05d aebd 8871 b23c 40fa 24bd 87f0 d33d
00000340: 193e 29bd 9193 f33c 0f00 28bd 26f6 093d
00000350: 7633 b5bd 17c8 3ebd 5e6e b5bc f31f d3bd
00000360: 9149 013d 4fe6 363d 981b b13d 3c97 c63c
00000370: 2727 7c3b c5d0 1dbd ebca 813d 2cdc 533c
00000380: 4077 34bd 70e8 a137 64ee 3cbd d916 793c
00000390: 32ae c3bd 029e 513d c80e a63d 5f2f a53c
000003a0: e39c ee3c 32f2 7f3d 6de0 be3c 4477 a23d
000003b0: 4d95 81bd c86a 8cbc 5ca6 9cbd 42d1 8e3d
000003c0: ac78 913d 76fd 52bd 45eb 1e3c 876c c03a
000003d0: 1ea2 5b3d 3fd6 703d 5184 ebbc 7e66 38bd
000003e0: b94c 73bc 902a 913c e3ff a0bd d18b b9bc
000003f0: b974 9f3d 5f66 29bc b249 973c 5ca2 c8ba

encoder.conv2.nn.0.bias f4 [64]
0.07344689 0.056821868 -0.036441308 0.02945876 0.07749836 -0.004427506 -0.05108765 -0.051503662
-0.015427011 -0.04764667 0.04828979 -0.02079152 -0.016583774 0.024157323 -0.090101056 0.072818115
-0.016901348 -0.09185702 -0.027913865 -0.050081532 -0.0033312468 -0.03397015 -0.07331434 0.040342383
0.044741906 0.0081188325 0.004498527 0.012816507 -0.06338823 0.023163581 0.066641524 0.055195414
0.06409631 0.07667383 0.06909966 0.05473147 0.05416423 -0.020552365 -0.017335331 0.03623574
0.057643868 -0.0037837022 -0.02382566 0.034714732 0.055825606 -0.074345686 -0.035815705 -0.006472752
-0.061513096 0.02578459 -0.030381596 0.022647033 -0.058687214 0.021010661 0.073479764 0.0119736595
-0.069959186 -0.031479485 -0.0075563146 -0.002685359 0.036192674 0.007726095 -0.07333716 0.08440572
00000000: 536b 963d 0cbe 683d 7b43 15bd 7f53 f13c
00000010: 76b7 9e3d 9d14 91bb 4941 51bd 81f5 52bd
00000020: 93c1 7cbc 2829 43bd 84cb 453d fa52 aabc
00000030: b2da 87bc 94e5 c53c e786 b8bd aa21 953d
00000040: b274 8abc 891f bcbd 9eab e4bc 4b22 4dbd
00000050: 0c51 5abb 4924 0bbd d425 96bd 0e3e 253d
00000060: 4a43 373d da04 053c 6168 933b 54fc 513c
00000070: b0d1 81bd 8dc1 bd3c 5a7b 883d 9614 623d
00000080: ed44 833d 2b07 9d3d 1f84 8d3d 1b2e 603d
00000090: 50db 5d3d 6f5d a8bc d302 8ebc ed6b 143d
000000a0: fa1b 6c3d fdf7 77bb 082e c3bc 0931 0e3d
000000b0: 64a9 643d 8d42 98bd 7db3 12bd 6119 d4bb
000000c0: 28f5 7bbd 343a d33c d3e2 f8bc 4586 b93c
000000d0: 0162 70bd 8d1e ac3c 8f7c 963d 2b2d 443c
000000e0: c346 8fbd a2f0 00bd f69a f7bb d9fc 2fbb
000000f0: c53e 143d 2f2b fd3b cb31 96bd e8dc ac3d

encoder.conv2.nn.1.weight f4 [64]
1.045302 0.9558176 0.983831 0.9767185 0.9627668 0.9841463 1.0448779 1.0533226
0.98935264 0.9628967 1.0031548 0.98630697 0.959649 0.98024464 0.9784267 1.0367069
1.001543 1.0227473 0.9744105 1.052424 1.0323193 0.9678001 1.0108575 0.9910863
0.98437154 0.9920393 0.99363834 1.0209708 1.0019633 0.9848038 1.0123606 0.9765065
1.0356177 0.9912843 0.9621175 1.0421838 1.0676488 1.0515391 1.0233045 0.96408814
1.0137362 0.97559035 0.97944236 0.99166995 1.0072747 1.0103806 0.9669097 1.0056684
1.0039961 1.005537 1.0022866 1.0348829 1.0023013 0.95605296 1.00744 0.9929417
0.94454086 1.0178988 1.0635059 1.0023758 1.0141321 1.0114771 1.0257078 0.9623861
00000000: 75cc 853f 76b0 743f 59dc 7b3f 390a 7a3f
00000010: e377 763f 03f1 7b3f 8fbe 853f 46d3 863f
00000020: 3746 7d3f 6680 763f 6067 803f 9d7e 7c3f
00000030: 8fab 753f 50f1 7a3f 2c7a 7a3f d0b2 843f
00000040: 9032 803f 62e9 823f f772 793f d4b5 863f
00000050: 0a23 843f bfc1 773f c763 813f d5b7 7d3f
00000060: c6ff 7b3f 4af6 7d3f 155f 7e3f 2caf 823f
00000070: 5540 803f 1a1c 7c3f 0895 813f 54fc 793f
00000080: 1f8f 843f cfc4 7d3f 554d 763f 4766 853f
00000090: b7a8 883f d598 863f a4fb 823f 7bce 763f
000000a0: 1cc2 813f 4ac0 793f bcbc 7a3f 15de 7d3f
000000b0: 61ee 803f 2754 813f 6587 773f beb9 803f
000000c0: f282 803f 70b5 803f ed4a 803f 0b77 843f
000000d0: 694b 803f e3bf 743f cbf3 803f 6d31 7e3f
000000e0: 6ecd 713f 824a 823f f620 883f da4d 803f
000000f0: 15cf 813f 1578 813f 654a 833f ef5e 763f

encoder.conv2.nn.1.bias f4 [64]
0.06360287 -0.011582595 -0.03441703 0.00785867 0.0067461813 -0.0081532635 -0.013598412 -0.009020385
0.0029563198 -0.01547263 0.047076747 -0.019360622 -0.06622332 -0.0031785092 -0.021184597 0.01199355
-0.017883183 0.018581748 0.029026542 -0.0023324236 0.039852824 -0.010857199 -0.046081968 -0.032146852
0.021219026 -0.025882585 -0.011175632 0.009972731 0.010511987 -0.05452657 -0.023094708 -0.015333035
-0.015375107 -0.0007439959 -0.03621932 0.040710796 -0.03976397 0.028792098 0.041902512 -0.042469107
-0.051298313 0.038769312 -0.016968632 -0.020134281 0.0288957 -0.040246878 -0.039495 -0.022748314
0.013680226 -0.048440892 -0.009388944 -3.2176016e-05 0.009292984 -0.02733604 0.01572991 0.04034173
0.0036095313 0.0001283637 0.03959191 -0.016562581 -0.0029679835 0.010870671 -0.02091443 0.014907945
00000000: 3942 823d edc4 3dbc dff8 0cbd a7c1 003c
00000010: 120f dd3b 4495 05bc e0cb 5ebc 3dca 13bc
00000020: d1be 413b ea80 7dbc 8cd3 403d 2b9a 9ebc
00000030: 18a0 87bd 894e 50bb 528b adbc 9880 443c
00000040: c17f 92bc c038 983c 12c9 ed3c 93db 18bb
00000050: b73c 233d 65e2 31bc 72c0 3cbd 6bac 03bd
00000060: 86d3 ad3c b707 d4bc ff19 37bc aa64 233c
00000070: 783a 2c3c 4157 5fbd 1d31 bdbc 6937 7bbc
00000080: dfe7 7bbc b808 43ba b65a 14bd 5dc0 263d
00000090: 8bdf 22bd 68dd eb3c f8a1 2b3d 16f4 2dbd
000000a0: 2e1e 52bd 92cc 1e3d cd01 8bbc a6f0 a4bc
000000b0: adb6 ec3c e9d9 24bd 82c5 21bd ac5a babc
000000c0: 0723 603c f569 46bd 16d4 19bc bcf4 06b8
000000d0: 9a41 183c d5ef dfbc 03dc 803c 5f3d 253d
000000e0: e38d 6c3b 5e99 0639 202b 223d 40ae 87bc
000000f0: 8082 42bb e61a 323c bd54 abbc 7440 743c

encoder.conv2.nn.1.running_mean f4 [64]
0.21639064 -0.11317862 0.23777646 -0.7402302 -0.14558002 -0.20734866 -0.16688277 -0.3395403
-0.27934682 -0.118438736 -0.07815896 0.27198872 0.23929842 0.18929403 -0.24542373 0.24049526
-0.38634416 0.15808375 0.14041577 -0.11960638 0.025323281 0.00459299 -0.031211197 0.08998086
-0.070392914 0.23049521 -0.16139477 0.04966258 -0.1790145 -0.35158706 0.098866895 -0.054048706
-0.079046406 0.25057316 0.3104882 -0.16441324 -0.14783104 -0.29426816 -0.33907992 0.005393941
0.06596644 0.0014504825 -0.24307598 0.07085443 -0.58549935 -0.06597403 0.5243538 0.33918145
0.1959642 0.14789659 -0.109075755 -0.3480882 -0.2142794 0.18850797 -0.43108904 -0.29559836
0.0019343002 0.26411104 0.059099995 -0.12084993 -0.080602475 0.4309348 -0.1753338 0.056215487
00000000: 8295 5d3e 31ca e7bd ac7b 733e ba7f 3dbf
00000010: ee12 15be 3553 54be 51e3 2abe 3ad8 adbe
00000020: 8c06 8fbe 0290 f2bd ce11 a0bd 1b42 8b3e
00000030: a50a 753e 4bd6 413e 5c50 7bbe 6444 763e
00000040: e7ce c5be b5e0 213e 27c9 0f3e 31f4 f4bd
00000050: c572 cf3c cb80 963b a0ae ffbc e347 b83d
00000060: 292a 90bd f006 6c3e ac44 25be fd6a 4b3d
00000070: 944f 37be 3803 b4be ba7a ca3d 2d62 5dbd
00000080: 15e3 a1bd 204b 803e 4ff8 9e3e f25b 28be
00000090: 0561 17be 51aa 96be e29b adbe a8bf b03b
000000a0: 6a19 873d 1e1e be3a e9e8 78be 211c 913d
000000b0: 49e3 15bf 641d 87bd 0d3c 063f 31a9 ad3e
000000c0: d7aa 483e 3472 173e 1c63 dfbd 9e38 b2be
000000d0: 0f6c 5bbe 3c08 413e b4b7 dcbe ab58 97be
000000e0: 5888 fd3a 9039 873e d612 723d 2b80 f7bd
000000f0: e912 a5bd 7ca3 dc3e b48a 33be 3642 663d

encoder.conv2.nn.1.running_var f4 [64]
0.24808201 0.23646429 0.27390328 0.47058457 0.28672847 0.20789415 0.28558642 0.42128623
0.25681525 0.298715 0.22019453 0.2796863 0.31331632 0.18539365 0.21568626 0.27296954
0.4165673 0.19753937 0.31705394 0.17548554 0.19218044 0.29183546 0.102993585 0.20410642
0.2685095 0.35319883 0.3600447 0.2545977 0.25501287 0.2764583 0.22937292 0.20589592
0.17005874 0.24941963 0.14855498 0.3023335 0.15714899 0.117459305 0.34137037 0.10987578
0.42926952 0.08486715 0.46885374 0.24384397 0.09258255 0.15108527 0.27492657 0.14104728
0.118678465 0.45187846 0.16707692 0.17703997 0.24688213 0.36841196 0.38849932 0.13854901
0.1568131 0.31310683 0.29204196 0.5263507 0.5067517 0.2502153 0.18890059 0.13043657
00000000: 3609 7e3e b223 723e 0d3d 8c3e 76f0 f03e
00000010: 13ce 923e 34e2 543e 6238 923e d4b2 d73e
00000020: 4a7d 833e 2cf1 983e ad7a 613e 0b33 8f3e
00000030: ff6a a03e d5d7 3d3e dcdc 5c3e aac2 8b3e
00000040: 4f48 d53e c347 4a3e e554 a23e 7bb2 333e
00000050: f3ca 443e 756b 953e 4dee d23d 4601 513e
00000060: 147a 893e 7ad6 b43e c757 b83e a15a 823e
00000070: 0c91 823e f18b 8d3e bce0 6a3e 61d6 523e
00000080: e123 2e3e dc67 7f3e cc1e 183e 75cb 9a3e
00000090: aaeb 203e 818e f03d 19c8 ae3e 8e06 e13d
000000a0: 37c9 db3e d4ce ad3d 990d f03e 3cb2 793e
000000b0: ec9b bd3d 19b6 1a3e 2dc3 8c3e b36e 103e
000000c0: b20d f33d 9d5c e73e 3616 2b3e f749 353e
000000d0: abce 7c3e 7ea0 bc3e 62e9 c63e cbdf 0d3e
000000e0: 9d93 203e 8a4f a03e 8686 953e ebbe 063f
000000f0: 7bba 013f 381c 803e 286f 413e 2a91 053e

encoder.conv3.nn.0.weight f4 [128, 128]
-0.10321884 -0.05690236 0.023993082 -0.027039897 0.05589582 -0.043159705 -0.104335025 -0.028043253
-0.050164852 -0.004747402 0.08022643 -0.041604735 0.009051989 0.007463624 -0.09237678 0.058169056
-0.012274202 -0.04529866 0.018440334 0.0075369314 0.019144952 -0.064614736 -0.04055973 0.059978683
-0.05632612 -0.043826554 -0.067458846 0.0070229196 0.024941923 -0.029250091 0.075428315 0.0031659924
-0.06256611 0.0292288 -0.066199414 -0.09223547 -0.08001856 -0.059895914 -0.058291364 -0.04959592
-0.118188374 0.021615364 0.026791075 0.10159278 -0.031081377 0.05854363 -0.0019753384 0.04096493
0.02527197 0.044088457 0.05626557 -0.08152011 0.06804167 0.05422535 0.058986284 -0.105925314
-0.058256626 -0.11499951 0.039772056 -0.008846211 -0.07880723 -0.05982595 -0.031389907 0.066887245
0.0104947975 -0.07349196 -0.027248414 -0.09561322 0.06519349 -0.010724188 0.04162827 0.000103309314
-0.07387834 -0.0210977 0.008531927 -0.033365093 -0.055190593 0.010931606 -0.02061939 0.09396557
0.04979495 0.057831828 -0.054685753 -0.07121849 -0.03557807 -0.04428997 0.040497683 0.020730866
0.018481389 0.087391 -0.016853344 -0.036629457 0.05365579 -0.07198762 0.04794942 0.029693248
-0.02155611 0.07091197 -0.010175209 0.01908324 -0.020045262 0.07765359 0.08776077 0.050454985
0.10169109 0.02398899 -0.07892193 -0.011629453 0.022937432 -0.018975455 -0.05888727 0.07309028
0.039899707 0.095686726 0.024153575 0.07821045 0.028803783 0.09888975 0.056149896 -0.030761005
0.05037211 -0.018127339 0.062078293 -0.07620568 -0.05235086 0.05152091 -0.029575571 0.07042228
0.04506291 0.02584703 -0.102518976 0.08166423 0.02103658 0.11163101 0.04481702 0.061864033
0.013676204 0.002847036 -0.08099148 0.008169823 0.05270044 -0.0460341 0.06699569 0.07381657
-0.08888874 -0.079679295 -0.0611205 -0.015856162 0.022502562 -0.027351538 -0.07785092 -0.077457935
0.08333662 0.07736416 -0.08758081 -0.08234816 0.0021838464 -0.04378263 0.055595543 0.009161787
-0.024140244 -0.004558788 0.04992636 0.095147364 0.047485285 0.08368969 -0.120916195 -0.050118614
-0.05261878 -0.031334184 -0.026188357 -0.015517426 -0.041013774 0.019463183 0.013963187 0.007741232
0.041803256 -0.055898163 -0.15858449 -0.029581128 -0.029856356 0.07356577 0.09599383 -0.052627236
-0.0223106 -0.02149309 0.05931947 0.122626804 0.036985863 -0.06261013 -0.011524624 0.025716722
0.038042355 0.015183273 0.015620752 -0.004238721 0.08352054 -0.030050121 -0.005512959 -0.097414844
-0.014862478 0.055400643 -0.051524784 0.04953424 -0.025719035 -0.007918142 0.10860285 -0.026392568
0.046284985 -0.122782744 0.071460195 0.03924648 0.0035680723 -0.011433809 0.03304663 0.07953845
-0.0066695134 -0.047345992 -0.070848785 0.07310394 -0.06961695 -0.030964278 0.058610298 -0.099009484
-0.026196493 -0.07518645 -0.050783224 0.0523022 -0.0597299 -0.028746728 0.0011863763 0.016596489
-0.0417201 -0.019853354 0.07040642 -0.0014027271 0.05142399 -0.04395703 0.03897513 -0.019622834
0.004706933 0.13096105 -0.024739578 0.03710021 -0.0154157 0.029855872 0.018582687 0.0006977008
-0.036591314 0.00091251405 -0.01888607 -0.047449637 0.09088007 0.040915526 0.092871524 -0.053194635
00000000: 6664 d3bd 7312 69bd 248d c43c c682 ddbc
00000010: 04f3 643d 3bc8 30bd 9aad d5bd f7ba e5bc
00000020: a979 4dbd 1890 9bbb c14d a43d ba69 2abd
00000030: cb4e 143c 6a91 f43b 0a30 bdbd ad42 6e3d
00000040: bc19 49bc 168b 39bd 2f10 973c 5df8 f63b
00000050: e0d5 9c3c bb54 84bd f621 26bd 35ac 753d
00000060: 38b6 66bd 7983 33bd dd27 8abd 8520 e63b
00000070: 0153 cc3c e39d efbc 297a 9a3d 8a7c 4f3b
00000080: a922 80bd 3d71 ef3c 8f93 87bd f3e5 bcbd
00000090: c5e0 a3bd 6b55 75bd edc2 6ebd 1725 4bbd
000000a0: bf0c f2bd b412 b13c f578 db3c e00f d03d
000000b0: 5f9e febc 72cb 6f3d ae74 01bb d8ca 273d
000000c0: 2a07 cf3c 1996 343d ba76 663d 04f4 a6bd
000000d0: 6e59 8b3d 671b 5e3d 9a9b 713d 5fef d8bd
000000e0: 809e 6ebd dd84 ebbd 06e8 223d b3ef 10bc
000000f0: af65 a1bd 0e0c 75bd b492 00bd 2efc 883d
00000100: 5ff2 2b3c f482 96bd 1138 dfbc ddd0 c3bd
00000110: 2a84 853d 81b4 2fbc 6882 2a3d c4a7 d838
00000120: 874d 97bd 15d5 acbc 7fc9 0b3c d6a9 08bd
00000130: 880f 62bd 7b1a 333c ffe9 a8bc 0571 c03d
00000140: caf5 4b3d 11e1 6c3d 2bfe 5fbd 00db 91bd
00000150: 4fba 11bd 6669 35bd e6e0 253d c7d3 a93c
00000160: 4866 973c 0dfa b23d 0610 8abc c508 16bd
00000170: 2cc6 5b3d 3f6e 93bd 9c66 443d 413f f33c
00000180: 7096 b0bc 4c3a 913d ebb5 26bc 7454 9c3c
00000190: f635 a4bc d808 9f3d ebbb b33d e3a9 4e3d
000001a0: 6b43 d03d 8f84 c43c d2a1 a1bd 7689 3ebc
000001b0: 48e7 bb3c 6a72 9bbc c733 71bd 5bb0 953d
000001c0: e06d 233d 67f7 c33d b8dd c53c cd2c a03d
000001d0: e9f5 eb3c b686 ca3d 6ffd 653d 81fe fbbc
000001e0: fc52 4e3d c97f 94bc cf45 7e3d b911 9cbd
000001f0: db6d 56bd 9707 533d 7848 f2bc 8e39 903d
00000200: e393 383d 27bd d33c 78f5 d1bd 933f a73d
00000210: e854 ac3c cd9e e43d 0d92 373d 2465 7d3d
00000220: 2812 603c 5795 3a3b dcde a5bd b9da 053c
00000230: 6bdc 573d 418e 3cbd 0935 893d 242d 973d
00000240: 4d0b b6bd e62e a3bd 7d59 7abd c8e4 81bc
00000250: 4b57 b83c 5510 e0bc 4e70 9fbd 44a2 9ebd
00000260: 64ac aa3d 1a71 9e3d 915d b3bd 27a6 a8bd
00000270: dd1e 0f3b 6a55 33bd 27b8 633d 521b 163c
00000280: c3c1 c5bc e361 95bb 957f 4c3d 9fdc c23d
00000290: ee7f 423d 8065 ab3d e9a2 f7bd 2d49 4dbd
000002a0: ca86 57bd 4658 00bd f788 d6bc cd3c 7ebc
000002b0: 0ffe 27bd 4171 9f3c dac5 643c 29aa fd3b
000002c0: e439 2b3d 79f5 64bd f963 22be 1f54 f2bc
000002d0: 5195 f4bc a7a9 963d 6a98 c43d a88f 57bd
000002e0: b8c4 b6bc 4712 b0bc f9f8 723d c323 fb3d
000002f0: 7d7e 173d bd39 80bd c7d1 3cbc e0ab d23c
00000300: 4dd2 1b3d 43c3 783c 2fee 7f3c f8e4 8abb
00000310: d10c ab3d ac2b f6bc 0da6 b4bb 6f81 c7bd
00000320: c081 73bc c9eb 623d a70b 53bd 6ae4 4a3d
00000330: bab0 d2bc 18bb 01bc 2c6b de3d 3a35 d8bc
00000340: 5395 3d3d 8575 fbbd b959 923d ebc0 203d
00000350: 52d6 693b df54 3bbc e75b 073d 0ee5 a23d
00000360: ef8b dabb dfed 41bd 2b19 91bd 85b7 953d
00000370: 5593 8ebd cca8 fdbc 5a11 703d 7cc5 cabd
00000380: 079a d6bc 5afb 99bd 1202 50bd d53a 563d
00000390: 57a7 74bd 427e ebbc 2f80 9b3a 5cf5 873c
000003a0: b2e2 2abd 80a3 a2bc 3e31 903d b6db b7ba
000003b0: f6a1 523d 490c 34bd 63a4 1f3d 11c0 a0bc
000003c0: 9e3c 9a3b a71a 063e a8aa cabc 64f6 173d
000003d0: 2292 7cbc 4d94 f43c b83a 983c e8e5 363a
000003e0: c6e0 15bd c835 6f3a f6b6 9abc 8d5a 42bd
000003f0: 551f ba3d 0a97 273d 6d33 be3d 9ee2 59bd

encoder.conv3.nn.0.bias f4 [128]
-0.0040672384 -0.027278772 0.086439826 0.011177553 -0.07377983 0.009051655 -0.021979108 -0.021057786
-0.08692083 0.024958426 0.037826933 -0.03754208 0.0018432359 -0.061307292 -0.018027836 -0.005271901
-0.02668392 0.06880405 -0.028005965 -0.015307071 -0.00018131023 0.015044957 0.07700447 -0.08591188
-0.006537838 -0.011371402 -0.009343814 0.07874099 -0.06930044 0.07202804 0.048572242 0.053657543
-0.06837611 0.058948983 0.037802063 0.016713293 -0.057734955 0.015764495 -0.059132103 0.004815781
-0.016695466 0.07257893 0.05493496 -0.020322965 0.04016294 -0.08292901 -0.077526316 0.02933429
0.06454322 0.043173097 -0.03398704 0.029936224 -0.042147677 -0.013774744 0.071805336 0.045869462
-0.034562733 -0.05055059 -0.058149897 0.019139754 0.06269031 -0.0611113 0.012736232 0.09498756
0.018364273 0.0693297 -0.062493347 -0.049540732 0.0361893 -0.006385377 -0.045369066 -0.037824877
0.01226273 0.04272953 -0.05631776 -0.041673787 0.02868309 0.019832883 0.07283259 0.03729995
0.064953454 -0.043497358 0.023848224 0.030636713 -0.041612856 -0.046171263 -0.07414248 0.03637712
0.024374908 0.0075367005 0.07329645 -0.084072314 0.01653638 -0.06046889 -0.098420665 -0.0329612
0.0349499 0.073201366 -0.018990075 -0.02243537 -0.050105 0.03221605 -0.05085751 -0.010048732
-0.055057563 -0.03414374 0.0054880353 -0.08704458 0.065021545 0.011257339 -0.028520063 -0.01961263
-0.05354046 -0.035284486 -0.07955593 0.02907543 0.06875623 0.052252956 -0.040770758 0.076108105
0.09465458 -0.0037973612 -0.0033577275 0.066130415 -0.028877528 -0.06475267 0.03312722 0.023640813
00000000: 7846 85bb bb77 dfbc 5d07 b13d 0e22 373c
00000010: e119 97bd 654d 143c 880d b4bc 6181 acbc
00000020: 8c03 b2bd 9d75 cc3c 6af0 1a3d b9c5 19bd
00000030: bc98 f13a 5b1d 7bbd 1daf 93bc e9bf acbb
00000040: 3c98 dabc 23e9 8c3d c46c e5bc 82ca 7abc
00000050: 181e 3eb9 207f 763c 85b4 9d3d 91f2 afbd
00000060: 5c3b d6bb 1e4f 3abc cc16 19bc f542 a13d
00000070: 64ed 8dbd 7083 933d b0f3 463d 03c8 5b3d
00000080: c608 8cbd 7d74 713d 56d6 1a3d 51ea 883c
00000090: 7d7b 6cbd 8b24 813c 8134 72bd b3cd 9d3b
000000a0: eec4 88bc 43a4 943d 7b03 613d 597c a6bc
000000b0: e581 243d afd6 a9bd 1ec6 9ebd 774e f03c
000000c0: 3c2f 843d 46d6 303d ff35 0bbd d03c f53c
000000d0: 0ba3 2cbd 77af 61bc ad0e 933d 9ee1 3b3d
000000e0: a791 0dbd 230e 4fbd 962e 6ebd f9ca 9c3c
000000f0: c763 803d d84f 7abd a1ab 503c d688 c23d
00000100: ac70 963c bbfc 8d3d 06f9 7fbd 39eb 4abd
00000110: 3b3b 143d 6d3c d1bb ead4 39bd 42ee 1abd
00000120: 9ee9 483c 2905 2f3d 74ad 66bd 22b2 2abd
00000130: cdf8 ea3c 9278 a23c 4129 953d d5c7 183d
00000140: 5106 853d 492a 32bd 5a5d c33c d8f9 fa3c
00000150: 3e72 2abd 141e 3dbd 03d8 97bd 2d00 153d
00000160: e3ad c73c 6df6 f63b 731c 963d 1b2e acbd
00000170: 4d77 873c 3aae 77bd c690 c9bd 5302 07bd
00000180: a027 0f3d 99ea 953d 1391 9bbc 62ca b7bc
00000190: e73a 4dbd faf4 033d f74f 50bd 70a3 24bc
000001a0: 0a84 61bd 4eda 0bbd fad4 b33b 6e44 b2bd
000001b0: 042a 853d b470 383c e8a2 e9bc abaa a0bc
000001c0: 3e4d 5bbd 7786 10bd 38ee a2bd 992f ee3c
000001d0: 11d0 8c3d 3207 563d 3dff 26bd 91de 9b3d
000001e0: 43da c13d 26dd 78bb 520d 5cbb 626f 873d
000001f0: 9190 ecbc 0c9d 84bd 68b0 073d 61aa c13c

encoder.conv3.nn.1.weight f4 [128]
0.9862431 0.9833029 1.0283041 0.9829423 1.0070548 1.0105119 0.96321416 1.0173352
0.98456 1.0050557 0.9949779 1.0070968 0.9620505 0.99297 0.9994375 0.97355026
1.0429131 0.95339745 1.0141401 1.0188022 1.0345825 0.99662465 0.9900814 0.9798637
0.98938286 0.9918401 0.9862901 1.0714238 1.000235 1.0535423 1.030429 1.0036587
1.0724651 1.0206335 0.93814886 0.9373613 0.99839246 0.999497 1.0177039 0.99676794
1.0421433 1.0140325 0.971946 1.0001664 0.9889086 1.0118237 1.0002084 0.97734165
1.0599765 1.0345879 1.0110441 0.9757365 0.98015577 0.99101067 1.0158685 1.0032879
0.9866589 1.0046418 1.0093442 1.024663 0.9976016 1.0232886 0.98086566 0.9872299
1.0207512 0.9964136 0.98889434 1.0683618 0.9865866 1.01812 0.957378 0.9868419
0.9805697 0.9853679 1.0051904 0.9995375 0.97967684 0.95349824 0.99700695 0.99612933
1.0125208 0.9922099 0.97656935 0.9923377 0.97224206 1.0124165 0.9923952 0.9932889
0.9913914 0.97143716 1.0286698 1.0044253 0.99876577 1.0057805 1.0102097 0.97937524
1.0104976 0.9971979 1.0749851 1.0129865 0.99730194 1.0202408 1.0103565 1.0029881
0.96694183 1.0040436 0.9728865 0.95423156 0.9906894 1.0442711 1.0107377 1.0337178
0.99185187 0.99800175 0.9549964 0.98006696 0.978029 1.0072365 0.9861636 1.0021391
1.0070379 1.0108823 1.0033619 0.9774598 1.015903 0.9940599 1.0404476 0.99790525
00000000: 6e7a 7c3f bdb9 7b3f 789f 833f 1ba2 7b3f
00000010: 2ce7 803f 7458 813f 3495 763f 0a38 823f
00000020: 200c 7c3f aaa5 803f dfb6 7e3f 8ce8 803f
00000030: f148 763f 4833 7e3f 23db 7f3f 973a 793f
00000040: 2d7e 853f db11 743f 58cf 813f 1c68 823f
00000050: 336d 843f cb22 7f3f fa75 7d3f 59d8 7a3f
00000060: 3248 7d3f 3ce9 7d3f 827d 7c3f 6a24 893f
00000070: b307 803f 79da 863f 19e5 833f e377 803f
00000080: 8946 893f 1ea4 823f 862a 703f e9f6 6f3f
00000090: a696 7f3f 09df 7f3f 1f44 823f 2f2c 7f3f
000000a0: f464 853f d1cb 813f 74d1 783f 7405 803f
000000b0: 1d29 7d3f 7083 813f d406 803f 1033 7a3f
000000c0: 4fad 873f 606d 843f e569 813f dec9 793f
000000d0: 7deb 7a3f e0b2 7d3f fb07 823f bd6b 803f
000000e0: ad95 7c3f 1a98 803f 3132 813f 2828 833f
000000f0: d262 7f3f 1ffb 823f 031a 7b3f 19bb 7c3f
00000100: faa7 823f f614 7f3f 2e28 7d3f 14c0 883f
00000110: f090 7c3f c251 823f b916 753f aca1 7c3f
00000120: 9e06 7b3f 1241 7c3f 14aa 803f b1e1 7f3f
00000130: 1acc 7a3f 7618 743f d93b 7f3f 5502 7f3f
00000140: 489a 813f 7801 7e3f 7300 7a3f d809 7e3f
00000150: dbe4 783f dd96 813f 9d0d 7e3f 2e48 7e3f
00000160: d4cb 7d3f 1bb0 783f 74ab 833f 0291 803f
00000170: 1daf 7f3f 6abd 803f 8d4e 813f 56b8 7a3f
00000180: fc57 813f 5d48 7f3f 1d99 893f 8ba9 813f
00000190: 2e4f 7f3f 4097 823f 5d53 813f ea61 803f
000001a0: 8089 773f 8084 803f 170f 793f 8548 743f
000001b0: d29d 7d3f adaa 853f da5f 813f dd50 843f
000001c0: 01ea 7d3f 0b7d 7f3f a57a 743f abe5 7a3f
000001d0: 1c60 7a3f 20ed 803f 3875 7c3f 1846 803f
000001e0: 9ee6 803f 9764 813f 2a6e 803f ce3a 7a3f
000001f0: 1c09 823f b67a 7e3f 632d 853f b876 7f3f

encoder.conv3.nn.1.bias f4 [128]
0.00075031916 -0.05538543 0.012835667 -0.020359479 0.0041311765 0.0033990832 -0.028197512 0.027987218
-0.014181339 0.03401265 0.049770426 0.016455429 -0.07649791 0.02232886 -0.012363935 -0.020908425
0.019941272 -0.04946426 0.0384981 0.043766152 -0.0266252 0.035661038 -0.00953387 -0.0500669
0.018651055 0.010456797 -0.015426232 0.082271054 0.042009134 0.02223778 0.02324457 0.03800582
0.056945976 0.075761504 -0.011542808 -0.04880355 -0.008919045 -0.03425983 -0.016375175 -0.0006921654
0.092907816 -0.060960386 -0.029306483 0.011541555 -0.017825386 -0.037356537 -0.02972522 -0.010376339
0.11238488 -0.042421166 -0.012904823 0.004250307 -0.013887862 0.030207165 -0.008651025 0.0035761804
-0.023307081 0.005977307 -0.013511914 0.08789893 -0.051862117 0.044244293 0.053139295 -0.015078992
0.03085204 0.03152877 -0.008294132 0.029434808 0.01436031 0.06746672 0.0076650004 0.013185191
0.0386336 -0.015508843 -0.007378855 0.00046757446 0.04381496 -0.030123029 0.023065066 0.0010433994
0.044403344 -0.024025824 -0.007989165 0.001196421 -0.026300648 -0.05087464 0.015390203 -0.014777768
0.0066839647 0.016608115 0.07330749 -0.03810903 -0.017827684 -0.037809715 0.016544612 -0.057555005
-0.048995417 -0.045672026 -0.0007391376 0.016228072 -0.008078213 -0.03659487 0.011619798 -0.0029003231
-0.031127691 -0.002029661 -0.02988844 -0.059058513 0.01753486 -0.011733031 0.026034966 0.04508613
0.0063608275 -0.048414197 -0.039443437 0.026969267 -0.030571815 -0.013654529 -0.049804743 0.0342045
0.01599632 0.13905814 -0.016639955 -0.03515505 0.023820829 -0.018035661 0.003552345 -0.0055455407
00000000: 11b1 443a d5db 62bd b04c 523c ecc8 a6bc
00000010: d25e 873b 27c3 5e3b 78fe e6bc 7345 e53c
00000020: d958 68bc d950 0b3d 13dc 4b3d 89cd 863c
00000030: f0aa 9cbd 03eb b63c 1a92 4abc 2548 abbc
00000040: e15b a33c 099b 4abd 2fb0 1d3d 2344 333d
00000050: 171d dabc 4f11 123d f333 1cbc f312 4dbd
00000060: 19ca 983c fc52 2b3c 4ebe 7cbc ba7d a83d
00000070: c511 2c3d 012c b63c 656b be3c feab 1b3d
00000080: 2f40 693d d928 9b3d 0c1e 3dbc 3be6 47bd
00000090: 3021 12bc 0954 0cbd 3b25 86bc 6f72 35ba
000000a0: 7446 be3d 99b1 79bd 2614 f0bc ca18 3d3c
000000b0: 8b06 92bc 2b03 19bd 4e82 f3bc 8501 2abc
000000c0: 0b2a e63d d1c1 2dbd c06e 53bc 2946 8b3b
000000d0: ea89 63bc 0475 f73c 07bd 0dbc 5a5e 6a3b
000000e0: 7eee bebc 49dd c33b 1361 5dbc 5b04 b43d
000000f0: 5f6d 54bd 8139 353d 97a8 593d e00d 77bc
00000100: 6bbd fc3c 5024 013d 1ce4 07bc 4421 f13c
00000110: 8147 6b3c fe2b 8a3d af2a fb3b b306 583c
00000120: 443e 1e3d cd18 7ebc 52ca f1bb c824 f539
00000130: 5177 333d 92c4 f6bc f3f2 bc3c adc2 883a
00000140: 48e0 353d ced1 c4bc fde4 02bc 3ad1 9c3a
00000150: 7574 d7bc ed61 50bd 3127 7c3c 741e 72bc
00000160: 2905 db3b be0d 883c 3d22 963d 3718 1cbd
00000170: 5d0b 92bc 5cde 1abd 9188 873c ccbe 6bbd
00000180: 6baf 48bd 9712 3bbd afc2 41ba bcf0 843c
00000190: 7b5a 04bc 81e4 15bd f760 3e3c 5913 3ebb
000001a0: 80ff febc 1004 05bb 9ad8 f4bc 57e7 71bd
000001b0: 44a5 8f3c e63b 40bc 4847 d53c 3cac 383d
000001c0: 7d6e d03b f74d 46bd 718f 21bd a7ee dc3c
000001d0: be71 fabc 3fb7 5fbc 0f00 4cbd 051a 0c3d
000001e0: b70a 833c 4265 0e3e 8450 88bc befe 0fbd
000001f0: e623 c33c 86bf 93bc 76ce 683b 5eb7 b5bb

encoder.conv3.nn.1.running_mean f4 [128]
-0.45919308 -0.042546153 0.3042858 0.0048641027 0.36154106 0.09578412 0.19918723 -0.29589778
-0.23791958 -0.17902608 0.11070675 -0.4386032 0.21945961 -0.23219556 0.024257932 -0.08317128
-0.18243623 -0.48206624 0.42116618 0.105522335 -0.34985822 0.2486183 0.3788171 0.12718083
-0.003417731 -0.19298644 0.08350692 0.2943492 -0.054527126 -0.17709823 0.13404538 -0.069851585
-0.17379253 -0.065729454 0.027812079 -0.14940587 -0.345372 0.0950278 -0.54502755 0.008060559
0.38081938 0.36868235 0.1315304 0.005558227 0.341812 0.30327094 -0.009559957 -0.053731028
0.37452212 -0.050400876 -0.12129175 -0.1819798 -0.06597993 -0.11437361 -0.05160523 0.07802819
-0.23689486 0.08289571 0.27047172 0.13908987 -0.040605772 0.409544 -0.3171223 0.21783423
0.46433514 0.36802927 -0.12545328 -0.33037516 -0.0833795 0.0624413 0.2636105 0.094955646
0.12701981 0.08309678 -0.16491158 -0.24179442 0.023526397 0.36443543 0.47417 -0.04330579
0.19194445 -0.113653205 -0.032923304 -0.0058469223 0.11462707 -0.18517104 -0.087976396 0.14756304
0.01900636 0.13770051 0.10686042 0.031730495 0.15333815 0.010257033 0.07291904 0.09177161
0.11257943 0.4696884 -0.063629545 0.024198567 0.28492606 -0.21468249 -0.13137408 -0.12428113
0.23538387 -0.05382811 0.27025345 0.03722197 0.28886628 0.5747184 -0.15374625 -0.21928503
-0.5510621 0.026805108 0.19536829 -0.22475766 0.09226064 0.15600878 0.052436016 -0.13120435
-0.22868988 -0.104807846 0.22539912 0.30062023 0.20047499 0.05070162 0.0864339 0.37571147
00000000: 5b1b ebbe e044 2ebd 59cb 9b3e 0d63 9f3b
00000010: e91b b93e 772a c43d bdf7 4b3e ea7f 97be
00000020: 31a1 73be 9d52 37be 38ba e23d 9990 e0be
00000030: 05ba 603e acc4 6dbe 92b8 c63c b455 aabd
00000040: 90d0 3abe 63d1 f6be 18a3 d73e 181c d83d
00000050: 9e20 b3be cc95 7e3e 51f4 c13e b13b 023e
00000060: 03fc 5fbb 3d9e 45be ad05 ab3d f0b4 963e
00000070: d657 5fbd 3d59 35be 3143 093e 590e 8fbd
00000080: abf6 31be 2a9d 86bd 28d6 e33c dafd 18be
00000090: 99d4 b0be ef9d c23d ed86 0bbf 6f10 043c
000000a0: c2fa c23e efc3 bc3e e8af 063e ca21 b63b
000000b0: fc01 af3e 5446 9b3e 5ea1 1cbc 1115 5cbd
000000c0: 5dc1 bf3e 2671 4ebd cf67 f8bd ea58 3abe
000000d0: 7c20 87bd b63c eabd 0160 53bd 3ecd 9f3d
000000e0: 9194 72be 3ac5 a93d 457b 8a3e 936d 0e3e
000000f0: 3d52 26bd c0af d13e db5d a2be f00f 5f3e
00000100: 56bd ed3e 556e bc3e d376 00be ef26 a9be
00000110: dfc2 aabd 73c2 7f3d f5f7 863e 1b78 c23d
00000120: 7b11 023e a52e aa3d 95de 28be f598 77be
00000130: 6eba c03c 4897 ba3e 69c6 f23e 6961 31bd
00000140: 168d 443e 03c3 e8bd 96da 06bd 8a97 bfbb
00000150: 99c1 ea3d 7a9d 3dbe f82c b4bd c41a 173e
00000160: 3ab3 9b3c 5d01 0d3e a3d9 da3d d6f7 013d
00000170: ad04 1d3e 1d0d 283c 9456 953d c1f2 bb3d
00000180: 0b90 e63d ff7a f03e 3550 82bd 133c c63c
00000190: d4e1 913e bad5 5bbe ed86 06be 1b87 febd
000001a0: 7808 713e dd7a 5cbd a95e 8a3e 1076 183d
000001b0: 48e6 933e bf20 133f a86f 1dbe 418c 60be
000001c0: 6812 0dbf 6396 db3c a00e 483e df26 66be
000001d0: 25f3 bc3d c4c0 1f3e 26c7 563d 6f5a 06be
000001e0: ae2d 6abe 7fa5 d6bd 07cf 663e e5ea 993e
000001f0: 5149 4d3e 80ac 4f3d 4204 b13d 415d c03e

encoder.conv3.nn.1.running_var f4 [128]
0.3427503 0.09983512 0.18635933 0.2211185 0.16567764 0.31647682 0.2999099 0.13249767
0.23899525 0.089905106 0.6211733 0.194017 0.5842696 0.25891706 0.16366048 0.20638055
0.10618718 0.24771868 0.11772099 0.12114165 0.08993101 0.12848178 0.36641958 0.34914985
0.15563466 0.35233936 0.39071137 0.12169724 0.38975668 0.30016634 0.19504923 0.327933
0.23605302 0.10808348 0.23097691 0.27510318 0.12959832 0.18984951 0.091719754 0.22134775
0.114932835 0.1634534 0.26450956 0.12539926 0.52144074 0.24320553 0.36153018 0.08140361
0.10006785 0.10562281 0.14047417 0.34893915 0.15713112 0.25532997 0.065586455 0.1542631
0.23208134 0.09885302 0.06997878 0.056130376 0.23643671 0.29922765 0.15707687 0.28229564
0.12056043 0.10853633 0.47610193 0.048167657 0.091004096 0.11051831 0.17212391 0.16643517
0.22310169 0.31205317 0.19908725 0.17019837 0.26603273 0.11638734 0.35083228 0.28128535
0.17144498 0.11610775 0.27438936 0.21709955 0.2735814 0.17201702 0.1837094 0.30551654
0.3512352 0.10991603 0.13933884 0.12656055 0.2139907 0.20824625 0.1936297 0.20420012
0.26179826 0.12363679 0.103046566 0.2395507 0.15593705 0.13562213 0.24545698 0.089733206
0.23351128 0.1680093 0.3878211 0.32415837 0.14883962 0.05385608 0.20488352 0.09477824
0.15824354 0.23811485 0.22704527 0.23100907 0.25707555 0.19840088 0.35594165 0.3838767
0.2617268 0.11035766 0.2793987 0.21466148 0.17940278 0.10627084 0.2450735 0.22358233
00000000: f87c af3e 5b76 cc3d fbd4 3e3e e36c 623e
00000010: 66a7 293e 4009 a23e ca8d 993e 78ad 073e
00000020: 2cbb 743e 2b20 b83d 3705 1f3f 64ac 463e
00000030: b192 153f c790 843e 9d96 273e 6c55 533e
00000040: aa78 d93d f7a9 7d3e b417 f13d 1d19 f83d
00000050: c02d b83d ba90 033e 599b bb3e c5c3 b23e
00000060: b15e 1f3e d365 b43e 520b c83e 673c f93d
00000070: 308e c73e 67af 993e fcba 473e d6e6 a73e
00000080: e2b7 713e df5a dd3d 3685 6c3e 53da 8c3e
00000090: 6cb5 043e e967 423e 91d7 bb3d fca8 623e
000000a0: e861 eb3d 5460 273e cc6d 873e aa68 003e
000000b0: 247d 053f df0a 793e 7c1a b93e f0b6 a63d
000000c0: 5ff0 cc3d c650 d83d 76d8 0f3e 27a8 b23e
000000d0: fbe6 203e 9cba 823e 3152 863d 25f7 1d3e
000000e0: bba6 6d3e 7473 ca3d 0951 8f3d f7e8 653d
000000f0: 771c 723e 5e34 993e c2d8 203e 0e89 903e
00000100: 63e8 f63d 4c48 de3d a2c3 f33e 734b 453d
00000110: 5b60 ba3d 6c57 e23d 4041 303e fb6d 2a3e
00000120: c574 643e 6fc5 9f3e 87dd 4b3e 7b48 2e3e
00000130: 7135 883e 7c5c ee3d 4aa0 b33e a204 903e
00000140: 468f 2f3e e6c9 ed3d c37c 8c3e 584f 5e3e
00000150: dc12 8c3e 3b25 303e 511e 3c3e aa6c 9c3e
00000160: 1ad5 b33e a81b e13d d7ae 0e3e 1799 013e
00000170: 6120 5b3e 813e 553e dd46 463e d619 513e
00000180: 6c0a 863e 4935 fd3d 140a d33d c74c 753e
00000190: f6ad 1f3e 87e0 0a3e 1359 7b3e 0bc6 b73d
000001a0: 951d 6f3e a10a 2c3e 7d90 c63e 16f8 a53e
000001b0: 6a69 183e 3198 5c3d fccc 513e 181b c23d
000001c0: 980a 223e 61d4 733e 8e7e 683e a48d 6c3e
000001d0: 689f 833e 9a29 4b3e fc3d b63e 7d8b c43e
000001e0: 0e01 863e 3203 e23d 590d 8f3e 38d0 5b3e
000001f0: 5db5 373e 87a4 d93d 8cf4 7a3e c4f2 643e
